models/best_fraud_model.pth (torch, 55825 bytes, 18 tensors)

convs.0.bias f4 [64]
-0.00010660498 0.00077239133 -0.00057605293 0.0002924233 8.6555765e-06 -0.00027754568 -0.00049883506 0.00020619277
0.00011294771 -5.2399715e-05 -0.00012564496 -5.5005894e-05 -0.00035787874 0.00033872377 -0.00016113384 0.0002999914
-0.0002835712 -0.00019644649 -4.182964e-05 -0.0004559867 -0.00030389137 -0.00011122683 -4.7143993e-05 0.0005190052
0.00035847822 -0.00032838323 -0.0003335936 0.0003946459 6.081771e-05 -8.030035e-05 -0.00022214178 -0.00013144678
0.000104276 -1.996592e-05 0.00019597639 3.374603e-05 5.2399715e-05 -0.00012145312 4.9779126e-05 -5.5005894e-05
0.00034377555 -2.9019375e-06 -0.00034502646 -4.449421e-05 -0.0002306328 -0.0001180706 0.00018981489 -9.721559e-05
0.0001460181 -0.00044545054 3.408557e-05 -0.00019456283 0.00033423922 0.00019738499 0.00014067868 -0.0005823019
0.00020756583 -0.00014760702 3.8477963e-05 0.00038157124 1.996592e-05 0.00023576648 -0.0003052988 2.2753298e-05
00000000: 1d91 dfb8 4e7a 4a3a 4202 17ba 6450 9939
00000010: 6b37 1137 8d83 91b9 41c4 02ba 7335 5839
00000020: 57de ec38 c4c7 5bb8 90bf 03b9 21b6 66b8
00000030: aca1 bbb9 bc96 b139 09f6 28b9 2a48 9d39
00000040: 48ac 94b9 34fd 4db9 3c72 2fb8 8011 efb9
00000050: 9c53 9fb9 7342 e9b8 7abc 45b8 d90d 083a
00000060: 22f2 bb39 da2a acb9 2de6 aeb9 7ae8 ce39
00000070: 8516 7f38 ec66 a8b8 bbee 68b9 fad4 09b9
00000080: c0ae da38 7d7c a7b7 037f 4d39 868a 0d38
00000090: c4c7 5b38 a6b4 feb8 eec9 5038 21b6 66b8
000000a0: c63c b439 e8be 42b6 abe4 b4b9 4b9f 3ab8
000000b0: 05d6 71b9 ac9c f7b8 0c09 4739 39e0 cbb8
000000c0: 6f1c 1939 5c8b e9b9 1af7 0e38 9003 4cb9
000000d0: d43c af39 21f9 4e39 2583 1339 9ea5 18ba
000000e0: 07a6 5939 f5c6 1ab9 6663 2138 a00d c839
000000f0: 7d7c a737 1538 7739 8310 a0b9 56de be37

convs.0.lin.weight f4 [64, 16]
-0.0013495159 -0.20070581 0.2015316 -0.19022582 0.1958285 -0.17038852 -0.2710985 0.069233544
-0.13000809 0.18362321 -0.09179681 0.025149483 0.20485254 -0.17886266 -0.11174969 0.18546598
0.23201561 0.04673318 0.21152982 0.16666937 0.15585086 -0.00979637 0.2654099 -0.086060256
0.017641116 -0.08166545 -0.021521907 0.16557668 0.20662798 0.039823834 0.1810345 0.19296902
0.13211241 -0.07363449 0.15878822 0.22888261 0.2255511 0.06996038 0.20110562 -0.18819346
0.05087116 -0.24160911 0.14158432 0.011572439 -0.051683404 0.17358059 -0.040921293 0.11082006
0.14833911 -0.1348556 -0.2362352 0.023459367 -0.16846916 -0.15430595 0.12797046 0.06407763
-0.05986153 -0.098561995 -0.2015271 -0.11802739 0.018553896 -0.15899171 -0.24763076 -0.26432678
-0.25926122 -0.124973185 0.0727869 -0.12623541 0.18191963 0.14887847 -0.21527237 0.06842564
-0.11694559 0.22612981 0.208519 0.12461163 -0.13814645 0.038601216 -0.17166176 0.042003434
0.27173358 -0.051804602 -0.1564915 -0.13249668 -0.16897483 0.13973215 -0.16052808 0.19069453
0.1588821 0.16575612 -0.014133345 -0.05816978 0.10020657 -0.041907355 0.11105856 0.062131405
0.094242804 -0.11606723 0.1687939 -0.051527314 0.15461394 -0.017882232 -0.26814792 -0.022332327
-0.08831912 -0.1367819 -0.011714083 -0.103633806 0.020457232 -0.07985369 -0.16891985 0.09953843
-0.22328518 -0.21301451 -0.04207376 -0.022845304 -0.25717333 0.13817199 0.023601025 0.11448803
-0.0017025396 -0.05877521 -0.09737606 -0.023460003 -0.21422051 0.11927192 0.07884036 0.19485483
-0.2548329 -0.027527653 -0.1063983 0.009511325 0.0408172 -0.039775893 -0.021229811 -0.046215404
0.06761266 -0.15070306 -0.030735902 0.13636105 0.18339758 0.029629031 -0.029083248 0.046882175
0.12708221 0.051377393 -0.16036418 -0.2148073 0.1283949 -0.118733235 0.10356114 -0.23631002
0.15077536 0.114140205 -0.055043336 -0.20820673 -0.029919373 0.1540858 0.20795575 -0.011146392
-0.023662876 0.22365345 0.046721242 0.2605194 0.24675171 -0.17882687 -0.19408096 -0.08989888
-0.040875547 0.24695216 -0.20699061 0.12114386 0.21114163 0.018215913 -0.23062158 -0.20775828
0.03972646 0.07823758 0.0646187 0.17141339 0.1769523 -0.23763423 0.13004959 0.17109753
-0.13931334 -0.16985407 -0.24692556 -0.2692037 0.14209025 0.07685676 -0.14776352 -0.24381569
-0.25358832 0.24748324 0.08913497 0.04377336 -0.023641385 0.11079593 0.030679867 0.11722393
0.07087444 -0.14208733 -0.12900184 0.07113199 0.07039501 0.19236092 -0.20157635 0.13202497
-0.2502219 0.022464242 -0.22136387 -0.13569893 -0.15753439 0.2433294 0.242747 -0.122458674
-0.0104842065 -0.2305153 -0.2233779 -0.13965695 0.025643608 -0.24551745 -0.05800432 0.038749907
0.004083598 -0.009666119 0.050284896 0.2718878 -0.23290227 -0.1965723 0.14413148 0.0828848
0.23169486 0.21896522 -0.20239824 -0.06320503 -0.24759582 0.10937526 0.16445358 -0.21623777
-0.15008289 0.14527705 0.06571992 -0.172194 -0.0023587244 -0.18303256 0.10519264 0.05172495
0.0753764 -0.013924282 0.015890341 -0.20413189 0.25464475 -0.01020507 0.0066423537 0.025751598
00000000: 3de2 b0ba d385 4dbe 4d5e 4e3e 8fca 42be
00000010: 4487 483e 547a 2ebe 6ccd 8abe 51ca 8d3d
00000020: d720 05be b907 3c3e f7ff bbbd 4a06 ce3c
00000030: ddc4 513e c627 37be 05dd e4bd cbea 3d3e
00000040: 8095 6d3e 4a6b 3f3d 469b 583e 60ab 2a3e
00000050: 5e97 1f3e f480 20bc cee3 873e 5c40 b0bd
00000060: 1a84 903c 3740 a7bd b64e b0bc ef8c 293e
00000070: 4996 533e 511e 233d 1c61 393e ac99 453e
00000080: 7a48 073e aecd 96bd 6199 223e 3460 6a3e
00000090: def6 663e 6347 8f3d a2ee 4d3e c9b5 40be
000000a0: 475e 503d 6168 77be 7bfb 103e 549a 3d3c
000000b0: fab1 53bd 1cbf 313e 169d 27bd a1f5 e23d
000000c0: 35e6 173e 9617 0abe a4e7 71be dc2d c03c
000000d0: 2e83 2cbe 6102 1ebe b00a 033e 223b 833d
000000e0: 5d31 75bd dfda c9bd 1f5d 4ebe 58b8 f1bd
000000f0: 57fe 973c b9ce 22be eb92 7dbe d755 87be
00000100: e3bd 84be f1f1 ffbd 4c11 953d db43 01be
00000110: 2449 3a3e 9973 183e 5c70 5cbe be22 8c3d
00000120: 2b81 efbd 938e 673e 0186 553e 6234 ff3d
00000130: 4376 0dbe 4f1c 1e3d 1ac8 2fbe cb0b 2c3d
00000140: aa20 8b3e 1031 54bd 4f3f 20be 36ad 07be
00000150: bd07 2dbe f215 0f3e 7961 24be 6d45 433e
00000160: fdb1 223e f9bb 293e 8c8f 67bc 6f43 6ebd
00000170: 1a39 cd3d 0ca7 2bbd ac72 e33d 807d 7e3d
00000180: 5f02 c13d a8b4 edbd 4fd8 2c3e 4e0e 53bd
00000190: 1e53 1e3e c27d 92bc af4a 89be 49f2 b6bc
000001a0: a8e0 b4bd 8e10 0cbe 6dec 3fbc f63d d4bd
000001b0: ed95 a73c 558a a3bd 53f9 2cbe ceda cb3d
000001c0: dfa4 64be 7a20 5abe 8955 2cbd 1326 bbbc
000001d0: 39ac 83be f57c 0d3e f056 c13c b378 ea3d
000001e0: c027 dfba 46be 70bd 1a6d c7bd 312f c0bc
000001f0: 9f5c 5bbe d644 f43d 0e77 a13d 0688 473e
00000200: 7579 82be ac81 e1bc 5ae7 d9bd 63d5 1b3c
00000210: f02f 273d 0cec 22bd 24ea adbc 5d4c 3dbd
00000220: 8278 8a3d e751 1abe dcc9 fbbc 3ba2 0b3e
00000230: 93cc 3b3e 95b8 f23c fe3f eebc 8607 403d
00000240: d721 023e 1a71 523d 8236 24be 72f6 5bbe
00000250: f479 033e 692a f3bd dd17 d43d 41fb 71be
00000260: db64 1a3e 57c2 e93d 1f75 61bd 2534 55be
00000270: 7919 f5bc abc8 1d3e 5af2 543e 5b9f 36bc
00000280: a6d8 c1bc 6905 653e c65e 3f3d cc62 853e
00000290: 7bac 7c3e 641e 37be 29bd 46be e71c b8bd
000002a0: 1e6d 27bd 07e1 7c3e 59f5 53be 461a f83d
000002b0: 8335 583e 8a39 953c 1028 6cbe 96be 54be
000002c0: 36b8 223d 063b a03d cf56 843d fe86 2f3e
000002d0: fc32 353e 6356 73be b82b 053e 3134 2f3e
000002e0: 28a8 0ebe 3aee 2dbe 0eda 7cbe 11d5 89be
000002f0: 1b80 113e 1467 9d3d 524f 17be d2aa 79be
00000300: 54d6 81be 3f6c 7d3e 658c b63d b24b 333d
00000310: 94ab c1bc fae8 e23d 5854 fb3c 1a13 f03d
00000320: 9e26 913d 577f 11be 0f19 04be a6ad 913d
00000330: 422b 903d 43fa 443e 086a 4ebe 8e31 073e
00000340: 161d 80be ee06 b83c 36ad 62be a9f4 0abe
00000350: b250 21be 582b 793e ab92 783e 9dcb fabd
00000360: f3c5 2bbc 340c 6cbe 2dbd 64be 3b02 0fbe
00000370: 8b12 d23c ed68 7bbe f095 6dbd 39b8 1e3d
00000380: b4cf 853b a45e 1ebc 89f7 4d3d e134 8b3e
00000390: ef7d 6ebe 404a 49be 3497 133e 82bf a93d
000003a0: 6b41 6d3e 6b38 603e 7c41 4fbe a471 81bd
000003b0: c289 7dbe 2300 e03d 8566 283e 6f6d 5dbe
000003c0: 54af 19be 82c3 143e 2a98 863d a053 30be
000003d0: d494 1abb e36c 3bbe 3d6f d73d 8bdd 533d
000003e0: f15e 9a3d ac22 64bc 762c 823c f307 51be
000003f0: cc60 823e 2a33 27bc 1aa8 d93b 04f5 d23c

convs.1.bias f4 [64]
8.030035e-05 -8.4588304e-05 7.6592856e-05 6.8647096e-06 4.6482925e-05 -2.9019375e-06 -1.1507567e-05 -7.4026484e-06
0.00045684664 -4.3496733e-05 0.00030389137 -8.6555765e-06 3.881419e-05 5.7597787e-05 -0.00025964377 0.00010134763
2.3967794e-05 1.996592e-05 2.9019375e-06 0.000532503 3.442487e-05 -1.0974069e-05 -2.110021e-05 -0.0002995901
0.00026222703 -7.410454e-05 -3.374603e-05 -0.00021860383 -2.2753298e-05 5.7920766e-05 -4.7143993e-05 -4.5268876e-06
-0.00012703336 0.00021256001 -7.760951e-06 -0.0003447142 2.896729e-05 -0.000101934835 -1.8566263e-05 -3.8477963e-05
1.7864932e-05 3.6247918e-06 0.000111514106 -0.0001118012 1.7601675e-05 0.00037510405 5.453992e-07 -2.8280752e-05
2.896729e-05 0.00023235168 -0.00043635356 9.602802e-05 -4.7804144e-05 -0.000101934835 1.645926e-05 -1.50495625e-05
0.0003084448 2.0315214e-05 0.00025724314 -8.030035e-05 -6.70337e-05 -9.840004e-05 0.00037708663 4.9121703e-05
00000000: ec66 a838 0065 b1b8 7aa0 a038 6857 e636
00000010: a9f6 4238 e8be 42b6 a010 41b7 4464 f8b6
00000020: eb84 ef39 4370 36b8 9c53 9f39 6b37 11b7
00000030: 6bcc 2238 2795 7138 cc20 88b9 988a d438
00000040: 720e c937 7d7c a737 e8be 4236 ac97 0b3a
00000050: 6c63 1038 441d 38b7 5b00 b1b7 4d12 9db9
00000060: 847b 8939 9268 9bb8 868a 0db8 0539 65b9
00000070: 56de beb7 f3ef 7238 7abc 45b8 abe5 97b6
00000080: 4234 05b9 a5e2 5e39 0835 02b7 c2ba b4b9
00000090: c8fe f237 d9c5 d5b8 bfbe 9bb7 6663 21b8
000000a0: a6dc 9537 7341 7336 aedc e938 d076 eab8
000000b0: 4fa7 9337 9da9 c439 8c67 1235 743c edb7
000000c0: c8fe f237 6ea3 7339 62c6 e4b9 a762 c938
000000d0: 4f81 48b8 d9c5 d5b8 fe11 8a37 617d 7cb7
000000e0: c3b6 a139 976a aa37 97de 8639 ec66 a8b8
000000f0: 7294 8cb8 1f5c ceb8 b6b3 c539 0708 4e38

convs.1.lin.weight f4 [64, 64]
-0.15183274 0.032426722 0.08932278 0.03751474 0.12628165 -0.0800469 -0.07708356 0.21295942
-0.16515893 -0.20049018 0.20968856 0.13317548 -0.03521411 0.0651984 -0.0671329 -0.030994529
0.029014878 -0.07537878 0.016209712 -0.080334835 -0.17819063 0.099939175 -0.15784857 -0.21253012
0.04183997 0.15940094 0.07415838 -0.15419447 0.13139535 -0.061687104 -0.027749699 0.12789667
0.08408333 -0.075325064 0.13054577 -0.05669277 -0.057229973 0.14832109 -0.047970984 -0.0053289887
0.20354818 0.20725383 0.051987205 0.1638358 -0.029541368 -0.098628834 0.20150785 0.11261735
0.14902225 -0.10582269 0.11432941 0.17622285 0.02171194 0.14330885 -0.19544846 0.08662499
-0.05247115 0.19573027 0.07914953 0.21538521 -0.07426124 0.020911265 0.15311638 -0.15557678
-0.07451483 -0.1742468 -0.16354753 0.09689611 -0.066388406 0.14258307 0.020988371 0.075247474
0.024051944 -0.20390034 -0.03364412 -0.11789776 -0.08476744 0.17520708 -0.1685336 -0.15708466
-0.070430905 -0.09508484 0.052440505 0.1399228 0.034977283 0.002812935 0.10299323 0.12829113
0.006613232 -0.14720093 -0.18860437 0.21505694 0.07141721 0.19921458 -0.084098 0.05852864
-0.11501182 -0.11498121 -0.09807183 0.2153838 0.15884934 -0.13223822 -0.15373218 0.070413835
-0.05205248 0.009354187 0.026643036 -0.19057605 0.0488207 -0.0028918337 -0.15052752 -0.21310893
0.10954899 -0.19697808 -0.09653366 0.13259786 -0.14526677 -0.103534386 -0.13542125 0.12844726
0.0659836 0.023345806 0.07723272 0.06094142 -0.04674397 -0.018953923 -0.13451909 -0.10069538
0.0043414617 -0.025275314 0.053503107 0.10376266 0.16708207 0.20845826 -0.017454676 0.08436919
-0.17435108 0.12629928 -0.056889527 -0.17079574 -0.16957577 -0.17950216 -0.09900053 0.09986108
-0.17559041 -0.02655387 -0.034647312 0.07864032 -0.087261185 0.11068525 -0.13289277 0.12621409
-0.21673511 -0.14645241 0.07693996 0.03422352 0.15065439 0.11176721 -0.17940639 0.17128192
-0.055184674 -0.03988961 -0.09116799 -0.036541186 -0.2031347 0.01573924 0.16413757 -0.042272877
0.1674788 -0.09884474 0.0864544 0.022405077 -0.08502918 0.21206635 0.018796122 0.0106403595
-0.024387885 -0.010729841 0.17353755 -0.03195116 0.12901647 0.07752299 0.14020643 -0.16309004
-0.18871851 -0.07208949 -0.061437394 0.20529418 0.21433625 -0.052624337 -0.102738 -0.0019146242
0.081863135 0.07299713 0.039868217 0.15800825 0.02401469 0.17418635 0.053739745 -0.018246477
0.17925301 0.0060393866 0.00763945 -0.042842302 0.12616616 -0.06519946 0.16790593 0.11459065
-0.0024721683 -0.034493987 0.085836254 -0.21041748 -0.07060994 -0.0775296 -0.025522623 -0.10260766
-0.09251452 0.103958614 -0.023948649 -0.15105745 -0.01463995 0.07090681 -0.08871546 0.1832065
-0.14929156 0.1895128 0.082337536 -0.12344343 -0.20396702 0.08545565 -0.039369896 0.0631497
0.09344686 -0.14578354 0.026447695 -0.04514483 -0.1959461 0.039197963 0.045272358 -0.16662352
0.20464326 0.11253331 0.12408524 -0.18965192 -0.18607208 0.09252522 0.126032 -0.18667817
0.20890884 -0.048712008 -0.17452294 -0.15984085 -0.04923085 0.11494096 -0.1503218 0.15851913
00000000: 0b7a 1bbe e2d1 043d ddee b63d 0ea9 193d
00000010: fa4f 013e a1ef a3bd fcdd 9dbd 0912 5a3e
00000020: 6c1f 29be 4c4d 4dbe 99b8 563e 275f 083e
00000030: ac3c 10bd bd86 853d f97c 89bd 3de8 fdbc
00000040: 9cb0 ed3c 3160 9abd 3bca 843c 9786 a4bd
00000050: 9b77 36be e9ac cc3d 0ea3 21be 7fa1 59be
00000060: 6360 2b3d 003a 233e 59e0 973d 28e5 1dbe
00000070: 818c 063e 9eab 7cbd 5653 e3bc 58f7 023e
00000080: e233 ac3d 0744 9abd caad 053e ae36 68bd
00000090: fa69 6abd 7ce1 173e 397d 44bd cc9e aebb
000000a0: ef6e 503e 593a 543e 89f0 543d 92c4 273e
000000b0: bd00 f2bc eafd c9bd 1358 4e3e eda3 e63d
000000c0: 4a99 183e 91b9 d8bd 8a25 ea3d c373 343e
000000d0: 3ddd b13c 8ebf 123e a423 48be 7168 b13d
000000e0: fdeb 56bd 846d 483e 2619 a23d f18d 5c3e
000000f0: 4716 98bd 1a4e ab3c 8aca 1c3e 854f 1fbe
00000100: 3b9b 98bd c16d 32be 0179 27be 7871 c63d
00000110: a5f6 87bd 4c01 123e ceef ab3c 591b 9a3d
00000120: 9508 c53c 40cb 50be 6bce 09bd 6174 f1bd
00000130: 8d9a adbd 7c69 333e 1294 2cbe cdda 20be
00000140: 143e 90bd d7bb c2bd dbcb 563d ec47 0f3e
00000150: 5744 0f3d 3859 383b 1dee d23d c05e 033e
00000160: d0b3 d83b d7bb 16be 8121 41be e337 5c3e
00000170: 3043 923d e8fe 4b3e 923b acbd babb 6f3d
00000180: 518b ebbd 457b ebbd e2d9 c8bd 928d 5c3e
00000190: 67a9 223e 7569 07be f86b 1dbe 2135 903d
000001a0: fb34 55bd 4e42 193c 7f42 da3c 5e26 43be
000001b0: 37f8 473d eb84 3dbb e323 1abe 3a39 5abe
000001c0: 395b e03d 9fb4 49be 71b3 c5bd bcc7 073e
000001d0: d0c0 14be d609 d4bd deab 0abe ae87 033e
000001e0: 6922 873d b43f bf3c 302c 9e3d b69d 793d
000001f0: 9b76 3fbd 4245 9bbc 5fbf 09be 6139 cebd
00000200: d242 8e3b 2d0e cfbc 1326 5b3d 8481 d43d
00000210: 9017 2b3e 1576 553e 1cfd 8ebc c1c9 ac3d
00000220: 1789 32be 9954 013e fe04 69bd 14e5 2ebe
00000230: 45a5 2dbe 6acf 37be cac0 cabd f783 cc3d
00000240: f9cd 33be 8087 d9bc 57ea 0dbd 2d0e a13d
00000250: feb5 b2bd f3ae e23d 0b15 08be 443e 013e
00000260: cfef 5dbe 9ff7 15be b392 9d3d f62d 0c3d
00000270: 2545 1a3e 35e6 e43d 4fb6 37be 8764 2f3e
00000280: 5309 62bd 4a63 23bd 48b6 babd 36ac 15bd
00000290: 8b02 50be 94ef 803c ae13 283e 5326 2dbd
000002a0: 907f 2b3e 1c6f cabd 010f b13d da8a b73c
000002b0: c723 aebd ec27 593e 53fa 993c e754 2e3c
000002c0: 1ac9 c7bc 37cc 2fbc d4b3 313e 38df 02bd
000002d0: e51c 043e 60c4 9e3d 4692 0f3e 1301 27be
000002e0: 6d3f 41be a8a3 93bd c7a5 7bbd a338 523e
000002f0: f67a 5b3e 9e8c 57bd 4d68 d2bd 21f4 faba
00000300: dca7 a73d 857f 953d db4c 233d eacc 213e
00000310: 75ba c43c e85d 323e 351e 5c3d a379 95bc
00000320: 1a8e 373e 0ce6 c53b 5a54 fa3b 697b 2fbd
00000330: b431 013e 4b87 85bd 88ef 2b3e 81ae ea3d
00000340: 1a04 22bb 9149 0dbd ebca af3d ae77 57be
00000350: f29b 90bd d7c7 9ebd d214 d1bc f723 d2bd
00000360: 4178 bdbd 41e8 d43d f52f c4bc ceae 1abe
00000370: 67dc 6fbc 9737 913d 73b0 b5bd 7c9a 3b3e
00000380: e3df 18be a50f 423e 95a0 a83d e9cf fcbd
00000390: bbdc 50be 5f03 af3d 5442 21bd a154 813d
000003a0: 1161 bf3d 4848 15be d6a8 d83c c9e9 38bd
000003b0: 18a6 48be 0b8e 203d 826f 393d 5b9f 2abe
000003c0: 018e 513e dd77 e63d 6720 fe3d 1d34 42be
000003d0: ae89 3ebe dd7d bd3d 880e 013e 9028 3fbe
000003e0: 33ec 553e 3e86 47bd 24b6 32be 52ad 23be
000003f0: 4aa6 49bd 2b66 eb3d f5ed 19be d752 223e

convs.2.bias f4 [64]
-0.000999999 -0.0009999996 0.0009999996 0.0009999975 0.0009999995 0.0009999995 -0.0009999991 0.0009999987
0.0009999995 0.0009999991 0.0009999996 -0.0009999991 -0.0009999992 0.0009999977 -0.0009999988 -0.0009999991
-0.0009999993 0.0009999988 0.0009999996 0.0009999996 -0.0009999991 0.0009999995 0.0009999987 -0.0009999993
-0.0009999992 0.000999998 -0.00099996 0.000999999 -0.0009999991 -0.0009999989 0.0009999987 0.0009999988
-0.0009999977 -0.000999999 0.0009999983 -0.0009999997 -0.0009999991 0.0009999984 -0.0009999995 0.0009999988
0.0009999996 -0.0009999992 0.000999998 -0.0009999984 0.0009999973 0.0009999995 0.0009999962 -0.0009999992
-0.0009999984 0.0009999991 0.0009999984 0.000999999 -0.0009999987 0.0009999996 0.0009999992 -0.0009999995
-0.0009999997 -0.0009999978 -0.0009999996 0.0009999926 0.0009999995 0.0009999987 -0.0009999924 -0.0009999993
00000000: 6612 83ba 6b12 83ba 6b12 833a 5912 833a
00000010: 6a12 833a 6a12 833a 6712 83ba 6312 833a
00000020: 6a12 833a 6712 833a 6b12 833a 6712 83ba
00000030: 6812 83ba 5b12 833a 6412 83ba 6712 83ba
00000040: 6912 83ba 6412 833a 6b12 833a 6b12 833a
00000050: 6712 83ba 6a12 833a 6312 833a 6912 83ba
00000060: 6812 83ba 5d12 833a 1711 83ba 6612 833a
00000070: 6712 83ba 6512 83ba 6312 833a 6412 833a
00000080: 5b12 83ba 6612 83ba 6012 833a 6c12 83ba
00000090: 6712 83ba 6112 833a 6a12 83ba 6412 833a
000000a0: 6b12 833a 6812 83ba 5d12 833a 6112 83ba
000000b0: 5712 833a 6a12 833a 4e12 833a 6812 83ba
000000c0: 6112 83ba 6712 833a 6112 833a 6612 833a
000000d0: 6312 83ba 6b12 833a 6812 833a 6a12 83ba
000000e0: 6c12 83ba 5c12 83ba 6b12 83ba 2f12 833a
000000f0: 6a12 833a 6312 833a 2d12 83ba 6912 83ba

convs.2.lin.weight f4 [64, 64]
-0.07486277 0.07278872 0.14636244 0.105957456 0.09111622 -0.021296509 -0.113327205 -0.16085437
0.20465222 -0.1974336 -0.053874742 0.18240523 -0.042160477 -0.18281929 0.21212494 -0.05675001
0.08943784 0.09748731 -0.069947615 -0.21079673 -0.031801607 -0.17282674 -0.1073734 -0.18312532
0.09996864 -0.15340604 0.10450674 0.1810825 0.106928326 0.12761965 0.035773996 0.14390504
0.20256367 0.045172695 0.09100104 0.13544676 -0.0011024129 0.18511373 0.051417533 -0.13299881
-0.16341178 0.054095868 -0.1721036 -0.1963725 0.20018095 0.1624189 -0.05953547 0.106922634
0.07227783 0.19919097 0.06503338 0.09919852 -0.15583232 0.07056174 -0.16780655 -0.16639274
0.11819 -0.10695552 0.16672266 -0.05568413 0.111505866 0.20074904 0.02713481 0.19761088
-0.1373808 0.11385068 0.06704575 0.16373113 0.19816181 -0.045992997 0.04548872 -0.11026669
0.09088671 -0.0018496782 -0.100767404 -0.12063772 0.052990053 0.19178581 -0.19264637 0.1387929
0.15132514 -0.18819745 0.097773045 0.018150778 0.1626116 0.18206123 0.12041497 -0.08562821
-0.19020702 0.15013427 -0.0005295995 0.08702803 0.06728074 0.027703749 0.16286 -0.05519111
0.086532354 0.09949753 -0.09931275 0.09194207 0.014380666 -0.21617168 0.11874887 -0.19233459
0.09707895 -0.10072494 -0.1062779 0.12039727 -0.010040236 -0.159116 0.074056685 -0.12015026
-0.19855203 0.17316881 -0.18362395 -0.09325378 -0.13160263 0.16441596 -0.020522904 -0.18184082
0.12606502 0.16166264 0.065689236 -0.024919968 -0.20921983 -0.034277122 0.117797405 -0.14819734
-0.21233192 -0.00053032045 0.03567123 -0.0838258 -0.08840042 -0.16692087 -0.0317684 0.20241031
0.18130696 0.037070956 0.0017213493 0.19441497 0.03329448 -0.028877575 -0.15271597 0.20098674
-0.20574653 -0.07469076 0.048248585 0.027441468 -0.069723606 -0.20066613 0.022601139 -0.05104469
-0.15075924 -0.13329887 -0.104745 -0.19930212 0.10605007 -0.0022109924 -0.18643114 0.1109578
0.16613927 0.049269255 -0.07168341 -0.06844944 0.07100871 0.20547599 0.022544634 -0.081456825
-0.028473292 0.08400291 0.18989518 0.20836139 0.21686289 -0.14744593 0.036964085 0.012573805
0.045619305 0.011306402 -0.07401404 0.06343471 0.1838491 0.034861054 0.071788155 0.13262743
0.0013888002 -0.07600391 0.20818228 -0.117256865 0.20655024 -0.030171115 0.13745874 0.018029924
0.023248276 0.16070844 -0.08631904 -0.18168321 0.015427288 -0.17918465 -0.1451257 0.21361843
0.030273318 -0.07497508 0.20836519 0.013142657 0.16351905 0.021876495 0.17906602 0.16733648
-0.0137637 -0.1801207 0.19562557 -0.20572594 -0.013246933 -0.03956578 0.20518264 -0.20161153
-0.0035586802 0.064737625 0.12083953 0.20537472 -0.13270573 0.18977968 0.17900899 0.055621054
-0.0049634986 0.16565393 -0.088967584 -0.039670564 0.013044619 0.11542525 -0.08480208 0.20502827
-0.063672714 0.0905193 0.112417504 0.15858498 -0.19015603 0.038772218 0.09751221 0.15749943
0.120101795 0.1464583 -0.13177778 0.18579409 -0.08635946 -0.030464295 -0.010306427 -0.19540396
0.18789253 -0.20346494 0.061771397 -0.098882385 0.09435984 0.06296449 -0.061367337 -0.14850324
00000000: a751 99bd 4112 953d 09e0 153e 3900 d93d
00000010: 249b ba3d 0476 aebc 1818 e8bd 02b7 24be
00000020: 5a90 513e 092c 4abe c3ab 5cbd 70c8 3a3e
00000030: 77b0 2cbd fb34 3bbe 4837 593e b372 68bd
00000040: 302b b73d 6da7 c73d b240 8fbd 19db 57be
00000050: 6742 02bd 7ef9 30be 96e6 dbbd 3485 3bbe
00000060: 5cbc cc3d 7916 1dbe a107 d63d b16d 393e
00000070: 3dfd da3d baae 023e c187 123d d85b 133e
00000080: da6c 4f3e 0107 393d c15e ba3d 8eb2 0a3e
00000090: d77e 90ba 748e 3d3e 319b 523d d730 08be
000000a0: 6b55 27be a193 5d3d ed3b 30be df15 49be
000000b0: 3cfc 4c3e 2451 263e 77db 73bd 41fa da3d
000000c0: 6606 943d b8f8 4b3e 3930 853d 9828 cb3d
000000d0: 8292 1fbe ac82 903d 7bd5 2bbe dc62 2abe
000000e0: 990d f23d 7f0b dbbd 58b9 2a3e 0b15 64bd
000000f0: 305d e43d 2891 4d3e d249 de3c 825a 4a3e
00000100: 8dad 0cbe 8c2a e93d 484f 893d 22a9 273e
00000110: eeea 4a3e 2763 3cbd 6152 3a3d 81d3 e1bd
00000120: d022 ba3d e770 f2ba 245f cebd e910 f7bd
00000130: 190c 593d 8063 443e 1745 45be ba1f 0e3e
00000140: faf4 1a3e d5b6 40be 3c3d c83d f1b0 943c
00000150: a883 263e 426e 3a3e 209c f63d d85d afbd
00000160: a1c5 42be ccbc 193e d2d4 0aba c03b b23d
00000170: 7cca 893d f9f2 e23c c6c4 263e 1310 62bd
00000180: e037 b13d 5cc5 cb3d 7c64 cbbd 204c bc3d
00000190: e39c 6b3c 1c5c 5dbe 9c32 f33d 5cf3 44be
000001a0: 54d1 c63d e148 cebd 3aa8 d9bd d892 f63d
000001b0: cd7f 24bc 4eef 22be 08ab 973d 5711 f6bd
000001c0: 3951 4bbe 2a53 313e eb07 3cbe d6fb bebd
000001d0: d7c2 06be a85c 283e a61f a8bc 7b34 3abe
000001e0: 3017 013e e48a 253e 1488 863d f624 ccbc
000001f0: b93d 56be 2b66 0cbd c43f f13d 0bc1 17be
00000200: 8a6d 59be 3405 0bba ff1b 123d dcac abbd
00000210: 480b b5bd 4eed 2abe 951f 02bd a644 4f3e
00000220: 88a8 393e b7d7 173d e69e e13a b814 473e
00000230: cb5f 083d aa90 ecbc 9361 1cbe 78cf 4d3e
00000240: 38af 52be 78f7 98bd 4fa0 453d eecc e03c
00000250: 40cb 8ebd 6c7b 4dbe 0626 b93c 3d14 51bd
00000260: a160 1abe 807f 08be 8c84 d6bd db15 4cbe
00000270: c730 d93d 4ce6 10bb cee7 3ebe d83d e33d
00000280: 6a20 2a3e 8fce 493d c0ce 92bd 382f 8cbd
00000290: 046d 913d 4c68 523e 86af b83c d6d2 a6bd
000002a0: d240 e9bc b809 ac3d e273 423e b05c 553e
000002b0: 4e11 5e3e 11fc 16be a767 173d 5c02 4e3c
000002c0: 4fdb 3a3d 7d3e 393c ac94 97bd 0fea 813d
000002d0: f042 3c3e 77ca 0e3d ab05 933d 7ccf 073e
000002e0: 6708 b63a f0a7 9bbd bc2d 553e 5e24 f0bd
000002f0: e881 533e 6a29 f7bc fcc1 0c3e 7eb3 933c
00000300: 2b73 be3c c190 243e 09c8 b0bd 2a0b 3abe
00000310: bcc2 7c3c 2e7c 37be d59b 14be cabe 5a3e
00000320: c0ff f73c 898c 99bd af5d 553e 4c54 573c
00000330: 8a71 273e 5636 b33c 155d 373e 415a 2b3e
00000340: 2481 61bc 9071 38be 1252 483e d2a9 52be
00000350: aa09 59bc ba0f 22bd 661b 523e 4173 4ebe
00000360: bf38 69bb 2995 843d b77a f73d c04d 523e
00000370: 03e4 07be 9b55 423e 224e 373e e7d2 633d
00000380: d8a4 a2bb 2fa1 293e a334 b6bd 9a7d 22bd
00000390: 19b9 553c 1364 ec3d b7ac adbd eef2 513e
000003a0: d766 82bd 2f62 b93d 263b e63d 1a64 223e
000003b0: 43b8 42be 9ecf 1e3d 7bb4 c73d 8847 213e
000003c0: eef7 f53d 2af9 153e c1f0 06be ce40 3e3e
000003d0: 3bdd b0bd 4290 f9bc 4adc 28bc fa17 48be
000003e0: e666 403e 1d59 50be 0104 7d3d d982 cabd
000003f0: bb3f c13d 87f3 803d 515c 7bbd 3c11 18be

batch_norms.0.weight f4 [64]
0.999 0.999 1.001 1.001 0.999 0.999 1.001 0.999
0.999 1.0009992 0.999 0.999 1.001 1.001 0.999 0.999
1.001 0.999 1.001 0.999 0.999 0.999 0.999 0.999
0.999 1.001 1.001 0.9990004 0.999 1.001 1.001 0.999
0.999 0.999 1.001 1.0009999 0.999 1.001 1.001 1.001
1.001 1.001 1.001 0.999 1.001 0.999 0.999 0.999
0.999 0.999 0.99900013 0.999 1.001 1.0009999 0.999 1.001
1.001 1.001 1.001 1.001 0.999 0.999 0.999 0.999
00000000: 77be 7f3f 77be 7f3f c520 803f c520 803f
00000010: 77be 7f3f 77be 7f3f c520 803f 77be 7f3f
00000020: 77be 7f3f be20 803f 77be 7f3f 77be 7f3f
00000030: c520 803f c520 803f 77be 7f3f 77be 7f3f
00000040: c520 803f 77be 7f3f c520 803f 77be 7f3f
00000050: 77be 7f3f 77be 7f3f 77be 7f3f 77be 7f3f
00000060: 77be 7f3f c520 803f c520 803f 7dbe 7f3f
00000070: 77be 7f3f c520 803f c520 803f 77be 7f3f
00000080: 77be 7f3f 77be 7f3f c520 803f c420 803f
00000090: 77be 7f3f c520 803f c520 803f c520 803f
000000a0: c520 803f c520 803f c520 803f 77be 7f3f
000000b0: c520 803f 77be 7f3f 77be 7f3f 77be 7f3f
000000c0: 77be 7f3f 77be 7f3f 79be 7f3f 77be 7f3f
000000d0: c520 803f c420 803f 77be 7f3f c520 803f
000000e0: c520 803f c520 803f c520 803f c520 803f
000000f0: 77be 7f3f 77be 7f3f 77be 7f3f 77be 7f3f

batch_norms.0.bias f4 [64]
-0.000999994 -0.0009999988 0.0009999975 0.0009999969 -0.0009999869 0.000999991 0.0009999961 -0.0009999959
-0.0009999942 0.0009999949 -0.0009999938 0.0009999871 0.0009999977 -0.0009999877 -0.0009999964 -0.0009999967
0.0009999956 -0.0009999924 0.0009999765 -0.0009999938 -0.0009999983 -0.000999992 -0.0009999853 -0.0009999981
-0.0009999983 0.0009999957 0.0009999969 0.0009999943 -0.0009999878 0.0009999978 0.0009999982 -0.0009999735
-0.0009999975 0.0009999935 0.0009999952 0.0009999906 -0.0009999918 0.0009999899 -0.0009999925 0.0009999862
0.0009999961 0.000999997 0.0009999974 -0.0009999962 0.0009999962 -0.0009997779 0.0009998458 -0.0009999854
-0.0009999974 -0.0009999981 -0.000999933 -0.0009999702 0.0009999977 0.000999991 0.0009997749 0.0009999976
0.0009999968 0.0009999957 0.0009999855 -0.0009999643 -0.0009999465 -0.0009999963 -0.0009999985 0.0009997274
00000000: 3b12 83ba 6412 83ba 5912 833a 5412 833a
00000010: fe11 83ba 2112 833a 4d12 833a 4b12 83ba
00000020: 3d12 83ba 4312 833a 3912 83ba 0012 833a
00000030: 5b12 833a 0512 83ba 5012 83ba 5212 83ba
00000040: 4912 833a 2d12 83ba a511 833a 3912 83ba
00000050: 6012 83ba 2a12 83ba f011 83ba 5e12 83ba
00000060: 6012 83ba 4a12 833a 5412 833a 3e12 833a
00000070: 0612 83ba 5c12 833a 5f12 833a 8b11 83ba
00000080: 5912 83ba 3712 833a 4512 833a 1e12 833a
00000090: 2812 83ba 1812 833a 2e12 83ba f811 833a
000000a0: 4d12 833a 5512 833a 5812 833a 4e12 83ba
000000b0: 4e12 833a fb0a 83ba 420d 833a f111 83ba
000000c0: 5812 83ba 5e12 83ba 2f10 83ba 6f11 83ba
000000d0: 5b12 833a 2112 833a e10a 833a 5a12 833a
000000e0: 5312 833a 4a12 833a f211 833a 3c11 83ba
000000f0: a310 83ba 4f12 83ba 6212 83ba 4909 833a

batch_norms.0.running_mean f4 [64]
0.00880852 0.030662486 0.014076429 -0.05485287 0.015911644 0.022520218 -0.012092463 0.019484932
0.0112829385 0.006708087 -0.014006658 -0.035863478 0.025491303 -0.040719487 -0.0067709996 0.007389
0.0067516933 -0.010162412 -0.050327905 -0.01773525 -0.023642974 0.0009171303 -0.009663447 0.023983916
-0.015941484 0.014923036 0.023746384 0.035240702 0.011867193 0.0075572655 -0.038427856 0.020814678
-0.028125433 0.014188709 0.03910798 0.022741096 0.0061643342 0.014199962 -0.025165305 -0.016439455
-0.017804347 -0.015026221 -0.050058823 -0.012280256 0.010361332 0.022108909 0.035269998 0.013644017
-0.033977866 -0.05431242 0.008313396 0.028104613 0.014099604 -0.024977382 0.022457423 -0.03974193
-0.0024580231 0.008643749 -0.011316228 0.0092299 -0.0056320583 0.017873822 0.011262973 -0.031911626
00000000: 9c51 103c e52f fb3c d3a0 663c 67ad 60bd
00000010: 2359 823c 527c b83c 771f 46bc dd9e 9f3c
00000020: 13dc 383c 83cf db3b 2f7c 65bc 95e5 12bd
00000030: 23d3 d03c 7ac9 26bd 43df ddbb 6d1f f23b
00000040: 4f3d dd3b 3f80 26bc a224 4ebd 8449 91bc
00000050: e9ae c1bc 936b 703a 6f53 1ebc eb79 c43c
00000060: b797 82bc c07f 743c c787 c23c 8e58 103d
00000070: 9d6e 423c f0a2 f73b 8766 1dbd 8b83 aa3c
00000080: 4f67 e6bc c277 683c b02f 203d 894b ba3c
00000090: 2ffe c93b f5a6 683c 7827 cebc 09ac 86bc
000000a0: 6cda 91bc 8a30 76bc 7b0a 4dbd 2033 49bc
000000b0: 94c2 293c be1d b53c 4677 103d 288b 5f3c
000000c0: 602c 0bbd b376 5ebd e934 083c a53b e63c
000000d0: 0702 673c 5e9d ccbc a1f8 b73c 6fc8 22bd
000000e0: c916 21bb 839e 0d3c b367 39bc 0239 173c
000000f0: 218d b8bb 1f6c 923c 5588 383c c4b5 02bd

batch_norms.0.running_var f4 [64]
0.9033458 0.90161836 0.90242904 0.90158707 0.9045163 0.9006145 0.9006903 0.901423
0.9017318 0.90391546 0.90573466 0.9061494 0.9021853 0.9020463 0.901389 0.90378845
0.90139043 0.90118057 0.90735894 0.90154374 0.9012961 0.90485734 0.90793943 0.904254
0.9032681 0.9018097 0.9004672 0.90067697 0.90216345 0.9017201 0.9051532 0.90217435
0.9028926 0.9048873 0.90181816 0.9011626 0.90336233 0.90466434 0.9040311 0.9064278
0.90467626 0.9050355 0.9045745 0.9025842 0.90359366 0.9051689 0.9011096 0.90256906
0.90668374 0.9050299 0.90178204 0.90286446 0.9039364 0.90247846 0.9029215 0.9021568
0.9030171 0.90254295 0.9013716 0.90048295 0.9030447 0.90291864 0.9028224 0.905385
00000000: ac41 673f 76d0 663f 9705 673f 69ce 663f
00000010: 618e 673f ac8e 663f a493 663f a8c3 663f
00000020: e5d7 663f 0167 673f 3ade 673f 68f9 673f
00000030: 9ef5 663f 82ec 663f 6ec1 663f ae5e 673f
00000040: 86c1 663f c5b3 663f ad48 683f 92cb 663f
00000050: 57bb 663f bba4 673f b86e 683f 317d 673f
00000060: 943c 673f 00dd 663f 0585 663f c492 663f
00000070: 2ff4 663f 21d7 663f 1fb8 673f e6f4 663f
00000080: f823 673f b2a6 673f 8edd 663f 98b2 663f
00000090: c142 673f 1598 673f 956e 673f a70b 683f
000000a0: dd98 673f 68b0 673f 3292 673f c20f 673f
000000b0: ea51 673f 26b9 673f 1eaf 663f c40e 673f
000000c0: 6d1c 683f 0ab0 673f 30db 663f 2022 673f
000000d0: 6068 673f d408 673f dd25 673f bff3 663f
000000e0: 212c 673f 0e0d 673f 4ac0 663f 0d86 663f
000000f0: f02d 673f ad25 673f 5e1f 673f 50c7 673f

batch_norms.1.weight f4 [64]
1.001 0.999 1.001 0.999 0.999 0.999 0.999 0.999
0.999 0.999 1.001 1.0009999 1.001 0.999 1.001 0.999
0.999 1.001 1.0009999 1.001 0.999 0.999 0.999 0.999
0.999 0.999 0.999 0.999 1.0009999 1.001 1.001 0.999
1.001 0.999 1.0009992 1.001 0.999 0.999 0.999 1.001
0.999 1.001 0.999 0.999 1.001 1.001 0.999 1.0009981
1.001 0.999 0.999 1.001 0.999 1.001 0.999 1.001
0.999 1.0009996 0.999 0.999 1.001 1.001 0.999 0.999
00000000: c520 803f 77be 7f3f c520 803f 77be 7f3f
00000010: 77be 7f3f 77be 7f3f 77be 7f3f 77be 7f3f
00000020: 77be 7f3f 77be 7f3f c520 803f c420 803f
00000030: c520 803f 77be 7f3f c520 803f 77be 7f3f
00000040: 77be 7f3f c520 803f c420 803f c520 803f
00000050: 77be 7f3f 77be 7f3f 77be 7f3f 77be 7f3f
00000060: 77be 7f3f 77be 7f3f 77be 7f3f 77be 7f3f
00000070: c420 803f c520 803f c520 803f 77be 7f3f
00000080: c520 803f 77be 7f3f be20 803f c520 803f
00000090: 77be 7f3f 77be 7f3f 77be 7f3f c520 803f
000000a0: 77be 7f3f c520 803f 77be 7f3f 77be 7f3f
000000b0: c520 803f c520 803f 77be 7f3f b520 803f
000000c0: c520 803f 77be 7f3f 77be 7f3f c520 803f
000000d0: 77be 7f3f c520 803f 77be 7f3f c520 803f
000000e0: 77be 7f3f c120 803f 77be 7f3f 77be 7f3f
000000f0: c520 803f c520 803f 77be 7f3f 77be 7f3f

batch_norms.1.bias f4 [64]
0.0009999983 -0.0009999968 0.0009999976 -0.0009999837 -0.0009999987 0.0009999907 -0.0009999988 -0.0009999981
-0.0009999992 -0.0009999989 0.0009999992 0.0009999835 0.0009999991 -0.0009999985 0.0009999989 -0.0009999995
-0.0009999982 0.0009999968 -0.0009999982 0.0009999991 0.0009999899 -0.0009999888 -0.0009999921 -0.0009999991
-0.0009999989 -0.0009999976 -0.0009999967 -0.0009999988 0.0009999903 0.000999997 0.0009999977 -0.0009999987
0.0009999989 -0.000999999 0.0009999921 0.000999999 -0.0009999879 0.0009999824 0.000999992 0.0009999967
-0.0009999989 0.0009999985 -0.0009999978 -0.0009999959 0.000999999 0.000999999 0.0009999142 -0.000999997
0.0009999989 -0.0009999988 -0.0009999995 0.0009999985 -0.0009999947 0.0009999982 -0.0009999841 0.0009999989
-0.0009999991 0.0009999952 -0.0009999989 -0.0009999977 0.0009999971 0.0009999988 -0.0009999993 -0.0009999981
00000000: 6012 833a 5312 83ba 5a12 833a e311 83ba
00000010: 6312 83ba 1f12 833a 6412 83ba 5e12 83ba
00000020: 6812 83ba 6512 83ba 6812 833a e111 833a
00000030: 6712 833a 6212 83ba 6512 833a 6a12 83ba
00000040: 5f12 83ba 5312 833a 5f12 83ba 6712 833a
00000050: 1812 833a 0e12 83ba 2b12 83ba 6712 83ba
00000060: 6512 83ba 5a12 83ba 5212 83ba 6412 83ba
00000070: 1b12 833a 5512 833a 5b12 833a 6312 83ba
00000080: 6512 833a 6612 83ba 2b12 833a 6612 833a
00000090: 0712 83ba d711 833a 2a12 833a 5212 833a
000000a0: 6512 83ba 6212 833a 5c12 83ba 4b12 83ba
000000b0: 6612 833a 6612 833a 8e0f 833a 5512 83ba
000000c0: 6512 833a 6412 83ba 6a12 83ba 6212 833a
000000d0: 4112 83ba 5f12 833a e611 83ba 6512 833a
000000e0: 6712 83ba 4512 833a 6512 83ba 5b12 83ba
000000f0: 5612 833a 6412 833a 6912 83ba 5e12 83ba

batch_norms.1.running_mean f4 [64]
0.06355632 -0.057754576 0.004766024 0.0074732206 0.022664612 -0.036965515 0.056341726 -0.0725771
0.0043053757 -0.007914723 0.032857534 -0.03951942 -0.01588661 0.0016172363 0.054727133 0.052359086
0.02578473 0.017189685 0.016250117 -0.04946576 -0.08788781 -0.015168959 -0.0037787233 0.04199993
-0.032928944 -0.009915198 0.044473857 -0.009909969 -0.015737152 -0.047954347 0.022980388 0.08913767
0.014377964 0.004613128 -0.083975516 -0.055581328 -0.023136005 -0.060404558 -0.0039966605 -0.029221633
0.007245344 -0.09395568 0.012831787 -0.08144912 0.077105545 -0.024247786 -0.030807568 -0.02782296
-0.025244478 0.026245913 -0.037867215 -0.04112419 0.028049588 -0.003443852 -0.027000455 -0.012452731
-0.026077202 -0.040176388 0.042785596 0.034774497 0.0017379563 -0.03719036 -0.045277998 -0.028137386
00000000: d129 823d 1090 6cbd 4f2c 9c3b ebe1 f43b
00000010: 23ab b93c 2769 17bd 95c6 663d 4da3 94bd
00000020: 1c14 8d3b c1ac 01bc 9f95 063d 1edf 21bd
00000030: a324 82bc 72f9 d33a 8f29 603d 7b76 563d
00000040: 803a d33c 62d1 8c3c f71e 853c 9c9c 4abd
00000050: 86fe b3bd 3a87 78bc 75a4 77bb 1e08 2c3d
00000060: 80e0 06bd 5b73 22bc 382a 363d 6c5d 22bc
00000070: 33eb 80bc c76b 44bd 5e41 bc3c d08d b63d
00000080: 8d91 6b3c b929 973b 5bfb abbd 3fa9 63bd
00000090: b887 bdbc c56a 77bd 6bf6 82bb 3562 efbc
000000a0: 5a6a ed3b d66b c0bd 6a3c 523c ccce a6bd
000000b0: 83e9 9d3d 4ba3 c6bc 2760 fcbc faec e3bc
000000c0: 82cd cebc ab01 d73c a71a 1bbd d771 28bd
000000d0: 40c8 e53c 40b2 61bb 0f30 ddbc 8a06 4cbc
000000e0: db9f d5bc ff8f 24bd f33f 2f3d b46f 0e3d
000000f0: 23cc e33a eb54 18bd 6c75 39bd 6080 e6bc

batch_norms.1.running_var f4 [64]
0.9071095 0.9345129 0.9211131 0.91744226 0.9407748 0.94713736 0.9272824 0.9233389
0.9198535 1.0308934 0.927123 0.9179197 0.9503227 0.9150422 0.9271518 0.91523296
0.9208212 0.9171174 0.91638845 0.91831285 0.9199024 0.92917234 0.915862 0.9035633
0.94413733 0.9203768 0.9145787 0.9264448 0.9194557 0.9793806 0.93669635 1.0064744
0.95175415 0.9168513 0.94930595 0.9253796 0.94505066 0.92070353 0.9248325 0.9288253
0.93801403 0.9550642 0.92620236 0.9189578 0.91490865 0.90550363 0.92416114 0.935398
0.92704403 0.90689635 0.92438114 0.926661 0.9181743 0.9197824 0.94567984 0.9561236
0.9208704 0.91584057 0.9232569 0.90951365 0.9452385 0.92330736 0.91184443 0.9330149
00000000: 5438 683f 3d3c 6f3f 11ce 6b3f 7fdd 6a3f
00000010: 9ed6 703f 9877 723f 6162 6d3f f05f 6c3f
00000020: 857b 6b3f 51f4 833f ef57 6d3f c9fc 6a3f
00000030: 5948 733f 3540 6a3f d259 6d3f b54c 6a3f
00000040: f0ba 6b3f 35c8 6a3f 6f98 6a3f 8d16 6b3f
00000050: b97e 6b3f 3dde 6d3f ef75 6a3f ed4f 673f
00000060: fcb2 713f d09d 6b3f d421 6a3f 7d2b 6d3f
00000070: 7361 6b3f b0b8 7a3f 55cb 6f3f 27d4 803f
00000080: 29a6 733f c4b6 6a3f b705 733f ade5 6c3f
00000090: d7ee 713f 3ab3 6b3f d3c1 6c3f 7fc7 6d3f
000000a0: b021 703f 167f 743f 991b 6d3f d240 6b3f
000000b0: 7437 6a3f 16cf 673f d395 6c3f 3e76 6f3f
000000c0: c252 6d3f 5c2a 683f 3ea4 6c3f a839 6d3f
000000d0: 790d 6b3f dc76 6b3f 1318 723f 84c4 743f
000000e0: 2abe 6b3f 8774 6a3f 905a 6c3f e3d5 683f
000000f0: 26fb 713f df5d 6c3f a36e 693f 11da 6e3f

classifier.0.weight f4 [32, 64]
-0.106202945 0.024364695 0.045342054 -0.1074945 0.10645842 0.119164385 0.022573194 -0.10882525
-0.1186933 0.021865657 -0.09059869 0.003509012 0.02663654 -0.11756867 -0.09308493 0.03783609
-0.087401435 0.022204842 0.086770125 -0.10020119 -0.056952696 0.0094018895 0.020432048 -0.062415704
-0.08130425 -0.013611813 -0.017632606 -0.12535565 -0.07913932 0.12562269 -0.03167071 -0.012597925
-0.09932232 -0.009373711 0.038583845 -0.114297435 0.016551392 0.054804962 -0.09220736 0.08317352
-0.079674564 -0.024796043 -0.074486725 0.026852319 -0.015232599 -0.0002822351 -0.10468541 0.10511803
-0.040967092 -0.02858207 -0.0039248355 -0.01637105 0.02281539 0.10848548 0.08925205 0.11148499
0.016431509 -0.06887142 -0.008000811 0.11906675 0.07583092 -0.050334617 -0.08659303 0.08313065
0.09886969 0.09673741 -0.030390188 0.0891531 0.10259175 0.098269776 0.11927314 -0.11582814
0.11626464 0.0929163 0.035689224 0.063612394 0.012316325 -0.07785383 0.056272782 -0.0005119493
0.11941967 -0.06359938 0.050084714 -0.08884111 -0.11150482 0.08068509 0.113415994 0.12000191
-0.011720847 -0.00060685363 -0.0032804646 -0.11133012 0.06069548 -0.077047706 -0.012013946 -0.049652938
-0.12188698 0.07395569 0.044489242 0.027416974 0.015559512 0.10442374 0.063072845 0.015994996
0.0758978 0.11390133 -0.00191229 0.10838118 -0.08579844 -0.11452251 0.07036719 -0.095480196
-0.065980196 0.12341167 -0.064388655 0.047399204 0.09630639 -0.028196404 -0.074496865 -0.077265486
0.023313168 0.095637634 0.07907705 -0.078887545 -0.09556843 -0.056392256 -0.046684776 0.038082175
-0.05690782 0.041221257 -0.080811284 0.114847526 -0.10384749 -0.008232663 0.051789474 0.10286261
-0.12272459 -0.110611975 0.097429365 -0.008315292 0.051029664 0.08729603 0.09809555 -0.09550603
-0.03552855 -0.09402308 -0.077428155 0.0707171 0.083013915 0.030077081 -0.04819973 -0.06487331
-0.025112826 0.02778055 0.070950285 0.04478356 0.062489104 0.058522828 0.041553497 0.0019458331
0.029866371 -0.0512946 0.026680399 -0.0871719 -0.09630431 -0.045105636 -0.088661015 -0.016482994
0.12391414 0.071672425 0.0151149845 -0.037393186 -0.052458335 0.007046464 -0.027175102 -0.021145185
-0.09954587 0.07499613 0.011547815 -0.045830492 0.015160236 -0.038376156 -0.099887766 -0.019707026
-0.1238657 -0.039432798 0.040068883 -0.09714882 0.045991797 0.123446085 0.030717421 -0.08445727
-0.044188924 -0.031462383 -0.012031839 -0.09196575 -0.031776376 0.03633053 -0.11588403 -0.09281578
0.058164965 -0.028277647 -0.06683377 0.001863534 0.066293 0.06426043 -0.019201558 -0.016811559
0.058681123 0.1177076 -0.060796436 0.040529378 -0.023052808 0.08752722 0.06445493 -0.10228433
-0.037580837 0.035834532 -0.09016798 -0.110326335 0.016329465 -0.08203669 0.006461865 -0.09250601
-0.124006465 0.12253026 0.09321443 -0.11995698 0.11757595 -0.038645867 0.059447486 0.09215723
0.013737778 -0.07265542 0.090390615 0.016770653 -0.024107523 0.0027921558 -0.06810144 -0.08494615
-0.10705018 -0.10171185 -0.0482025 0.082129546 0.030664764 -0.038115494 -0.11959011 -0.087895565
-0.12548575 -0.102965705 0.062810116 0.08080947 0.011918464 0.038541127 0.06819923 0.111068554
00000000: ee80 d9bd 7898 c73c 97b8 393d 1426 dcbd
00000010: df06 da3d 750c f43d 6beb b83c c6df debd
00000020: 7915 f3bd 9b1f b33c ce8b b9bd 74f7 653b
00000030: e034 da3c d8c7 f0bd 50a3 bebd 04fa 1a3d
00000040: 86ff b2bd eee6 b53c 89b4 b13d 4836 cdbd
00000050: 3b47 69bd 620a 1a3c 1c61 a73c 9ca7 7fbd
00000060: d882 a6bd 1504 5fbc 4172 90bc 3b5d 00be
00000070: cc13 a2bd 3ca3 003e 25b9 01bd 8767 4ebc
00000080: 8069 cbbd 3294 19bc 180a 1e3d c614 eabd
00000090: c996 873c 2b7b 603d 36d7 bcbd e156 aa3d
000000a0: 6b2c a3bd 1221 cbbc 7f8c 98bd 65f9 db3c
000000b0: 2792 79bc f4f8 93b9 4e65 d6bd 1f48 d73d
000000c0: 1ccd 27bd f224 eabc e89b 80bb 951c 86bc
000000d0: 57e7 ba3c a32d de3d c7c9 b63d 3e52 e43d
000000e0: 5f9b 863c 760c 8dbd d515 03bc 45d9 f33d
000000f0: 3e4d 9b3d ac2b 4ebd b057 b1bd 6740 aa3d
00000100: 317c ca3d 431e c63d d8f4 f8bc e795 b63d
00000110: a01b d23d aa41 c93d 7a45 f43d 4e37 edbd
00000120: 281c ee3d e74a be3d dd2e 123d 3747 823d
00000130: 69ca 493c d471 9fbd 4a7e 663d 5634 06ba
00000140: 4d92 f43d 6440 82bd a125 4d3d 54f2 b5bd
00000150: a45c e4bd 393e a53d a546 e83d 90c3 f53d
00000160: cc08 40bc 4215 1fba 10fd 56bb 0c01 e4bd
00000170: d39b 783d 30cb 9dbd 24d6 44bc e160 4bbd
00000180: e29f f9bd 1576 973d 5a3a 363d 9099 e03c
00000190: 53ed 7e3c 1ddc d53d 562c 813d f007 833c
000001a0: 4e70 9b3d 1a45 e93d cea5 faba f4f6 dd3d
000001b0: 18b7 afbd c78a eabd ac1c 903d 1f8b c3bd
000001c0: a020 87bd 42bf fc3d 33de 83bd ab25 423d
000001d0: 493c c53d 25fc e6bc d091 98bd 5e3d 9ebd
000001e0: 42fb be3c aadd c33d 26f3 a13d cb8f a1bd
000001f0: 62b9 c3bd 91fb 66bd 8938 3fbd 0efc 1b3d
00000200: 2d18 69bd 9fd7 283d 6380 a5bd 2e35 eb3d
00000210: fead d4bd 4be2 06bc 3321 543d a2a9 d23d
00000220: 0857 fbbd 8888 e2bd 0c89 c73d dd3c 08bc
00000230: 7b04 513d 43c8 b23d 52e6 c83d aa98 c3bd
00000240: 6386 11bd 2c8f c0bd a792 9ebd 20d4 903d
00000250: 3303 aa3d 3664 f63c 156d 45bd 4cdc 84bd
00000260: 6ab9 cdbc 0994 e33c 624e 913d f76e 373d
00000270: 93f4 7f3d a2b5 6f3d 0034 2a3d 530b ff3a
00000280: 52aa f43c 491a 52bd da90 da3c 2e87 b2bd
00000290: 323b c5bd b0c0 38bd e893 b5bd 5807 87bc
000002a0: b2c6 fd3d fec8 923d d7a4 773c 9929 19bd
000002b0: 8dde 56bd 06e6 e63b 529e debc ab38 adbc
000002c0: b5de cbbd 9297 993d 0c33 3d3c c1b8 3bbd
000002d0: a362 783c 5130 1dbd f591 ccbd a170 a1bc
000002e0: 4dad fdbd 4984 21bd 451f 243d f6f5 c6bd
000002f0: e561 3c3d 4dd1 fc3d 1aa3 fb3c eff7 acbd
00000300: 72ff 34bd b3de 00bd 3121 45bc 8a58 bcbd
00000310: f227 02bd 52cf 143d 9b54 edbd 3316 bebd
00000320: 633e 6e3d 86a6 e7bc 25e0 88bd d341 f43a
00000330: a0c4 873d f99a 833d 964c 9dbc 65b8 89bc
00000340: 9e5b 703d af10 f13d af05 79bd 2202 263d
00000350: 3ed9 bcbc 7941 b33d f200 843d 727a d1bd
00000360: 5dee 19bd 3bc7 123d fda9 b8bd c6f2 e1bd
00000370: 5fc5 853c da02 a8bd 0dbe d33b ca73 bdbd
00000380: 1af7 fdbd 25f1 fa3d 35e7 be3d 01ac f5bd
00000390: a9cb f03d 214b 1ebd 357f 733d eebc bc3d
000003a0: 6b14 613c 5dcc 94bd b71e b93d 9c62 893c
000003b0: 247d c5bc 9afc 363b c578 8bbd 3ff8 adbd
000003c0: 203d dbbd 4d4e d0bd fc6f 45bd 8933 a83d
000003d0: ac34 fb3c fe1e 1cbd a9eb f4bd 9702 b4bd
000003e0: 567f 00be afdf d2bd 97a2 803d 6f7f a53d
000003f0: a945 433c 4ddd 1d3d 0aac 8b3d e977 e33d

classifier.0.bias f4 [32]
-0.012945773 -0.01014508 -0.004311221 -0.08942514 0.10173479 -0.0616317 -0.0036583664 -0.030488353
-0.017211158 0.099063516 -0.06593021 -0.014793022 0.08457516 0.08894383 -0.055395793 0.06718904
0.101543725 0.026534867 0.07164867 0.0021430429 0.09798753 8.40181e-06 0.02224551 -0.035058428
-0.088168874 -0.03606804 -0.09054397 -0.123837546 -0.044401158 -0.08922364 0.0025426173 -0.013429556
00000000: 821a 54bc 8d37 26bc 2545 8dbb 8724 b7bd
00000010: 545a d03d 8571 7cbd 34c1 6fbb b6c2 f9bc
00000020: 6afe 8cbc d0e1 ca3d 6b06 87bd 6e5e 72bc
00000030: be35 ad3d 2f28 b63d b3e6 62bd 689a 893d
00000040: 28f6 cf3d a65f d93c 8abc 923d 4b72 0c3b
00000050: b0ad c83d 80f5 0c37 373c b63c 6d99 0fbd
00000060: e291 b4bd 15bc 13bd 1e6f b9bd 8a9e fdbd
00000070: fddd 35bd e2ba b6bd 0aa2 263b a407 5cbc

classifier.3.weight f4 [3, 32]
0.07454931 -0.018438252 0.12149039 -0.07726113 0.019653542 0.12138775 0.10799554 -0.07512593
0.1294576 -0.08681553 0.08554733 -0.15481122 -0.058775295 0.14205407 0.033921834 -0.07080725
0.08516589 0.1707432 -0.08437215 -0.07780628 0.11101389 0.08757362 0.14246804 0.12150161
-0.16913751 0.13011155 0.022395028 -0.013754386 0.10689658 -0.1256177 -0.049592007 0.082234204
-0.07712686 0.073277205 0.059251998 0.031388853 0.075392365 -0.16181096 0.13573968 -0.0303867
-0.032359608 -0.102203116 -0.007710097 0.015669199 -0.05990639 -0.117097475 -0.024662761 0.078379214
0.020193877 0.053316016 0.0050455653 -0.14413816 -0.15374903 0.0332484 0.13308045 0.16862082
-0.12484767 -0.062453624 -0.06132366 0.16718674 -0.13106996 -0.102343954 0.11837378 -0.17292549
0.1692908 -0.04316392 -0.029026132 -0.015677636 -0.12194209 -0.10088466 0.15599439 -0.09029963
-0.007680336 0.03241544 0.15328175 0.17398396 0.09431949 -0.03143607 0.124798864 -0.13745086
-0.14705259 -0.0023211362 0.06406501 0.15753514 0.025678696 -0.13280778 -0.057049613 -0.039123334
0.15871754 -0.06311248 0.0055158758 0.02770873 0.17199701 -0.018690376 0.1047982 0.08935071
00000000: 4fad 983d d10b 97bc f4cf f83d 153b 9ebd
00000010: 7700 a13c 249a f83d c42c dd3d a0db 99bd
00000020: 8890 043e 57cc b1bd 7033 af3d d586 1ebe
00000030: 5dbe 70bd 9f76 113e 9ff1 0a3d 6403 91bd
00000040: 746b ae3d 4ed7 2e3e 4ecb acbd e658 9fbd
00000050: 405b e33d cc59 b33d 24e3 113e d6d5 f83d
00000060: 6232 2dbe f63b 053e c775 b73c 145a 61bc
00000070: 98ec da3d eda1 00be fd20 4bbd 686a a83d
00000080: b0f4 9dbd 5c12 963d 39b2 723d 9991 003d
00000090: 5067 9a3d c6b1 25be 58ff 0a3e 87ed f8bc
000000a0: 828b 04bd de4f d1bd fba4 fcbb b15c 803c
000000b0: 6760 75bd cdd0 efbd 8f09 cabc 4885 a03d
000000c0: a16d a53c e561 5a3d 4555 a53b f498 13be
000000d0: 6370 1dbe 792f 083d 3e46 083e f0aa 2c3e
000000e0: 23b0 ffbd 5fcf 7fbd 852e 7bbd 0033 2b3e
000000f0: 3437 06be b599 d1bd f46d f23d 6113 31be
00000100: 915a 2d3e a7cc 30bd 36c8 edbc 636e 80bc
00000110: c6bc f9bd 9e9c cebd febc 1f3e 03ef b8bd
00000120: 54ab fbbb 0dc6 043d e4f5 1c3e da28 323e
00000130: 942a c13d 1cc3 00bd 8c96 ff3d ebbf 0cbe
00000140: f494 16be 341e 18bb 8434 833d e450 213e
00000150: 215c d23c c3fe 07be dbac 69bd ca3f 20bd
00000160: da86 223e 1e41 81bd 85be b43b 6bfd e23c
00000170: fc1f 303e 8f1c 99bc 70a0 d63d 81fd b63d

classifier.3.bias f4 [3]
-0.017397525 -0.042497274 -0.1588001
00000000: 4185 8ebc 9f11 2ebd 7e9c 22be
