models/best_hetero_fraud_model.pth (torch, 954051 bytes, 172 tensors)

info_attention f4 [5]
00000000: 7ce6 ddbf b825 01bf d8b9 d8bf 8e94 53bf
00000010: 6620 a23f
-1.7335963 -0.5044818 -1.6931715 -0.8264855 1.2666137

node_embeddings.contador.weight f4 [64, 64]
00000000: 5a86 a43d 23cf 5d3a 88e9 803d 7033 f53d
00000010: 3783 3fbd c311 f7bd dc98 f93d 470b 88bd
00000020: b9e6 f73c fadf 9c3d 22e2 9cbc 12f1 bd3d
00000030: 5426 ad3d bf31 dabc 1def 123d a4ec 2e3c
00000040: 087d f83d 92f4 b13d 4a91 abbd cb6d 273c
00000050: 757f 903d 30ab bd3d e44f 353d c08d 653d
00000060: 8621 bcbc 3581 103a afb6 aebd 0278 d33d
00000070: d4b2 c33d 4101 85bd 2d5d debd 1484 d13d
00000080: 08f9 e1bd d046 9d3d e473 f7bd bc46 89bd
00000090: 3ffd 54bd 3f2c f73d c082 bfbc 0447 e53d
000000a0: a6a2 123d 8e9d fb3d a37c ac3d 460b b43d
000000b0: 5cdb dc3d 3b47 0abd 5d86 fdbc 807e 2c3d
000000c0: 7271 e03d 7818 36bd 35ed cabd bc65 c0bd
000000d0: c949 76bd 71ba ba3c 4d44 62bc 62a5 02bd
000000e0: 8deb 6dbd e219 043d 6e40 d3bd e072 fe3d
000000f0: 5dbe 9abc 5853 db3c 3549 2a3d a25b 46bd
00000100: cbab ca3d f282 72bb 6a66 5c3c c87a f0bd
00000110: fe6a 833c 45db 393d 3587 b93c b38a 1dbc
00000120: b699 c83d 5739 c83d 7ef5 b13d cd81 debc
00000130: 11ad d33c 3bac b9bd 4850 b9bd 9397 99bc
00000140: 8ab0 683c bfd9 97bd 1b0b d5bd 4436 5c3d
00000150: ad13 3b3d 8031 b2bd 036b af3d 51cb b7bd
00000160: fa04 c33d ff3a 853d c959 20bd ebfb f03d
00000170: 7459 99bd ca0a 56bd 911b c93d c816 f8bc
00000180: de9b 50bd 97d3 a33c 69d5 92bc a5ac 983d
00000190: 09e9 d53d c9a6 653d 2f92 df3c 7385 ea3c
000001a0: 38b3 693b 8e3f 8a3c 83d0 003c 8398 ac3d
000001b0: 0eba 903d d7fc 13bc d0c1 453d 6eed f83b
000001c0: b59a 343d 3c72 d03d 2795 b4bd 27b7 9b3c
000001d0: ced7 e7bc 07e9 f3bd a547 f2bd dd48 a0bc
000001e0: 5b7b b43d 3a82 a5bd 04b6 283d a01c 953d
000001f0: b5c2 b9bd ef72 623d 72e3 c53c 30a5 e0bd
00000200: ab55 8cba 1c87 f5bd 1cea e33d 28e9 7b3d
00000210: 4044 433d 8b11 c53d 9acb c53d 3f31 003e
00000220: 5d22 5f3d 3e1b b7bd f6fb ec3d 5329 e43c
00000230: bd71 36bd 50ea 41bd 7a36 f63d 769a fd3c
00000240: 3b8c bc3d 609b 263c 7834 ef3d b70a c0bd
00000250: 117b 003d b804 c83c a3b9 0e3b 9f05 ec3d
00000260: bb29 e43c 3cfd 393b b942 b53d 08cc 1abc
00000270: 2654 04bc a968 d2bd bc37 47ba f373 5ebd
00000280: 5ea7 973d 82f8 da3d 9ebc eabd 0448 9ebd
00000290: a5df f63d d0c7 59bd 9411 e43d f4da f63d
000002a0: 91e3 f5bc 3f15 ccbd 22f4 823d e3c7 693d
000002b0: c0da dc3d 785b a73c ec5e 8f3d 553e e2bd
000002c0: fbcb 8c3c 2ceb 003d f607 9a3d 5c22 8abd
000002d0: aaf4 89bc 437a 8fbd 2c82 aabd 5b27 583d
000002e0: 8d97 9f3c 3708 463d 64ff 92bb 54f6 8bbb
000002f0: 640a dabb 956b 893d 3c9c b4bd ecb0 e63c
00000300: 8e5f 8c3d 367a 943d b0b2 75bd e23d c63d
00000310: 329d aabd f07c 853d 8868 d13d f46c 833b
00000320: 20db 1c3d 9483 f2bd bc86 4abd 1429 49bd
00000330: 3858 eebd 74d8 d8bc e6b7 b23d 348a 43bc
00000340: 26f9 fc3d d271 e6bd 7031 4c3d 9e5d dd3d
00000350: 3ed2 f83d b49c 46bd 4825 e7bd 982e 3cbd
00000360: 56c6 bd3d 6470 333c 44af f43d eaec babd
00000370: 6c4d a0bd 4a77 823d d48d 2f3d 7651 a6bd
00000380: 2c29 ee3d 8875 45bd e0c2 d4bd d449 0e3d
00000390: 746b 8fbd 4ca6 73bd d002 8fbd 1442 0b3d
000003a0: 5cde 6f3d 362d ac3d 9edc 90bd dc51 efbc
000003b0: baf4 ee3d 5281 83bd bc11 39bd 64e6 c4bc
000003c0: dcae e2bd 5037 bdbd 5411 e43d 1c06 bd3c
000003d0: 6c53 bf3c d0f8 4a3d 8aaf 9b3d 58f5 ab3d
000003e0: 3c5b b73d 34a6 4e3d 66fd c03d a043 a73d
000003f0: 2c39 abbc b479 383c b418 86bd 7ea1 c0bd
0.08033438 0.0008461347 0.062945426 0.119727015 -0.046755996 -0.12063935 0.12187359 -0.06642776
0.030261384 0.07659908 -0.019150797 0.09274496 0.08454576 -0.026635049 0.035872567 0.010676537
0.12133223 0.08689226 -0.08377321 0.010219048 0.070555605 0.09261167 0.044265643 0.056043386
-0.022965204 0.00055124174 -0.08530938 0.10325624 0.09555593 -0.0649438 -0.108576156 0.1023027
-0.11033827 0.07679522 -0.12082651 -0.06702945 -0.051999327 0.12068986 -0.023377776 0.11195186
0.035799645 0.122859105 0.0842221 0.08791213 0.10784027 -0.033759337 -0.030947858 0.042112827
0.10959138 -0.04445693 -0.09908525 -0.09394404 -0.06012896 0.02279398 -0.0138102295 -0.031896003
-0.058085967 0.032251246 -0.10315023 0.124242544 -0.0188896 0.02677314 0.041573722 -0.04842723
0.09896048 -0.003700432 0.013452152 -0.11742169 0.016042229 0.045375127 0.02264748 -0.009615588
0.09794943 0.09776562 0.08689402 -0.027161503 0.02583936 -0.090660535 -0.090485156 -0.018749034
0.014202246 -0.07414579 -0.10402509 0.05376269 0.04567306 -0.087008476 0.08565333 -0.089743264
0.095224336 0.06505393 -0.039148126 0.117667995 -0.07487765 -0.052256383 0.09819711 -0.0302843
-0.050929897 0.019998355 -0.017924028 0.07454804 0.104448386 0.05606726 0.027291385 0.028628087
0.0035659801 0.016876008 0.007862213 0.08427527 0.07066737 -0.00903245 0.048280537 0.007596663
0.044092853 0.101780385 -0.08817511 0.019008232 -0.028301146 -0.11909681 -0.11830071 -0.019565994
0.08812591 -0.08081479 0.04118921 0.072808504 -0.090703405 0.05528539 0.024156306 -0.10969007
-0.0010706683 -0.11988661 0.11128637 0.061501652 0.04767251 0.09622487 0.096579745 0.12518786
0.05447613 -0.08940743 0.11571495 0.027851736 -0.044542063 -0.0473426 0.12022109 0.030957442
0.09206434 0.01016888 0.116799295 -0.09377044 0.031367365 0.024416313 0.0021778129 0.1152451
0.02785193 0.00283797 0.08850617 -0.009448059 -0.008076703 -0.102738686 -0.00075995526 -0.054309797
0.0740497 0.1069193 -0.11461757 -0.0772858 0.120543756 -0.05316907 0.11136165 0.12053481
-0.030015739 -0.0996499 0.06394221 0.057075392 0.10783911 0.020429358 0.07000527 -0.11047045
0.01718711 0.031474277 0.0752105 -0.06744835 -0.016840298 -0.070057414 -0.083256096 0.052771907
0.019481445 0.048347678 -0.0044860113 -0.004271308 -0.0066540707 0.06709973 -0.08818862 0.028160535
0.06854163 0.072498724 -0.059984863 0.09679772 -0.08330764 0.065179706 0.10225016 0.004010791
0.03829491 -0.11841503 -0.0494449 -0.04911144 -0.1163792 -0.0264704 0.08726482 -0.011934806
0.12352209 -0.11252178 0.049851835 0.10808872 0.121494755 -0.048489287 -0.11286408 -0.045942873
0.09266345 0.010952089 0.11947492 -0.09127219 -0.07827267 0.06370409 0.042859867 -0.08121006
0.11628947 -0.04820779 -0.10388732 0.034738377 -0.07002917 -0.059484765 -0.06982958 0.033998564
0.058561668 0.08407061 -0.070733294 -0.029213838 0.11667772 -0.0642115 -0.04518293 -0.02403564
-0.11068508 -0.09239066 0.111361176 0.023074202 0.023355208 0.049553692 0.07601841 0.08396405
0.089529485 0.050451472 0.09423332 0.08167195 -0.020901285 0.011259485 -0.065476805 -0.09405802

node_embeddings.contador.bias f4 [64]
00000000: 89f7 923d 7ad0 c8bd 7c5a aebd d8be 9dbd
00000010: 6c86 06bd d45d 483d d0d5 b43d 48e6 fc3d
00000020: 0aad dcbc 7635 063d 2431 103c f0f5 873d
00000030: 319b 813d f1d3 8c3d c8ef b53d 406d d03d
00000040: d03a 0a3c fa35 b33d 8d99 92bd faa1 f5bc
00000050: 1701 1abd 044d 19bd 625e 163c 24db f0bd
00000060: 5031 91bd d4fb 3fbc 2f71 c03c 7d73 b63d
00000070: 141a afbd fd47 f23c fa4d 703d 3a98 88bd
00000080: 9423 ae3c e02d 86bd 845f 41bb 2cac 8cbd
00000090: 11ae 10bd 508b 4abd 0ebf db3d 0c25 f73c
000000a0: 9d38 f8bd 41f4 493c 0a9a 8b3d 64f7 5ebd
000000b0: 6217 99bd 1c10 c9bc 0620 e2bd d47e 3ebd
000000c0: 0253 3b3c 68fe bebd f226 f3bd 0a32 98bd
000000d0: 8601 bbbd 4335 213b 2225 453d bdd3 a43d
000000e0: 42ce ff3d 407e 903d 5c28 67bd 5405 88bc
000000f0: c876 83bd b13c 933d 28b3 2a3d 58ff 6b3d
0.0717612 -0.09805389 -0.08513352 -0.07702416 -0.03284304 0.048917606 0.08829844 0.1234861
-0.02693798 0.032765828 0.008800779 0.06638706 0.063284285 0.06876362 0.08883625 0.10177088
0.008436874 0.087505296 -0.07158194 -0.029984463 -0.037598696 -0.037426963 0.009177776 -0.11760548
-0.07089484 -0.011717755 0.02349147 0.089087464 -0.08549896 0.029575342 0.058668114 -0.0666966
0.0212572 -0.06551719 -0.0029506395 -0.06868777 -0.035322253 -0.049449265 0.107298 0.030169033
-0.12120173 0.012326301 0.0681649 -0.05443515 -0.07475163 -0.024543814 -0.11041264 -0.04650767
0.011433365 -0.09325868 -0.118726626 -0.07431419 -0.0913115 0.0024598397 0.048131116 0.08048198
0.124905124 0.0705533 -0.056434974 -0.016604103 -0.0641914 0.0718931 0.041674763 0.05761656

node_embeddings.suministro.weight f4 [64, 47]
00000000: f32a c4bd a59e e43d 6f4a 05be 7b06 933d
00000010: e60c 00be f7f0 e33d de8d afbd 4fbc e5bd
00000020: 8eaa 993d ab92 023e 2470 34bc f75f 703d
00000030: 9b18 0a3e b9cc f1bd fafe 773d cb75 0b3d
00000040: a9a3 a9bd 0416 ad3d 8530 073e 96b8 dc3d
00000050: bd1e ddbd da90 033e f03e fc3d 2ad5 633d
00000060: 4442 c5bc 2f93 ef3d cb1d c8bd f182 b0bd
00000070: bcdc 9b3d b561 c73d b758 69bc 2914 0a3e
00000080: 79aa 993d df96 8b3d 97c9 fa3d 4eba 113e
00000090: 8384 d03d 57d0 f33d 84aa 5e3c 8ff9 ed3d
000000a0: 16c4 9b3d 768c 8bbd 53eb ae3d 17f0 eb3b
000000b0: 9c1a 53bd 8b2f dd3d 4a45 1e3d c666 e83d
000000c0: c018 043d 370a 343d dee2 b83d fe5c 0ebd
000000d0: e39a b43d a169 9abd 4800 abbc 5b1b 433c
000000e0: 58ba ce3d a556 853d 850f 143e 6230 a6bd
000000f0: b87b 52bc b8ee 73bc c3c5 f03d 2fbc 0d3e
00000100: e0f6 183d 160d f1bd aadf d2bd b7a9 ec3c
00000110: bd81 00be 5bc4 55bd e493 d7bd f02c 993d
00000120: bd7c c3bc 30a5 e7bd 439c c83d 0d1e 06be
00000130: 046b 61bc d41e 0e3e 31d4 943d d8a5 fbbd
00000140: 5fd8 7f3c 79b4 acbc d3a7 833d 9a06 0a3e
00000150: 0b4e ff3d d7a0 44bc 9d89 863d 567a 12be
00000160: c83e e73d 2006 973d e753 cabd 7033 2cbd
00000170: 382e 69bd 4f0c b2bd 2fd0 703d e890 34bd
00000180: 9b5f 753d 4760 3ebd d8ea e73d 17ea 6ebd
00000190: 47bd b2bc 16c1 41bd e975 153c bed7 5dbd
000001a0: 60af dabd cecb 0fbe 4d2d b33d e4cc a53c
000001b0: e360 c5bd 5ec8 9a3d b08c 813c f9e7 63bd
000001c0: a033 74bc 9803 753c 5894 cd3d fc5c 0cbe
000001d0: 54dc e7bd 8c2f fabd 8ae7 e8bd a7f5 9aba
000001e0: 8a62 a33d 194a 133d 10a1 683d e4c3 8f3c
000001f0: 742f 36bb b910 09be 3e7c 053e f300 0d3e
00000200: 2ff2 82bb c1a6 c73c 5c3b dd3c fcd0 133e
00000210: cf54 7e3a ce32 e7bc 4037 a4bd 366b 0b3d
00000220: e05f 893d b601 01be 232c 543d da56 0b3d
00000230: f881 843d 8e81 903d d112 22bd 149f b33c
00000240: 0e82 cfbd a3ba b33d a9c3 f6bd 04f9 01be
00000250: 57fe e2bd 1eb1 adbd 9be2 da3b 9699 c83d
00000260: ea9f 94bc 0b29 d53d 0e46 d1bc 05ae fe3d
00000270: faab ca3d e85e bb3d 3260 773d df2d c9bd
00000280: 670d 103e 4db2 11be d402 dabd 1b08 b8bd
00000290: 0aa1 2bbd e049 8d3d 75b4 053d 500d fdbd
000002a0: 7504 133e ddbd 0b3e 9034 913d b2bc 12be
000002b0: ed5a b03d 045b 2e3d e0d9 9fbc f2ff fdbd
000002c0: cd0f fa3d 7630 36bd ebd9 f2bd faf5 e83d
000002d0: b331 743d d056 323d e931 bb3d 8d73 4f3d
000002e0: cb49 04bd e2da b4bc 9ab9 f43d c225 aabb
000002f0: c686 f9bd b66e cebd cad0 e5bd 6beb 433c
00000300: 465e de3d 9b6c ac3d 2287 253d 7473 4a3d
00000310: a200 8abd 844e 0a3e 470f 573d 88d4 b9bd
00000320: 4212 cbbd b44f 05be 8586 36bd 2881 db3d
00000330: 5b7f bc3b f29e 8cbd 00a8 203d dadd d6bd
00000340: 8ba1 313d 892d c23d e041 923d df69 30bd
00000350: 93d6 42bd 4bd5 733d 58b7 ad3d f753 0abd
00000360: be61 9ebb eebf 82bc 346f 8cbc eb6b 08be
00000370: b341 febd a559 003e 288e 8bbd fc57 dc3d
00000380: fe57 ba3d 80c1 b5bc 0882 8dbd 8efc d53b
00000390: a400 cbbc ea97 b1bd c8f3 0d3e 7d18 1ebc
000003a0: 0519 c7bc 83f1 d0bd 0459 c23c 2af4 ae3c
000003b0: 6226 123e 2b83 43bd f7fe a23d c827 8e3b
000003c0: 407f a13d 1597 673b 9481 d0bc 6fe1 6f3d
000003d0: d70f 85bd 61d0 b63d d388 00be 24aa d1bd
000003e0: 0373 0e3e 420e 5fbd c43d edbd c01c d9bd
000003f0: 20b4 113e 775f afbc 58b8 fbbd 9f6a c8bc
-0.095785044 0.111630715 -0.13016675 0.071789704 -0.1250492 0.11129945 -0.08571981 -0.11217558
0.07503234 0.12751262 -0.0110130645 0.05868527 0.13485949 -0.11806626 0.0605459 0.034047883
-0.08283169 0.08451465 0.13202102 0.107773945 -0.107968785 0.12848225 0.12316692 0.05562321
-0.02407945 0.11697995 -0.097713076 -0.08618725 0.07610461 0.09735433 -0.014242343 0.13484253
0.07503218 0.06815886 0.122454815 0.14231226 0.101815246 0.11904972 0.013590459 0.11619865
0.0760576 -0.068139 0.08540978 0.007200252 -0.05153905 0.10800084 0.038640298 0.113477275
0.032250166 0.043955054 0.090276465 -0.034756653 0.08818605 -0.07539678 -0.020874158 0.0119083775
0.10094136 0.06510667 0.14459045 -0.08114697 -0.01284688 -0.014888458 0.1175647 0.13841318
0.037344813 -0.11770074 -0.10296567 0.02888952 -0.12549491 -0.052189212 -0.10526255 0.07479274
-0.02386319 -0.11310804 0.097954296 -0.13097401 -0.013758425 0.13878947 0.07267035 -0.122874916
0.015615552 -0.02108215 0.06428494 0.13479081 0.124660574 -0.012001238 0.065692164 -0.1430448
0.112912714 0.07374215 -0.09879284 -0.042041242 -0.056928843 -0.08693754 0.05879229 -0.044083506
0.05990563 -0.046478536 0.1132409 -0.058328714 -0.02181877 -0.04730328 0.00912235 -0.054160826
-0.106779814 -0.14042589 0.08748875 0.020239301 -0.0963762 0.07557748 0.015814155 -0.05564115
-0.0149048865 0.01495447 0.1003806 -0.13707346 -0.11321321 -0.122161 -0.113722876 -0.0011822478
0.07977779 0.035959337 0.056794226 0.017549463 -0.002779928 -0.13385285 0.13035676 0.13769893
-0.0039961557 0.024371507 0.027005844 0.1443519 0.00097019685 -0.028222468 -0.080183506 0.03403779
0.0670774 -0.12598309 0.051799905 0.034018375 0.06470102 0.070559606 -0.039568726 0.02192644
-0.10132228 0.087758325 -0.12049038 -0.12692648 -0.11083668 -0.08481048 0.0066798455 0.09794919
-0.01814266 0.10408219 -0.0255461 0.12435535 0.09896083 0.09148961 0.060394473 -0.09823202
0.14067613 -0.14228173 -0.10645071 -0.08985921 -0.041901626 0.06898856 0.0326428 -0.12356055
0.14357169 0.13646646 0.070901036 -0.14329794 0.08611093 0.042567268 -0.01951307 -0.12402333
0.12210045 -0.04447981 -0.11857971 0.11375041 0.05961771 0.043539822 0.09140379 0.050647307
-0.032296937 -0.022077028 0.11949463 -0.0051924894 -0.12183909 -0.1007971 -0.11221464 0.0119579835
0.10857825 0.08419152 0.040412076 0.04942651 -0.06738402 0.13506514 0.052504804 -0.0907374
-0.09915592 -0.13018686 -0.04456188 0.10717994 0.0057524866 -0.06866254 0.039222717 -0.104915336
0.04336695 0.094813414 0.07141471 -0.043069717 -0.047567915 0.059529584 0.08482236 -0.03377148
-0.004833429 -0.01596066 -0.01714287 -0.13322417 -0.12414875 0.12534197 -0.068142235 0.10758969
0.090988144 -0.022186995 -0.06909567 0.006530351 -0.024780579 -0.086715534 0.13862526 -0.009649393
-0.024303922 -0.10202315 0.023724087 0.02135666 0.14272454 -0.047732513 0.07958787 0.0043382384
0.07885599 0.0035337855 -0.025452413 0.0585646 -0.06497162 0.08926464 -0.12552194 -0.1023753
0.13911061 -0.054456957 -0.115840465 -0.10601187 0.14228868 -0.021407826 -0.1229102 -0.024464903

node_embeddings.suministro.bias f4 [64]
00000000: 966c a4bc 07ce d6bd 0327 823d 9f2f 153d
00000010: c7ff a53c 58ed 133e 4196 d7bc 9f7e ba3d
00000020: 1922 95bd 9c3e 97bd ab33 153d 58e0 a0bd
00000030: 12e9 7c3d 5ebd 09be ff73 63bd 8cfe 173e
00000040: d723 5fbb f882 a03d 18a4 083e 2533 24bd
00000050: 590d 0fbd 3837 9abc f2b6 9cbd 51cf 3dbb
00000060: 8f30 8c3d dbe4 043e e5ea d23d 59fc 133e
00000070: 47a1 9bbd 3881 d4bd 0c75 14be f2b8 b43d
00000080: ca2b 843d 0798 0fbd c3ec f13d ccef dbbd
00000090: ba56 94bc a600 97bb 9474 703d b761 f83d
000000a0: 5473 b0bd c0f8 193e d43d 0d3e ff02 2a3d
000000b0: e65c c8bd cac3 413d 260d d43c 12f5 65bd
000000c0: da4b 0f3e 2e1c f0bd d779 5fbd 5299 6ebd
000000d0: c2eb 32bd 0d50 d63d bd99 23bc 8146 983c
000000e0: 334d 0abe fee8 cdbd e714 c03d 7267 2ebd
000000f0: 1251 673d 77d6 efbd 84e8 a3bd 4607 923d
-0.020071309 -0.10488515 0.06355097 0.03642237 0.020263566 0.14446008 -0.026316764 0.09106182
-0.07281894 -0.07384989 0.036426228 -0.0785529 0.06174571 -0.13451144 -0.055530544 0.14843196
-0.0034048462 0.0783748 0.13343847 -0.040087838 -0.03492484 -0.018825158 -0.076520815 -0.0028962682
0.06845199 0.12977926 0.10298709 0.14451732 -0.075991206 -0.10376209 -0.14497775 0.08824338
0.064536646 -0.035057094 0.11812737 -0.10739097 -0.01810776 -0.0046082316 0.058704928 0.121280126
-0.08615747 0.15036297 0.13793117 0.041506764 -0.09783344 0.04730586 0.025885176 -0.05614192
0.13993779 -0.11724125 -0.054559555 -0.058251686 -0.043681867 0.10464487 -0.0099853845 0.018588306
-0.13506012 -0.10054205 0.09378987 -0.042579122 0.0564738 -0.11710828 -0.08003333 0.071302935

node_embeddings.comercializadora.weight f4 [64, 11]
00000000: 606c 593e c085 993c 7eca 8bbe dd3e 42be
00000010: c2aa e0bd 46b4 0f3e e814 7bbe 9849 46be
00000020: 686a 99be b0cb 59be 2c7e 5f3e 6e5f e6bd
00000030: 88a5 91bd 6037 183c 544d 74bd 6696 d3bd
00000040: 4016 c8bb 28ca 1abe 88da 433e c0c2 46bc
00000050: 541b 0a3e 90df 143d 98a1 683e ea2f 163e
00000060: d737 1bbe c220 91bd 847f 8e3d f2c6 debd
00000070: 2a03 56be 906a 813e 545c 4f3e 543f 1abe
00000080: 8c8c 8e3d 10e0 5f3e ee13 3bbe 007c 4bbd
00000090: b29c 7ebe 1041 8dbe 8c62 753e d41e d83d
000000a0: 17aa 48be 404d b7bc 409c 0fbe 6019 61bd
000000b0: ee81 85bd 1899 c33d e0b1 553d 0456 51be
000000c0: 08ae 1a3e 8000 b63c 7741 21be 435b 33be
000000d0: 8006 dabb 1cec d63d b291 8ebe 5298 8fbd
000000e0: 0619 5fbe c659 90be 6a75 253e da22 d4bd
000000f0: 5a23 93be 3ed3 b1bd 4d86 2abe aae6 263e
00000100: 50eb 41bd 8721 3bbe 1668 fcbd 4099 88bd
00000110: 1c4c 6c3e 7099 e03c 9d55 74be bce1 9fbd
00000120: ae43 8e3e ece8 83be 008a e7bd 4478 863e
00000130: 020c f9bd ac2c 6b3e de31 4abe a0b5 693e
00000140: 9004 4c3e 18e0 66bd 8e32 8fbe 70dc d0bd
00000150: c0a6 9a3d 3acf cebd 3269 76be a471 88be
00000160: 5004 133e 008f 5e3e 1ae3 e9bd 40c9 3c3c
00000170: 1a00 3dbe 6844 323e d4e2 4abe d51a 2fbe
00000180: 146c fbbd 54cb 62bd 889e 183d 2f87 91be
00000190: 1cd3 e1bd 5cff 05be 30de 7abd c09c 8cbc
000001a0: 6077 673c 90a6 1d3e afc5 2fbe c08f d73b
000001b0: 9e49 8c3e 186b 1e3d b85a 65be 4053 533e
000001c0: bdfe 88be 8cf8 fa3d 349d 7f3e e8c7 1a3d
000001d0: 889b 253e 14fe 743e a2fa 0c3e 0a81 b9bd
000001e0: ec43 863d 40b8 793e 34c8 903d be60 75be
000001f0: ae54 863e b49a 953e a82a 333e acd8 273e
00000200: da77 2d3e e074 3bbe ba57 b9bd 5c71 053e
00000210: 0445 9d3d 6e33 033e 40fe babb f5c4 94be
00000220: 6a58 123e f432 42be ee23 7fbe 50aa 983e
00000230: b21a 083e 2471 193e a045 07be a08d e33d
00000240: 40eb d13c c499 523e 0877 103d eef9 893e
00000250: f8a0 90bd 3075 8e3e cee2 983e 2813 123d
00000260: fe5e 62be 00a0 f738 74c2 753e acf1 52be
00000270: c8ae dcbd 0c4a df3d 70f0 7a3d 2c1e 913e
00000280: 506a 4b3d 001c 17bb b04f 223d e806 7ebd
00000290: 311e 8ebe 6a95 d8bd dff0 8bbe e0e7 613e
000002a0: 4072 953c b8cd 0f3d 006c abbc b36a 1ebe
000002b0: 30d1 59be d807 3dbd acd4 ba3d 3af5 28be
000002c0: 1004 3fbe 2698 483e 9a65 d6bd 20f1 2d3e
000002d0: 6cc9 933e d218 913e 1ab6 6ebe 4035 b73c
000002e0: 4617 72be 00e4 4b3c d8be 2b3d 32a2 05be
000002f0: ec46 b73d 5a94 c1bd aaf3 2d3e 8060 3c3b
00000300: 0c4f 563e b0ae 503e 70e3 893d b08e 663d
00000310: 72bd 0bbe 90e2 4bbe e028 503e a4bf 4b3e
00000320: d8ab 413d ec85 813e 3236 213e 24af 493e
00000330: 20e1 6cbd 2889 303d eacb 8abe 6b0d 8dbe
00000340: 3ccd 123e 771c 3abe ec25 6b3e 2221 79be
00000350: b996 7fbe 7070 7dbe ca25 463e 1fa6 4cbe
00000360: 2763 84be e86b 023e c01a 79bd c908 93be
00000370: 8cf8 5a3e c0c5 5f3e 70a8 773e bacf 413e
00000380: b25c 6fbe aaea 07be e4aa f2bd 5521 96be
00000390: 18c3 573e 74e3 f9bd ecf0 d33d a2ff 1cbe
000003a0: 3656 8a3e b48c 593e d016 553e e21d 173e
000003b0: 8a38 813e c8e3 c93d 600a 533d f03b 8bbd
000003c0: 5ce3 7a3e f1f4 94be 3882 5c3e d0b3 e9bc
000003d0: c083 a3bc cef9 4abe fffc 06be c8f5 683d
000003e0: 529f fbbd d4d4 db3d 00fb 2d3d 6469 83be
000003f0: 94be 283e 92f0 07be 601a dfbd e042 e3bd
0.21232748 0.018740535 -0.27302927 -0.18969293 -0.109700695 0.14033613 -0.24519694 -0.19364011
-0.29963994 -0.21269107 0.21825475 -0.112486705 -0.07111651 0.009290546 -0.05964406 -0.103314206
-0.006106168 -0.15116179 0.19126332 -0.012131393 0.13486987 0.03634602 0.22717893 0.14666715
-0.1515802 -0.07086326 0.069579154 -0.108777896 -0.20899644 0.25276613 0.20250064 -0.1506322
0.06960401 0.21862817 -0.18269321 -0.049678802 -0.24864462 -0.275887 0.23963374 0.10552755
-0.19596134 -0.022375703 -0.14024448 -0.05495584 -0.06518923 0.09550685 0.052171588 -0.20442969
0.1510545 0.022217035 -0.15747629 -0.17515282 -0.006653607 0.10494253 -0.27845532 -0.07011475
-0.2178689 -0.28193492 0.16158071 -0.1035821 -0.2873791 -0.086828694 -0.16652794 0.16298929
-0.047343552 -0.18274508 -0.1232454 -0.06669855 0.23075908 0.027416915 -0.23860784 -0.07806727
0.2778601 -0.25763643 -0.11305618 0.2626363 -0.121604934 0.2296626 -0.19745585 0.2282319
0.19923615 -0.056366056 -0.27968258 -0.10198295 0.07551336 -0.10098119 -0.24063566 -0.266492
0.14357114 0.21734238 -0.11420269 0.011522591 -0.1845707 0.17408907 -0.1981309 -0.1710008
-0.12276474 -0.05536969 0.037260562 -0.2842345 -0.11026594 -0.13085693 -0.06124705 -0.017164588
0.014127582 0.1539557 -0.17165254 0.0065784156 0.27399915 0.03867635 -0.22397888 0.20637226
-0.2675685 0.12254438 0.24962312 0.0377883 0.16172612 0.23925048 0.13767484 -0.090578154
0.06555924 0.24386692 0.07069436 -0.23962685 0.2623648 0.29219592 0.17496741 0.16391248
0.16940251 -0.18306303 -0.09049936 0.13031524 0.07679179 0.12812588 -0.0057065785 -0.29056516
0.1429154 -0.1896475 -0.2491605 0.29817438 0.13291433 0.14984566 -0.13210154 0.11110997
0.025624871 0.2056647 0.035269767 0.26948494 -0.07061952 0.27823782 0.29860538 0.0356628
-0.22106549 0.0001180768 0.23999959 -0.20600003 -0.107755244 0.10902795 0.061264455 0.28343332
0.049661934 -0.002305746 0.039626777 -0.062018305 -0.2775741 -0.105753735 -0.27332208 0.2206111
0.018242955 0.035108298 -0.020925522 -0.1547039 -0.21271205 -0.04615006 0.09122595 -0.16499797
-0.18653893 0.1958929 -0.10468598 0.16986513 0.2886461 0.2833925 -0.23311654 0.022364259
-0.2364169 0.012444496 0.04193005 -0.13050154 0.08949074 -0.09452124 0.16987482 0.0028744042
0.20928591 0.20379138 0.067328334 0.05628842 -0.13646486 -0.19910645 0.20328093 0.19897324
0.047283024 0.25297487 0.1574333 0.19695717 -0.057831883 0.043099552 -0.271087 -0.275493
0.14336103 -0.18174921 0.22963685 -0.24329045 -0.2495984 -0.24749923 0.19350353 -0.19985245
-0.25856897 0.12736475 -0.060816526 -0.2871764 0.21383876 0.2185278 0.24185348 0.18926898
-0.23375204 -0.13273111 -0.11849001 -0.29322305 0.21070516 -0.12201586 0.103486866 -0.15331891
0.270189 0.2124508 0.20809484 0.14757493 0.25238448 0.09857899 0.051523566 -0.067985415
0.24500793 -0.29093125 0.2153405 -0.028528124 -0.019960284 -0.19821855 -0.13182448 0.05687502
-0.12286247 0.10733953 0.0424757 -0.25666344 0.1647895 -0.13275364 -0.108937025 -0.1109674

node_embeddings.comercializadora.bias f4 [64]
00000000: d81b 20bd 9e65 21be d8e4 803e d0ac 8f3e
00000010: 62ad 233e c8d7 713e 3502 8bbe f183 8bbe
00000020: aeb8 283e 0ca5 8abd f847 033e 5c76 8f3e
00000030: c414 8dbd 2509 24be 18a5 903e 9002 14be
00000040: 20ea 30be 40c6 773e 0018 4bbc ab95 16be
00000050: 8c3c dc3d 3005 1cbe c00c 343c d73c 73be
00000060: 8a0f 95bd 5c86 6f3e 60e7 313d 584b 27bd
00000070: 1822 6a3e 8437 273e 6643 2d3e 7081 123e
00000080: d04a d3bd 5370 89be f9d4 36be 1a85 37be
00000090: 60f5 ab3d e898 773e f2b3 8e3e e83b 773e
000000a0: 783c 2f3d 78a1 543e 40ec 773c 4466 0f3e
000000b0: 7664 4cbe aab2 943e 8ebb 0e3e 0078 e839
000000c0: 8827 f5bd b84c 583d 3845 0ebd 5cd7 47be
000000d0: 0d4a 3fbe dc4f f6bd f4bf 8d3d ce13 47be
000000e0: b826 2a3e 380b 2abe 26a0 393e 8068 2a3c
000000f0: 00f4 073a a8c8 263d 8005 15bb ac99 183e
-0.039089054 -0.1576142 0.25174594 0.28061533 0.15984109 0.2361747 -0.2715012 -0.272491
0.164767 -0.067697614 0.12820423 0.2801999 -0.06888726 -0.16019113 0.28250957 -0.14454103
-0.17276812 0.2419672 -0.012395859 -0.14705531 0.10753736 -0.15236354 0.010989368 -0.23753677
-0.072783545 0.23391098 0.043433547 -0.040843338 0.22864568 0.16329771 0.16920242 0.14307189
-0.10317004 -0.2684351 -0.1785468 -0.17921868 0.08396411 0.24179423 0.27871662 0.24143946
0.042782277 0.2076472 0.01513201 0.14003855 -0.19960198 0.2904256 0.13938734 0.00044339895
-0.119704306 0.05280754 -0.03473398 -0.19515747 -0.18680592 -0.12026951 0.06921378 -0.19441149
0.16616333 -0.16605842 0.18127498 0.010400891 0.00051862 0.040718704 -0.0022738874 0.14902371

node_embeddings.ubicacion.weight f4 [64, 24]
00000000: bec9 4bbc e2a1 8bbd e452 ae3c 84c7 f4bd
00000010: c454 a73d 1219 993c dce1 d23d 389e 12bd
00000020: f424 97ba 9d0f c7bd 88ab bbbd 2a0c 623b
00000030: 0003 ce3d 9c2a 9ebd e3b2 203e ec23 8dbd
00000040: a0e1 2bbd 4500 253e 1cc2 17bd 315c e33d
00000050: 34a6 a4bc 047e f53d 847b d93c 1bfd c4bd
00000060: 13ce 09be 600e f83d a476 4d3d e0da 01bd
00000070: 10bd 1fbd 8587 adbd 2ec7 10be 787b 393d
00000080: 52ba 31be 79c1 c7bb 96d5 133e 2671 bb3d
00000090: f49a ea3d 3eef 253d 46d5 e9bd 4e7b d83d
000000a0: 5e53 203e 2bc3 a63d b667 123e 43c6 28be
000000b0: a3e2 35be 2ca2 41bd c9b2 6d3d f466 0a3e
000000c0: 4ce5 68bd 31c5 b2bd 40f2 053e 9cfa f5bb
000000d0: af07 423c a06e 47be bc52 9bbc 0f95 cf3d
000000e0: ab41 4b3e e4c2 a13c 27f8 013e 13f0 d63c
000000f0: 2695 27be 5466 e1bb b4db 8ebd f99f f3bc
00000100: 5a41 a1bd 4b27 193e dfa1 2abe 5681 f6bd
00000110: 7cce 81bd 02ed 2e3e 6417 2bbd 7d2e a63d
00000120: 5c85 c93d 9ef2 323e b81a 40bd e02f 1c3d
00000130: c809 ccbd 8435 7ebc b8a3 36be f08c 2abe
00000140: 1469 633d 9032 20be 647e da3d 9a7d 1a3e
00000150: 3999 9a3d 2aff a03d 75e8 3dbe db51 c1bd
00000160: c5eb 16be 1833 46be a353 b73d fa23 463d
00000170: 2667 463e 3754 63bd cb64 0abe 8cee 33be
00000180: 706b 823c 6f3d debd f94c 0f3d d2a0 0a3e
00000190: 1632 343e 745c 08bd 72eb 07be 7100 e3bd
000001a0: 4220 023e 7c5e 583d 24c2 533c 5e15 4bbe
000001b0: 16bb da3d d7c6 083e 585a a33c 4a31 13bd
000001c0: de60 c6bd e7ca b63b e26a 2d3c fcca 6b3d
000001d0: ef37 d8bb 7a6f 473e c004 033e 8d17 2a3d
000001e0: d8e3 3bbe 0f42 ccbd 37d2 a33d 4f15 07be
000001f0: 556c 593d 1ca6 613d d769 03be fcd2 3a3d
00000200: 3323 aebc e36b 193e cee7 3abd e1ed 353e
00000210: e75f 333e 1b3a 92bd f2e0 1c3d f89a 60bd
00000220: 9135 253e d07c cc3d 396c 7bbb 6198 fe3d
00000230: 315a 24be cc1e 5ebd 7e52 293d cf97 47be
00000240: 2f8c 343e 8a57 6f3c 4fac 353e d3c7 76bd
00000250: 596b 453c e498 66bd 5db2 b0bd 5e69 9bbd
00000260: d3c2 0e3e b6e6 3a3e acb9 6f3d 4ef5 e43d
00000270: c208 bc3d eea1 57ba 5993 1abe 986c 563d
00000280: 9cd8 95bd f963 9f3d 977b 0abe 4a76 33bc
00000290: babc a5bd 57bd 41be 4231 3cbe 887f 403e
000002a0: 6ad4 aabb a44c 39be 8761 fd3c c6bb 72bc
000002b0: 49cf 2d3e 134d 403e d4e6 56bd 07be f6bd
000002c0: 9236 eebd ae3d 56bd bb44 e6bd 5611 3d3e
000002d0: 2d10 95bd 8794 dc3d 4ed8 bc3d 4ac6 413d
000002e0: 9e71 ce3d 2d17 303e 7fea ba3d 8979 b53d
000002f0: cb61 2fbe a901 a9bc f470 9a3b a6af 273e
00000300: 6002 b33d adf9 223e 16ad 213e 0f00 c3bd
00000310: 243a ed3c 7831 473e 4c84 923d fc5d ec3d
00000320: b0ec a93d b83a 83bd 44a7 473d 036d 10be
00000330: 943f 413e 8b16 583c 641e 1f3e 7cef 12be
00000340: 4605 40be d00b ac3c 6c3d d6bc 5719 a9bd
00000350: 8255 de3d 2cf9 07be 6013 3a3e 050d 4cbe
00000360: ecb1 363d 16ce eebd f061 353d 3f29 4b3e
00000370: 7cb5 c8bc fc67 423d 6b84 a4bd b384 d6bd
00000380: 388c 32be 98a7 eb3d b491 14bb 6cc4 903d
00000390: 18c2 20be 4e06 2ebe d40f 3ebe c271 f7bd
000003a0: 7873 dabc 5f71 11bd ecd0 b73d 6fdf c8bd
000003b0: 46ab 4b3e a481 bebd aa90 44be 361e 1e3e
000003c0: 3a55 06be 1c5d 9f3c ec70 a1bc a067 2ebd
000003d0: f4ab 0a39 9b8b 4dbe f4f5 3b3e 70b1 07be
000003e0: 6ce2 fe3d de32 f7bd 30e2 4dbd f42f 9ebb
000003f0: 47c5 a4bd 171c b5bd eef0 2fbe 7890 0fbe
-0.012438236 -0.06817986 0.02127976 -0.11952117 0.08170465 0.018688712 0.102969855 -0.03579542
-0.0011531399 -0.09719775 -0.09163576 0.0034492114 0.10059166 -0.07722971 0.1569324 -0.06891617
-0.04196322 0.16113384 -0.03705035 0.111015685 -0.020098783 0.11986926 0.026548155 -0.096185885
-0.13457517 0.12112117 0.050161973 -0.031702876 -0.038998663 -0.08473114 -0.14138481 0.045283765
-0.17356232 -0.006096062 0.14436945 0.09152441 0.11455336 0.040511362 -0.11417632 0.105703935
0.15656802 0.08142694 0.14297375 -0.16481881 -0.17762236 -0.0472738 0.05803183 0.13515836
-0.0568593 -0.087290175 0.13080692 -0.0075066816 0.011842652 -0.19475794 -0.01896035 0.101358525
0.19849269 0.019746251 0.12692319 0.026237523 -0.1636549 -0.0068786535 -0.06975499 -0.029739367
-0.07873793 0.14956395 -0.16663311 -0.120363876 -0.06338212 0.17082599 -0.041770354 0.08114336
0.098398894 0.17475364 -0.04690048 0.038131595 -0.09962803 -0.015515689 -0.17835891 -0.16655326
0.055520132 -0.15644288 0.10668638 0.15086976 0.07548756 0.07861169 -0.18545707 -0.09439441
-0.14738376 -0.19355428 0.08951499 0.048374154 0.19375286 -0.055500235 -0.13515012 -0.17571467
0.01592037 -0.10851561 0.034985516 0.1353791 0.17597231 -0.033291295 -0.13273409 -0.110840686
0.12707618 0.052824482 0.012924705 -0.1983237 0.10680215 0.13357101 0.01994054 -0.035935678
-0.09686445 0.005578387 0.010584565 0.057566628 -0.0065984647 0.19476119 0.1279478 0.041526366
-0.18348634 -0.09973537 0.0799908 -0.13191722 0.05308183 0.055090055 -0.12833343 0.045611367
-0.021257019 0.14982562 -0.045631222 0.17766525 0.17517053 -0.07139989 0.038300462 -0.05483529
0.16133715 0.099847436 -0.0038364066 0.12431408 -0.1605003 -0.05422859 0.041338436 -0.19491504
0.17631601 0.014608273 0.17741512 -0.06024916 0.012049519 -0.05629815 -0.0862777 -0.075884566
0.13941507 0.18252072 0.05852668 0.11179601 0.09181358 -0.00082257285 -0.15095271 0.052349657
-0.073167056 0.0778274 -0.13523708 -0.010953495 -0.08092637 -0.18919884 -0.18378165 0.1879865
-0.00521331 -0.18095642 0.030930294 -0.0148152765 0.16973604 0.18779401 -0.05246623 -0.120479636
-0.11631502 -0.052304916 -0.11243578 0.18463644 -0.07278476 0.10770517 0.09220944 0.047308244
0.100802645 0.17196341 0.09126758 0.088610716 -0.17127149 -0.020630674 0.004713172 0.16375598
0.08740687 0.15915556 0.15788683 -0.095214956 0.028958388 0.19452465 0.0715414 0.115413636
0.08297098 -0.06407684 0.0487435 -0.14104085 0.1887191 0.013188968 0.15538937 -0.14349169
-0.18752012 0.021001726 -0.026152335 -0.08256786 0.10856153 -0.13278645 0.18171453 -0.19926842
0.044603273 -0.116604015 0.044282854 0.19839953 -0.024500601 0.04746245 -0.08033069 -0.10474529
-0.17436302 0.11506575 -0.0022669854 0.070687145 -0.15699041 -0.16994593 -0.18560725 -0.120822445
-0.026666388 -0.03550851 0.089753956 -0.098082416 0.19889554 -0.09302071 -0.1919581 0.15441212
-0.13118449 0.019453578 -0.019707166 -0.042579293 0.00013224763 -0.20072787 0.18355542 -0.13251281
0.1244553 -0.12070249 -0.050264537 -0.004827494 -0.0804544 -0.08843248 -0.17181751 -0.14019954

node_embeddings.ubicacion.bias f4 [64]
00000000: a950 2abe c082 a2bd 8201 d53d a231 e93c
00000010: 21cb dcbd 3455 d43d efbd 523e deec 503d
00000020: 6d6e 1cbe cc45 73bd 8e17 50be 2e0a 353e
00000030: 13ca 09be 8644 30bc 3057 f5bd 5c30 01bc
00000040: 8a32 15be ad5a 24be 015c 15be c114 a83d
00000050: b0f0 52be d89d 2d3e 5b27 b23d 6374 df3d
00000060: db9b 3e3e da29 6f3c 0d66 40bd 8473 3fbe
00000070: fbaf f3bd 5450 0fbe 33ff 42be c562 a3bd
00000080: 524a b3bb 2c62 14bb 5d61 f53c cbc0 10be
00000090: 5e94 f53d 00c9 43be 522b 833d e883 abbd
000000a0: 3e89 323e 7f47 e0bd ef97 433e aff4 14be
000000b0: a1d4 06be 4dd0 c2bc 47f6 0fbe a8ce ae3c
000000c0: 6b03 14be 181c a7bc ce16 eabc e72b 9abd
000000d0: 5db9 123d 5602 f6bd c083 ee3d fe30 60bd
000000e0: 2189 efbd 762a 6ebd 3ff3 9c3d d43f f7bd
000000f0: 3fe0 42be 45f9 27bd 1f1d 0ebe 2054 4d3e
-0.16632332 -0.07935095 0.10400678 0.02846605 -0.10780931 0.10367814 0.20580266 0.051007144
-0.15276499 -0.059392735 -0.20321485 0.17679664 -0.13455991 -0.010758525 -0.1197952 -0.007885065
-0.1457006 -0.16050215 -0.14585878 0.082070835 -0.20599627 0.16954744 0.08698913 0.10910871
0.18614142 0.0145973805 -0.046972323 -0.1869641 -0.118988 -0.13995486 -0.19042663 -0.07977823
-0.005471506 -0.0022641523 0.029953653 -0.14136045 0.119911894 -0.19119644 0.06404747 -0.083747685
0.17435166 -0.10951137 0.19100927 -0.14546464 -0.13167049 -0.023780966 -0.14058791 0.021338776
-0.14454429 -0.020399138 -0.028575327 -0.07527905 0.035821307 -0.12012164 0.11646223 -0.054734223
-0.11696077 -0.058145963 0.07663583 -0.12072721 -0.19030856 -0.041009206 -0.13878296 0.20051622

node_embeddings.concentrador.weight f4 [64, 15]
00000000: 54c0 c0bd d896 853d 482d f9bd e1b1 0f3c
00000010: 9698 7abd 33f5 15bd f605 5c3e 45e7 d93d
00000020: 4a81 04be 69f5 073e 3637 2abe a538 4c3e
00000030: a782 69be 60d3 80be 73e5 7f3e f18e 113e
00000040: b4be 143c 26a4 4bbe 8e6a 263e b5ad d8bd
00000050: 65b0 893d 4fc4 333d 5f1a 2b3e 6dad 83bd
00000060: f7a4 823e 5ccd 3bbe 197b f1bd 4f66 803e
00000070: d655 69be d8ef 9ebd 8038 a53d dc82 d33d
00000080: 0ceb a5bd bb75 4fbe 2ffd 5f3e f4eb 4abe
00000090: c6f4 7c3e a6b0 973c 3714 14be 6a69 133d
000000a0: 99eb febb 2f11 5cbe c848 653e 0e69 1abe
000000b0: e00d 3dbd dfa0 0dbe 4148 5b3d d4b0 2ebe
000000c0: 8d92 5f3e cb5b 89bd f3da 7b3e 6503 2ebb
000000d0: 4217 36bd 747e 70be 2bc9 283e ff6c 5fbb
000000e0: 8a22 53be 68b6 013e 914d 133d 6597 10be
000000f0: dff5 23be fe36 64bd e292 fa3d f717 9e3d
00000100: 3acc 1fbe cc00 39be d122 613e e5ad 4f3d
00000110: abf2 003e 39b8 7dbe 46cd f73d 4660 673e
00000120: 68b0 c9bb e2b8 523e 9ae2 4b3d 3417 253c
00000130: 789e b83d 2151 bfbd f2f2 debc 0255 54bd
00000140: b495 893d 8da5 d43c 5ad0 f6bd 2c92 053e
00000150: d051 14be d58b 253e 483f dd3c 94a2 8abc
00000160: 94ea 89bc 4c89 673d 1454 313c 46b4 663e
00000170: 1647 543e 6706 853e 4170 223e 4465 6f3a
00000180: 20e9 ccbd 92ba bcbd 211f 213e f43f 94bc
00000190: 5cfc 6dbe 26f9 343c 43c2 7abd 9a53 3fbe
000001a0: db86 48be bc2a c1bc dc3d bd3d f6d4 0c3e
000001b0: 2ea0 3ebe 2ebb 61be cd1a 46be 989a 4ebc
000001c0: 9dcc b1bc ceb0 f63d 54ab 58be 6de2 6d3e
000001d0: 8033 9ebd 856e 7abe b6b7 26be 7c49 803d
000001e0: 12bb 4bbd 7a6f 3f3e f1a9 63bb 0281 1e3e
000001f0: f4e5 5d3e 568c c9bd 3997 ab3c 676f c0bc
00000200: e02e f0bd ee6e 6dbe 4fad 01be a373 073e
00000210: 8cba 52bd 7d02 69be b5af 933d c0fe c13d
00000220: 9684 463d 3d41 563e 503d 4abe f35d d2bd
00000230: af90 38bc 6d75 2cbe 2c02 ad3d 121f 80bd
00000240: e200 7a3e d37d b1bd 40df 3abe 9121 4d3e
00000250: 6980 823e 9948 433e c34d 50be cbc1 02be
00000260: 9bc4 013e 3f20 743e add4 2e3e c9e7 5ebe
00000270: 863e a8bd 3d6a 1bbc 1193 013e 3473 37be
00000280: cf4a dd3d 93cf 70bd 2b3f 9f3d d4c3 28bd
00000290: 9322 7c3e ac81 debc 5c07 ccbd 48c3 2bbd
000002a0: c386 02be c0a5 5abe b3e6 2b3e 6e5b 20be
000002b0: f238 e6bd 024e 08be e080 c8ba 71ac 153e
000002c0: 2a99 8ebd f462 c53a eeb5 bbbd c6f7 4e3e
000002d0: 9cce 1bbd 06db 3c3e fa48 91bd 7c50 93bd
000002e0: dd45 11be 8274 30be 13d2 133e ac25 79be
000002f0: 6dde 4f3d a8bb 603e 2c28 43be 09b5 d93d
00000300: cbd8 873d b4c6 c83c 7a17 7b3e d8f5 34be
00000310: ed2c 1d3e 36c9 ffbd 7591 193e b63c b03c
00000320: 0277 b63c ca55 64be 7fd3 033d dd2d 43be
00000330: f2cc 5cbe 5c7b 143e 1637 df3b 8659 87bd
00000340: 6ceb 20bd c4a0 523e 7405 98bb 0e3e 29be
00000350: 8b08 823e eaed 12be 9c73 3c3e 74d2 5d3e
00000360: 893a 3f3d 243d 6ebe ae5a 9fbd 5df5 59be
00000370: 13cc 6abe 5e9d 40be 58e3 0abe ccff 73be
00000380: 0a30 11be 90e1 50be 660c 4abe 9625 30be
00000390: ca4f 7fbe 9688 b83b 5619 9a3c 7d83 44bd
000003a0: 1d8b 833e bccd 013e af5a 233e dfde 0b3e
000003b0: 4cab 0abe 8fb5 7f3d e8d0 ae3d 3595 42be
000003c0: 6e8a 683e 660c 1dbe 2778 03bd 339f 81be
000003d0: 68de 4dbe 82a1 523e 2f72 40be 5911 6c3e
000003e0: f376 0b3e 8152 733e fa12 f9bd de75 50be
000003f0: 55f2 5b3e b04e d8bd 0112 ecbc 8639 723e
-0.09411684 0.06522912 -0.1216684 0.008770437 -0.061180674 -0.036610793 0.21486649 0.10639814
-0.12939945 0.1327721 -0.16622624 0.19943483 -0.22803746 -0.25161266 0.24989872 0.14214684
0.00907867 -0.19886836 0.16251585 -0.10580007 0.06723098 0.043888386 0.16709279 -0.06429563
0.25516483 -0.18340057 -0.11791057 0.25078055 -0.2278665 -0.0776059 0.08067417 0.10327694
-0.08101472 -0.20259754 0.21873926 -0.19816571 0.24702749 0.01851685 -0.14460836 0.035989203
-0.0077795503 -0.2149093 0.22391045 -0.15079138 -0.04615581 -0.13830899 0.053535704 -0.17059642
0.21833248 -0.06706961 0.24595241 -0.0026552316 -0.044455774 -0.23485738 0.1648299 -0.0034092066
-0.20618644 0.12667239 0.035962645 -0.14120252 -0.16011761 -0.055716507 0.12235047 0.07719415
-0.1560525 -0.1806671 0.21985938 0.050702948 0.1259257 -0.24777307 0.120997 0.22595319
-0.0061550625 0.2057834 0.04977665 0.010076333 0.090146005 -0.09341646 -0.027215455 -0.051838882
0.06718007 0.025957847 -0.12051459 0.13044041 -0.14484334 0.16166623 0.027007714 -0.016923226
-0.016835488 0.05652742 0.010823268 0.22529706 0.20730242 0.25981447 0.15863134 0.0009132216
-0.100054026 -0.09215273 0.15734531 -0.018096901 -0.23240799 0.01104573 -0.06122042 -0.18684235
-0.19582693 -0.023579948 0.09240314 0.13753113 -0.18615791 -0.2204406 -0.19346161 -0.0126101
-0.021704013 0.120454416 -0.21159106 0.23230906 -0.077246666 -0.24456222 -0.16281018 0.06264016
-0.04973895 0.18694869 -0.0034738744 0.154789 0.21669751 -0.0984122 0.020946132 -0.02349062
-0.11727691 -0.23186848 -0.12663768 0.13227706 -0.051447436 -0.22754855 0.07211248 0.09472418
0.048466288 0.20923324 -0.19749951 -0.10271826 -0.011264964 -0.1684167 0.0844768 -0.06255926
0.244144 -0.08666577 -0.18249226 0.20032336 0.25488594 0.19070663 -0.20342164 -0.12769239
0.12672655 0.23840426 0.17073317 -0.21768107 -0.082150504 -0.009485778 0.12653758 -0.1791504
0.10805284 -0.05879171 0.0777572 -0.04120238 0.24622564 -0.027161442 -0.09962341 -0.04193428
-0.1274672 -0.21352291 0.16787224 -0.15659878 -0.1124133 -0.13311008 -0.0015297197 0.14616562
-0.069628075 0.0015059398 -0.0916556 0.20211706 -0.038038835 0.18442926 -0.07093997 -0.071930856
-0.14186807 -0.17231944 0.14435606 -0.24330777 0.05074923 0.21946585 -0.19058293 0.10630233
0.06633147 0.024508812 0.24520674 -0.17671907 0.15349169 -0.1248955 0.14996894 0.021513324
0.022273544 -0.22298351 0.03218412 -0.19060464 -0.21562555 0.14500183 0.0068119867 -0.06608872
-0.039287016 0.2056914 -0.004639322 -0.16527578 0.25397143 -0.1434857 0.18403476 0.21662313
0.046686683 -0.23265511 -0.07780968 -0.21285005 -0.2292941 -0.18810031 -0.13563287 -0.23828048
-0.14178482 -0.20398545 -0.19731292 -0.17201838 -0.24932781 0.0056315167 0.01881091 -0.04797696
0.25692073 0.12676138 0.15952562 0.13659237 -0.13541907 0.062429007 0.085359395 -0.1900223
0.22709057 -0.15336761 -0.032097008 -0.25316772 -0.20104373 0.20569423 -0.18793558 0.23053493
0.13619594 0.23761941 -0.121618226 -0.20357463 0.21479161 -0.105618834 -0.028817179 0.23654756

node_embeddings.concentrador.bias f4 [64]
00000000: 58ab 60be 3c5b f6bc acf2 afbd 4bed 1bbd
00000010: 0b95 393e b169 30be 6b38 08be 7e80 dbbd
00000020: ccf9 8f3c 9423 10be e573 673d 69f0 5ebe
00000030: a007 03be 46e2 1f3e 8f1a 363e 10b1 a4bd
00000040: 7e8b 5d3c bd36 65bc 92a6 39be 7a9e 68bd
00000050: 5592 1e3e d194 123c cdf8 803e ca87 56be
00000060: 435f 3cbe cb6c 65be dd62 26be 8895 503d
00000070: 661c 2f3e 5c8b 55be bcfc 48be a355 c2bd
00000080: a11e 1c3e 9e4f 083e d134 d7bc 821c 743e
00000090: 3297 b73d 3dc9 783e 6519 2f3a 08c2 1fbe
000000a0: 4c1d af3b 0881 ad3d 7869 d23d 3cf4 163b
000000b0: 5a06 033c f94c 323d 2514 66bd 8e48 7b3d
000000c0: e05f 23be e256 51bd f517 0e3e 58bb a03d
000000d0: 1ae5 153e 5286 2ebe c1f4 a4bd 1c90 06be
000000e0: c345 52be 8fff d1bd 706a 81bc f1e9 8ebc
000000f0: 0889 43bc 8c92 27be c5b2 8fbc fc36 8c3d
-0.21940362 -0.0300728 -0.08591208 -0.038068097 0.18123262 -0.17227818 -0.13302772 -0.10717867
0.017575167 -0.14076072 0.05650701 -0.21771397 -0.12795877 0.1561366 0.17783569 -0.080415845
0.013522027 -0.013990101 -0.18129948 -0.05679176 0.15485509 0.008946613 0.2518982 -0.20950237
-0.18395714 -0.22404782 -0.16248651 0.050923854 0.17100677 -0.20853943 -0.1962766 -0.0948899
0.15246059 0.13311622 -0.026270302 0.23839 0.08964385 0.24295516 0.00066795043 -0.15601361
0.0053440686 0.084718764 0.10274023 0.0023033759 0.00799712 0.043530438 -0.056171555 0.06134849
-0.15954542 -0.05110825 0.13876326 0.07848233 0.14638177 -0.17043427 -0.080544956 -0.13140911
-0.20534424 -0.10253822 -0.015797824 -0.017445536 -0.011934526 -0.16364497 -0.017541299 0.06846425

node_embeddings.expediente_fraude.weight f4 [64, 55]
00000000: a455 c63d 5611 a73d a3c8 e6bd 38ee afbd
00000010: 60d4 d93d 0475 bb3d 7a4a 993d 7c6d 8ebd
00000020: 1ce2 e83d 2325 06be fb9d dbbd b0b9 453c
00000030: 1a6f 803d 4425 02be 309a a23c 40fc 04bb
00000040: 2c67 91bc 404c d8bd 5562 84bd 6069 cf3b
00000050: 8017 043d 7233 ad3d dca9 43bd e3b1 023e
00000060: 8cf5 4f3d fe9e bbbd d276 09be eaaa b93d
00000070: a0f6 263c 08ba 5dbc 66d7 36bd d4d4 813d
00000080: 60be 46bd c109 cabd a6c7 bf3d 4ecc 6cbd
00000090: 8401 9f3d d6e7 bdbd 480f debc 1653 97bd
000000a0: 2011 bc3b 14a3 82bc 40c6 243d 8b32 d6bd
000000b0: 6590 f3bd 969f db3d a471 d3bd 283c 3a3d
000000c0: 5bd5 efbd 3841 d73c 4005 3cbb 1acc 87bd
000000d0: 40f8 35bb a89e 873c 004a 773b 06eb d03d
000000e0: c62d 9ebd e018 7a3d 7256 fe3d 1c5a c6bd
000000f0: ea4b d8bd 68aa 3a3d d810 44bd 804b 47bb
00000100: 04cd 00be aeae a83d f0db 11bc 70d2 073c
00000110: 88fc 3fbd 7cba 3f3d 80ea 10bb 7c1d 5cbd
00000120: 8832 093d 7012 4dbd d8f8 4c3d 0e3f 04be
00000130: 1eb4 55bd 5636 bdbd 64fa 6a3d 12eb c1bd
00000140: 0cf7 d53d e07a 063d 543f a93d 7623 b4bd
00000150: f253 e0bd b444 b5bc 0ebc 97bd 4413 3bbd
00000160: 82ff e23d 3699 933d e02e 23bd a6b0 a73d
00000170: 9ef8 b8bd 1878 a0bd 7ca3 743d 3472 6e3d
00000180: 64b1 1fbd 1e73 bcbd c0a6 ac3c 1b33 053e
00000190: 45e5 073e 228e e23d 8016 cfbd a40e b73d
000001a0: 5049 ca3c 7724 e0bd d0e3 0d3c ce57 05be
000001b0: f821 ed3c 38d9 97bd 18ce b9bd a0fe d63b
000001c0: a041 ba3d 2800 9b3d bee4 aabd 7c13 9d3d
000001d0: ac7f 4d3d a959 b8bd 5275 0ebd 525a 04bd
000001e0: 9e73 e0bd dcfb fbbd 6c86 bbbd aa0b fb3d
000001f0: c0bf 12bd b010 543c 9450 e5bd ec00 bebc
00000200: 40aa 503d 8013 33bb 209c 2dbc 806b ebba
00000210: 18ae b93d 1f8a c2bd cffd f7bd b7fe 04be
00000220: b893 603d 16d4 99bd 508f 71bd 601a 92bc
00000230: aae4 a13d 809b 993a e836 d83c ba23 1bbd
00000240: d24a 963d 16c4 89bd 80dd d43d ae4f e33d
00000250: ea69 f8bd 80e1 2ebd 2c1b 85bc 82b3 94bd
00000260: 003e ed3b ca46 35bd d09e e43d 88c7 2ebc
00000270: e75d 9abd 7d20 89bd 4f0b 01be 62b9 a9bd
00000280: 2876 d63c 40d5 263d 940a 6ebd 80d2 b33a
00000290: 828f 8a3d e002 923c 10e2 783c c428 b5bd
000002a0: b7d0 013e ce0d 23bd f03f 363c 3c08 88bc
000002b0: 3cf2 6f3d 6abc e4bd c861 fb3c c859 d6bd
000002c0: 78f8 d93d b0b3 59bd 007f e13c 2033 123c
000002d0: 6a86 5bbd 186c 93bc 8f56 033e d7a1 8bbd
000002e0: ac90 0fbd 3407 b63d f21f a23d 88ce 183d
000002f0: 9ea4 f1bd d42d b2bc 6e0c 08be fd79 88bd
00000300: 902d 6cbc 02c1 50bd 60bc 623d 8033 b13a
00000310: 3863 d93c f8e8 213d 0057 053d 635e 07be
00000320: 7806 df3c 4a39 e33d 286c 3a3d fa3c c63d
00000330: 2286 95bd be32 0cbd 3ef4 fbbd 3e34 fcbd
00000340: 6a2f d0bd 1a1f 8d3d 716c a2bd 1065 393d
00000350: aa40 bf3d 3442 453d 847e 67bd 786a b03d
00000360: 948e 4a3d b083 fa3c 248e 0abd 4e61 db3d
00000370: a275 853d b428 c2bc 0cb7 7e3d 4b05 b8bd
00000380: e04d 3fbc 3044 e5bd 8c6e f6bd 1ef0 e03d
00000390: 36cb 923d 4473 3bbd ccde 99bd 0cf0 53bd
000003a0: e641 03bd 90eb bbbc 1677 ec3d f32a 043e
000003b0: b432 903d 397e 9abd cab7 42bd d0bf 893c
000003c0: a079 a4bd 860c f73d 6aae a3bd 4a9b ff3d
000003d0: 00ce 1aba ca33 fa3d f67b b43d f099 463c
000003e0: b187 073e a002 413c b8ff 533d a870 0ebd
000003f0: cf2d f3bd a248 a9bd 6446 debd 6a2b bd3d
0.096843034 0.081576034 -0.11268737 -0.085903585 0.106362104 0.09153178 0.074849084 -0.06954476
0.11371252 -0.13100104 -0.10723492 0.012068197 0.06271191 -0.12709528 0.019848913 -0.0020291954
-0.017749391 -0.105614185 -0.06464068 0.0063297004 0.032248974 0.08457078 -0.047769412 0.12763171
0.05077128 -0.09161185 -0.13424233 0.090658024 0.010190636 -0.013533123 -0.044639014 0.06339422
-0.0485214 -0.09865142 0.09364252 -0.057812028 0.07763961 -0.09272735 -0.027106896 -0.07388894
0.005739346 -0.015946902 0.04022813 -0.10458859 -0.118927754 0.10723798 -0.103244096 0.045467526
-0.11710616 0.026276216 -0.0028689653 -0.06630726 -0.0027766377 0.016555145 0.0037733316 0.10201077
-0.07723574 0.06105888 0.12418832 -0.09685156 -0.105613545 0.04557267 -0.047867626 -0.0030409992
-0.12578207 0.082364425 -0.008902535 0.008289918 -0.046871692 0.046808705 -0.002211243 -0.053739056
0.033495456 -0.05006641 0.050042003 -0.12914678 -0.052173726 -0.092388794 0.057367697 -0.09468664
0.10447511 0.032832026 0.08264032 -0.08795826 -0.10953511 -0.022127487 -0.074089155 -0.04567267
0.110838905 0.07206957 -0.039839625 0.0818799 -0.09031795 -0.07835406 0.059726223 0.05821438
-0.038987532 -0.09201644 0.021075606 0.13007776 0.13271053 0.11062266 -0.101117134 0.08938339
0.024693161 -0.10944455 0.008660272 -0.13021776 0.028946862 -0.07414478 -0.090725124 0.0065611154
0.09094548 0.07568389 -0.0834441 0.07669732 0.050170586 -0.09001476 -0.034779854 -0.0323127
-0.10959552 -0.12303898 -0.09156498 0.12258084 -0.0358274 0.012943432 -0.1119701 -0.023193799
0.050943613 -0.0027324855 -0.010596305 -0.0017961115 0.09066409 -0.09499001 -0.12108957 -0.12987791
0.054828376 -0.07511155 -0.058974564 -0.017834842 0.07904942 0.0011719316 0.026393369 -0.03787587
0.073384896 -0.067268535 0.1039381 0.11099182 -0.121295765 -0.042695522 -0.016248308 -0.07260801
0.007240057 -0.044256963 0.111631036 -0.010667689 -0.07537442 -0.0669565 -0.1260197 -0.08287312
0.026179388 0.040730715 -0.058115557 0.001371935 0.06765653 0.017823637 0.015190616 -0.08845666
0.12677275 -0.039808087 0.011123642 -0.016605489 0.058580622 -0.1116875 0.030686274 -0.10466343
0.10643095 -0.05314988 0.027526379 0.008923322 -0.053594984 -0.017995879 0.12825988 -0.06817978
-0.03505008 0.08888093 0.07916249 0.03730634 -0.11798976 -0.021750368 -0.13285992 -0.066638924
-0.01441516 -0.050965317 0.05535543 0.0013519377 0.026536569 0.039528817 0.032553673 -0.132196
0.027224764 0.110949114 0.045513302 0.09679599 -0.073009744 -0.03422808 -0.12302445 -0.12314652
-0.101652935 0.06890698 -0.0793084 0.045262396 0.093385056 0.04815884 -0.05651714 0.08614057
0.04945238 0.030580372 -0.033826962 0.10711919 0.06516577 -0.02370105 0.062186286 -0.089853846
-0.011676282 -0.11194646 -0.12032804 0.10983299 0.07167666 -0.045764223 -0.07513198 -0.0517426
-0.032045268 -0.022939473 0.11546151 0.12907009 0.07040921 -0.07543606 -0.047538556 0.016815096
-0.08031011 0.120629355 -0.07992251 0.12480791 -0.000590533 0.12216909 0.08812706 0.0121216625
0.13235356 0.011780411 0.051757544 -0.034775406 -0.11873972 -0.08265807 -0.1085327 0.09236796

node_embeddings.expediente_fraude.bias f4 [64]
00000000: 7e8e 48bd f4a7 98bd ac9e 38bd 80c1 0e3c
00000010: ba34 a13d 1240 0dbd b282 babd 50b3 b23c
00000020: 6aef 04be 94f7 dbbd c89c ed3c 66cc f53d
00000030: e298 9fbd de87 9c3d 46f3 abbd 38aa 3dbd
00000040: 7bf1 083e 08f4 153d d61f 69bd f8a5 78bd
00000050: 98ea f23c 0ca5 ab3d e6a2 cf3d 603a 223c
00000060: 005f 8bbd 26ac 893d 9a37 e7bd 00d1 8dbb
00000070: 067c febd 04df e7bc 001b 51ba f429 e23d
00000080: 28f8 fc3c b365 babd 388b 7d3d 0033 683b
00000090: 94a6 afbd 9b95 e9bd c842 e43c 94ad 9ebd
000000a0: de69 53bd 9b7d 8dbd 14a7 cdbd f2af b2bd
000000b0: 782f a4bc c034 59bb 8c71 ba3d dea2 e2bd
000000c0: c251 ec3d b200 ff3d b983 05be 9ad2 b13d
000000d0: 847c e13d 4424 d2bd 444b 8f3d 4425 6b3d
000000e0: 2ea5 903d 7e26 3ebd bed4 8fbd 007c 60ba
000000f0: 1e27 29bd e455 753d e2a6 cdbd b03e ea3d
-0.048964016 -0.074539095 -0.045073196 0.008713126 0.07871385 -0.03448493 -0.091069594 0.021814018
-0.12981954 -0.10740581 0.029005423 0.120018765 -0.07792832 0.07643102 -0.0839601 -0.04630491
0.13373367 0.03660968 -0.056915127 -0.060705155 0.029652879 0.083810896 0.10138492 0.009901613
-0.06805229 0.06722288 -0.11289902 -0.0043278933 -0.12425999 -0.028304584 -0.00079767406 0.11043158
0.030880049 -0.09101429 0.061900347 0.003543079 -0.08576694 -0.11405488 0.027863875 -0.07747951
-0.051614635 -0.06908723 -0.10041633 -0.08724965 -0.020042166 -0.0033143014 0.091036886 -0.11066221
0.115390316 0.124513045 -0.1303853 0.08682747 0.110100776 -0.10260823 0.06996778 0.057408586
0.070627555 -0.046423428 -0.07022999 -0.00085633993 -0.04129707 0.059896365 -0.10041596 0.11437738
