models/best_hetero_fraud_model.pth (torch, 956355 bytes, 172 tensors)

info_attention f4 [5]
000000 6c 63 fc 3e 07 75 f7 3c 9a 7a 1e 3f 98 af 3d 3f
       0.49294603 0.03020717 0.61905825 0.7409606
000010 88 d6 2f 3f
       0.68686724

node_embeddings.contador.weight f4 [64, 64]
000000 1c 91 a3 3d 0c b8 56 bb b8 f5 80 3d da d3 f3 3d
       0.07986662 -0.003276351 0.06296867 0.11905642
000010 05 d8 36 bd 83 55 fa bd ad f6 f1 3d 8b c3 8d bd
       -0.044639606 -0.12223341 0.11814628 -0.069220625
000020 a8 fb f1 3c 9e 71 9f 3d 85 b5 98 bc d0 13 ca 3d
       0.029538944 0.07785343 -0.018641243 0.0986706
000030 9d 74 a6 3d 8d 43 d1 bc 86 e7 07 3d 3f a0 2a 3c
       0.08127711 -0.025544906 0.033179782 0.010414182
000040 f9 bc f9 3d 7c 33 af 3d 9c 86 ac bd 55 9d 3d 3c
       0.12194247 0.08554742 -0.08424112 0.011573155
000050 2b 88 8a 3d 9a 3e c5 3d 3a c6 2e 3d e7 76 57 3d
       0.06764253 0.09631081 0.042669512 0.05260363
000060 76 58 be bc ae f6 3d 3b 48 40 af bd ec b6 d0 3d
       -0.02323554 0.0028986144 -0.085571826 0.101911396
000070 3e 8c c7 3d ed ea 8a bd 91 25 dd bd ee df c8 3d
       0.09743546 -0.0678309 -0.10798181 0.09808336
000080 b8 ee e4 bd 01 d0 a3 3d c9 67 f7 bd 3b cf 84 bd
       -0.111783445 0.07998658 -0.12080342 -0.064848386
000090 0d af 54 bd 27 9f f2 3d 8b 37 aa bc b0 d5 dc 3d
       -0.051924754 0.11846762 -0.020778438 0.10782945
0000a0 22 b8 10 3d aa 6d f6 3d d3 ac a7 3d 75 22 be 3d
       0.035331853 0.120326355 0.081872605 0.09283916
0000b0 73 15 e0 3d 20 5b 1b bd 3e 4f 10 bd 5e bb 23 3d
       0.10941591 -0.0379287 -0.03523182 0.03997361
0000c0 4e 81 e3 3d c8 61 40 bd 09 6a cb bd 94 49 c6 bd
       0.11108647 -0.04696825 -0.09932334 -0.09682003
0000d0 d7 f7 6b bd 1f d1 9e 3c 96 ec 5c bc 4f 80 0c bd
       -0.057609405 0.019386826 -0.013484141 -0.034302052
0000e0 dd 6d 73 bd 85 0a 02 3d 1e df d2 bd cc db fb 3d
       -0.059430946 0.031748313 -0.102964625 0.12297782
0000f0 ce 95 9e bc e6 10 bf 3c 16 aa 28 3d 68 2d 4b bd
       -0.019358542 0.023323487 0.04117783 -0.04960385
000100 ff 07 c9 3d a6 e9 a1 ba 37 b1 18 3c c2 29 f5 bd
       0.09815978 -0.0012352958 0.009319595 -0.11970855
000110 0a b2 6e 3c e7 8c 33 3d d8 c1 95 3c 52 59 3c bc
       0.014568815 0.043835547 0.018280908 -0.011495905
000120 a5 92 bf 3d 54 7d c8 3d 81 39 ae 3d 15 ca aa bc
       0.09354142 0.097895294 0.08507062 -0.020848313
000130 60 09 a9 3c 4d b5 b3 bd 34 ae be bd 7f aa ba bc
       0.020634353 -0.08774815 -0.0931057 -0.022786377
000140 e8 0f 5b 3c 90 fd 95 bd fb ae d6 bd 31 8c 6c 3d
       0.013370492 -0.07323754 -0.104825936 0.057750884
000150 85 8b 39 3d fa 20 a7 bd cf d3 aa 3d 65 f8 bf bd
       0.04529907 -0.08160587 0.083411805 -0.09373549
000160 d8 ac bf 3d 5f 3d 86 3d 42 e3 30 bd 2e d8 f2 3d
       0.09359139 0.06554674 -0.04318548 0.11857639
000170 87 b5 91 bd 7f 0d 66 bd 00 b2 ca 3d 80 b8 07 bd
       -0.07114702 -0.056165215 0.09897232 -0.033134937
000180 17 9a 50 bd 90 74 9c 3c 12 b0 b4 bc fb 9c a1 3d
       -0.0509282 0.01909855 -0.022056613 0.0789127
000190 43 ef d2 3d 71 6d 65 3d 16 ff d7 3c 42 b7 fe 3c
       0.10299542 0.056012575 0.026366752 0.031093244
0001a0 47 38 35 3b 46 72 6b 3c 5d c6 b4 3a a6 35 b0 3d
       0.0027651952 0.014370507 0.0013792027 0.086039826
0001b0 0c 44 8e 3d d9 cd 3d bc 72 ca 42 3d b5 f1 c1 3b
       0.06946573 -0.011584722 0.04755635 0.0059187063
0001c0 88 07 31 3d b9 2c d0 3d 2d 25 ac bd 04 3e 99 3c
       0.043220073 0.1016478 -0.08405528 0.01870633
0001d0 86 6d d8 bc a5 ff fb bd ba 6c f9 bd 58 46 82 bc
       -0.026419412 -0.1230462 -0.12178941 -0.015902683
0001e0 9e 57 b6 3d fc d8 aa bd 02 c7 26 3d b0 8b 93 3d
       0.089034304 -0.08342168 0.040717132 0.07204378
0001f0 e6 97 ba bd da e2 5b 3d 6e 43 c1 3c 30 1d eb bd
       -0.091110036 0.05368314 0.023591723 -0.114801764
000200 f8 5e 5a bb ee 80 f1 bd ee f1 dd 3d fc 92 70 3d
       -0.0033320766 -0.117921695 0.1083716 0.058733925
000210 16 58 40 3d 49 6c c5 3d e6 a7 c3 3d 6b 39 fc 3d
       0.046959005 0.096397944 0.095535085 0.12315639
000220 89 4c 54 3d 78 69 b8 bd ed 04 ef 3d 65 2b 12 3d
       0.051830802 -0.090044916 0.116708614 0.035685915
000230 45 e9 4d bd 61 4c 3c bd 43 8d f1 3d ee 8a dc 3c
       -0.05027129 -0.045971278 0.11794522 0.026921716
000240 a0 09 b8 3d 2b c5 0f 3c e0 92 ea 3d 17 e1 bc bd
       0.08986211 0.008775036 0.114537954 -0.0922262
000250 59 c7 f2 3c f0 87 f1 3c a9 69 8a ba 13 df e2 3d
       0.029636072 0.029483765 -0.0010560054 0.11077704
000260 75 de c5 3c 2e fb fc 3b de fe ac 3d 51 a2 31 bc
       0.024153927 0.0077203726 0.084470496 -0.010841922
000270 16 b7 ea bb eb 80 d2 bd a6 5a 3d 39 09 14 73 bd
       -0.007162939 -0.102784954 0.00018058214 -0.05934528
000280 83 34 92 3d c6 8b e0 3d e0 b4 f0 bd 59 5f 93 bd
       0.07138922 0.1096416 -0.11753249 -0.071959205
000290 07 6d f4 3d 70 bf 5d bd d7 04 e5 3d 36 e1 fa 3d
       0.11934858 -0.054137647 0.11182564 0.12249987
0002a0 0d 35 04 bd 66 de cf bd ff 56 80 3d 69 ea 64 3d
       -0.032277156 -0.10149841 0.06266593 0.055887613
0002b0 00 4d df 3d cb 7c 8c 3c 94 84 8c 3d 76 8c dd bd
       0.109033585 0.01714935 0.06861225 -0.108178064
0002c0 00 d2 94 3c da db ea 3c 97 66 a2 3d 14 39 87 bd
       0.018166542 0.028669287 0.07929724 -0.06602684
0002d0 9c 1a 66 bc 52 d4 99 bd e0 aa ad bd 0d 59 58 3d
       -0.01404443 -0.075112 -0.084798574 0.0528193
0002e0 75 2c 94 3c e1 3b 4d 3d 7e 8a 3a bb 3e 3e 49 bb
       0.018087605 0.050105933 -0.0028463895 -0.0030707265
0002f0 de 45 9d bb 14 48 8a 3d 12 23 b1 bd a0 70 d5 3c
       -0.0047995886 0.06752029 -0.08649267 0.02605468
000300 98 5f 8c 3d 40 7a 94 3d ba b2 75 bd ec 3d c6 3d
       0.068541706 0.0724988 -0.0599849 0.096797794
000310 3c 9d aa bd fa 7c 85 3d 92 68 d1 3d fe 6c 83 3b
       -0.08330771 0.06517978 0.10225023 0.0040107956
000320 2a db 1c 3d 9e 83 f2 bd c6 86 4a bd 1e 29 49 bd
       0.03829495 -0.1184151 -0.049444936 -0.049111478
000330 42 58 ee bd 7e d8 d8 bc f0 b7 b2 3d 3e 8a 43 bc
       -0.116379276 -0.026470419 0.087264895 -0.011934815
000340 30 f9 fc 3d dc 71 e6 bd 7a 31 4c 3d a8 5d dd 3d
       0.12352216 -0.11252186 0.049851872 0.10808879
000350 48 d2 f8 3d be 9c 46 bd 52 25 e7 bd a2 2e 3c bd
       0.12149483 -0.048489325 -0.11286415 -0.04594291
000360 60 c6 bd 3d 6e 70 33 3c 4e af f4 3d f4 ec ba bd
       0.09266353 0.010952098 0.11947499 -0.091272265
000370 76 4d a0 bd 54 77 82 3d de 8d 2f 3d 80 51 a6 bd
       -0.078272745 0.06370416 0.042859904 -0.08121014
000380 36 29 ee 3d 92 75 45 bd ea c2 d4 bd de 49 0e 3d
       0.11628954 -0.048207827 -0.103887394 0.034738414
000390 7e 6b 8f bd 56 a6 73 bd da 02 8f bd 1e 42 0b 3d
       -0.070029244 -0.059484802 -0.06982966 0.0339986
0003a0 66 de 6f 3d 40 2d ac 3d a8 dc 90 bd e6 51 ef bc
       0.058561705 0.08407068 -0.07073337 -0.029213857
0003b0 c4 f4 ee 3d 5c 81 83 bd c6 11 39 bd 6e e6 c4 bc
       0.11667779 -0.06421158 -0.045182966 -0.024035659
0003c0 e6 ae e2 bd 5a 37 bd bd 5e 11 e4 3d 26 06 bd 3c
       -0.110685155 -0.09239073 0.11136125 0.02307422
0003d0 76 53 bf 3c da f8 4a 3d 94 af 9b 3d 62 f5 ab 3d
       0.023355227 0.04955373 0.07601848 0.083964124
0003e0 46 5b b7 3d 3e a6 4e 3d 70 fd c0 3d aa 43 a7 3d
       0.08952956 0.05045151 0.09423339 0.08167203
0003f0 36 39 ab bc be 79 38 3c be 18 86 bd 88 a1 c0 bd
       -0.020901304 0.011259494 -0.06547688 -0.0940581

node_embeddings.contador.bias f4 [64]
000000 8f 1f 93 3d 34 01 d1 bd 83 95 af bd e2 be 9d bd
       0.07183754 -0.102053076 -0.08573439 -0.07702424
000010 76 86 06 bd de 5d 48 3d 1e 07 b9 3d ca 84 fc 3d
       -0.032843076 0.048917644 0.090345606 0.12330015
000020 41 0e ef bc 52 53 e8 3c 2e 31 10 3c 6d e7 8b 3d
       -0.029181601 0.028360043 0.008800788 0.0683125
000030 96 43 74 3d c8 29 96 3d 0f 16 b0 3d ec 11 d7 3d
       0.059634767 0.07332188 0.08597957 0.10501465
000040 a4 55 b2 3b 04 36 b3 3d a5 6d 90 bd 54 19 cf bc
       0.005442338 0.08750537 -0.07052163 -0.025280632
000050 67 8f 0d bd 0e 4d 19 bd cd fc ea 3b 2e db f0 bd
       -0.034560587 -0.037427 0.0071712495 -0.11760555
000060 56 0d 8f bd de fb 3f bc 9b 2d d3 3c 63 7d b3 3d
       -0.069849655 -0.011717765 0.025778582 0.0876415
000070 2c 2c b0 bd 9e c6 00 3d b7 60 68 3d 44 98 88 bd
       -0.08602175 0.031439416 0.05673286 -0.06669667
000080 9e 23 ae 3c ea 2d 86 bd 7e 64 2e bb 36 ac 8c bd
       0.021257218 -0.06551726 -0.002661019 -0.06868784
000090 93 a9 12 bd 5a 8b 4a bd 63 80 df 3d 16 25 f7 3c
       -0.03580625 -0.049449302 0.1091316 0.030169051
0000a0 63 66 f6 bd 3f a6 87 3c 14 9a 8b 3d 6e f7 5e bd
       -0.120312475 0.016558765 0.068164974 -0.054435186
0000b0 6c 17 99 bd 26 10 c9 bc 10 20 e2 bd de 7e 3e bd
       -0.074751705 -0.024543833 -0.11041272 -0.04650771
0000c0 74 dd 6c 3c 72 fe be bd fc 26 f3 bd 14 32 98 bd
       0.014457095 -0.09325875 -0.1187267 -0.07431427
0000d0 90 01 bb bd 2f 54 55 3b 21 c6 3a 3d 9e cd a2 3d
       -0.091311574 0.0032551398 0.045599107 0.079493746
0000e0 4c ce ff 3d c6 47 84 3d 66 28 67 bd 5e 05 88 bc
       0.1249052 0.06459002 -0.05643501 -0.016604122
0000f0 d2 76 83 bd 3c be 9b 3d 32 b3 2a 3d 62 ff 6b 3d
       -0.064191476 0.07604644 0.0416748 0.0576166

node_embeddings.suministro.weight f4 [64, 47]
000000 24 38 ca bd 95 cc ea 3d 4c 51 04 be 73 14 97 3d
       -0.09873989 0.11464802 -0.12921637 0.07376947
000010 0c 7b 01 be 9c c2 e3 3d b8 6f af bd 67 ba e6 bd
       -0.12644595 0.11121103 -0.085662305 -0.11266022
000020 31 90 96 3d cb 5f 05 3e 05 73 1e bc 4d 03 7a 3d
       0.07351721 0.13024823 -0.0096709775 0.061038304
000030 cd a3 07 3e 12 a3 f4 bd 02 88 76 3d 37 c9 05 3d
       0.13246079 -0.11945166 0.0601883 0.032662597
000040 5b 8f a8 bd 7a e8 b0 3d fb 5f 04 3e 73 80 e7 3d
       -0.08230468 0.086380914 0.12927239 0.113037966
000050 e2 fb d4 bd 03 e7 04 3e ab 68 f9 3d a8 74 5f 3d
       -0.10399605 0.12978749 0.12178167 0.05455461
000060 90 73 a9 bc 57 7f e7 3d 56 e0 c2 bd 27 c9 b3 bd
       -0.020684987 0.11303585 -0.09515445 -0.08778601
000070 31 4f a6 3d e4 79 c8 3d ac 9e 7f bc 8f be 08 3e
       0.08120573 0.09788874 -0.015601795 0.13353942
000080 37 8b 9e 3d db 0e 94 3d b3 29 f4 3d 56 2a 12 3e
       0.07741397 0.07229396 0.11922016 0.14273962
000090 e6 89 d2 3d aa bb f1 3d 83 d7 70 3c 52 a0 e9 3d
       0.10280208 0.11803372 0.0146998195 0.11407532
0000a0 dc 7d a2 3d 30 24 92 bd de 06 a5 3d bd 9b 23 3c
       0.07934162 -0.071358085 0.080579504 0.009985861
0000b0 cf 7b 4d bd ad 0e df 3d 5c 43 20 3d 77 32 e7 3d
       -0.0501669 0.10891471 0.03912674 0.11288922
0000c0 46 c1 fb 3c f0 51 35 3d 5f dd b2 3d 61 bb 12 bd
       0.030731808 0.044267595 0.087336294 -0.03582323
0000d0 c7 7e ba 3d 56 6d 9b bd c1 be a2 bc 24 12 59 3c
       0.09106212 -0.075892136 -0.01986635 0.013248954
0000e0 39 9a cc 3d 6c c3 84 3d 52 5c 10 3e 92 e3 9e bd
       0.09990353 0.06482586 0.14097717 -0.07758249
0000f0 c0 18 47 bc fc 13 37 bc 2e 32 f2 3d b2 be 0d 3e
       -0.012151897 -0.011174198 0.11825977 0.13842276
000100 f9 ba 18 3d 56 2c f1 bd e7 0f da bd 39 ad d3 3c
       0.037287686 -0.117760345 -0.106475644 0.025839435
000110 a7 e5 02 be a4 eb 52 bd 8d f4 e1 bd a8 a6 9a 3d
       -0.12782918 -0.051494256 -0.110329725 0.075513184
000120 1f df ab bc 3b ec e8 bd 7b f0 c3 3d 40 b6 03 be
       -0.020980416 -0.113731824 0.095673524 -0.12862492
000130 b5 cb 76 bc eb 93 0f 3e c1 86 96 3d 1f 6c 02 be
       -0.015063216 0.1402127 0.07349921 -0.12736557
000140 03 ad 71 3c 00 6a aa bc 86 1d 83 3d 85 e9 0a 3e
       0.014750722 -0.020802498 0.064021155 0.13565643
000150 eb b9 ff 3d b7 e2 6f bc 2f ab 87 3d b3 8a 13 be
       0.12486633 -0.014641455 0.066244476 -0.14408378
000160 70 38 ec 3d c9 82 a0 3d 1c 9a d1 bd f8 a6 30 bd
       0.11534202 0.07837445 -0.10234472 -0.043127984
000170 0e 4c 65 bd 5c a5 ad bd 77 98 78 3d 27 83 31 bd
       -0.055980735 -0.084788054 0.060692277 -0.043337967
000180 da 02 7c 3d a9 b8 38 bd 5a 1c e7 3d f9 8b 6e bd
       0.061526157 -0.04509798 0.112847045 -0.058238957
000190 52 55 d6 bc cd 1a 3d bd 9c 6d f8 3b 3c 7e 5e bd
       -0.02616373 -0.046168137 0.007581426 -0.054319605
0001a0 3d ca cf bd 75 fd 0c be 19 d8 bb 3d ee cc a5 3c
       -0.10145996 -0.13768561 0.09172077 0.02023932
0001b0 ec d0 c1 bd 68 c8 9a 3d 49 b0 6f 3c e2 49 55 bd
       -0.09463677 0.07557756 0.014629432 -0.052072413
0001c0 e2 50 0d bc 3d a9 89 3c 66 83 d4 3d a9 49 08 be
       -0.008625241 0.016804332 0.10376625 -0.13309349
0001d0 5e dc e7 bd 7b db f2 bd 26 aa e8 bd 27 15 63 39
       -0.113213286 -0.11858269 -0.11360578 0.00021656287
0001e0 30 bd a7 3d f9 f3 1f 3d ff a5 7a 3d ee c3 8f 3c
       0.081903815 0.03905103 0.061193462 0.017549481
0001f0 7e 2f 36 bb be 79 07 be 13 b7 04 3e 92 55 11 3e
       -0.0027799304 -0.13230035 0.12960462 0.14192799
000200 67 01 ee ba b8 30 df 3c 5c 74 d5 3c ac f9 12 3e
       -0.0018158377 0.02724491 0.026056461 0.14353055
000210 96 63 e1 39 24 3b c8 bc ec d1 a0 bd c7 91 1b 3d
       0.00042989542 -0.024442263 -0.078525394 0.03798082
000220 1a b2 8b 3d 1e 80 fd bd 77 49 50 3d 59 3a 19 3d
       0.068210796 -0.12377952 0.05085131 0.03740916
000230 4f 8c 86 3d e1 87 8d 3d e5 30 1f bd 05 ff a6 3c
       0.065697305 0.069106825 -0.03886499 0.020385275
000240 57 78 cf bd e5 e4 b2 3d fa fd fa bd e9 f6 03 be
       -0.10130375 0.087350644 -0.122554734 -0.12887157
000250 47 06 df bd ac 93 a7 bd 21 19 ae 3b d4 b7 c5 3d
       -0.10889869 -0.08182463 0.005313054 0.09654203
000260 8e 1c a0 bc 7b f4 d5 3d b0 d1 bc bc 8a 6a fe 3d
       -0.019544866 0.104470216 -0.023049206 0.124226645
000270 1f c9 cf 3d b9 fa bb 3d 8b d6 6f 3d af 7a c7 bd
       0.10145783 0.09178681 0.058554213 -0.09740197
000280 c6 9e 11 3e f2 2b 0d be f6 c3 d2 bd 0a eb b2 bd
       0.14220724 -0.13786295 -0.10291283 -0.087362364
000290 b5 b8 1a bd 7e 3a 83 3d 18 88 f4 3c 42 30 ff bd
       -0.037773807 0.06407641 0.02985005 -0.12460376
0002a0 94 4a 0f 3e dc 17 0d 3e a6 ed 94 3d 8e 86 11 be
       0.13993293 0.13778633 0.0727189 -0.14211485
0002b0 15 b2 a8 3d 0b 6d 26 3d 23 9b 8d bc 58 3c fc bd
       0.082370915 0.040631335 -0.017285889 -0.12316197
0002c0 9c bb fe 3d aa 19 36 bd 57 44 f3 bd af d2 e7 3d
       0.124381274 -0.04445807 -0.11878269 0.113194816
0002d0 95 a2 69 3d c8 6a 33 3d 9b 2c bf 3d 70 41 53 3d
       0.057039816 0.043803006 0.0933468 0.051576078
0002e0 0f 12 fc bc d4 00 c8 bc 9e c6 f8 3d 92 83 87 bb
       -0.03077033 -0.024414457 0.12147258 -0.0041355575
0002f0 3b 89 f8 bd 75 9c cd bd 44 7b df bd 5f 3e 71 3c
       -0.1213555 -0.100396074 -0.10912183 0.014724343
000300 2d e8 da 3d 09 79 b4 3d 04 23 1d 3d 95 d8 4a 3d
       0.10688815 0.08812148 0.03836347 0.049522955
000310 31 4b 8c bd 91 fd 0a 3e 3c dc 64 3d 7e e6 ba bd
       -0.06850279 0.1357329 0.055874094 -0.09125994
000320 86 0d c9 bd 26 d5 05 be dc 30 26 bd 63 76 da 3d
       -0.098170325 -0.13069591 -0.04057394 0.10667112
000330 ac 2f f9 3b 0d 8a 8b bd cc d9 25 3d 6a 37 d1 bd
       0.00760456 -0.068134405 0.04049091 -0.102156475
000340 a9 11 34 3d a2 17 ca 3d 1b 37 91 3d 1e 5c 32 bd
       0.043962155 0.09867789 0.07090589 -0.04354488
000350 a9 58 47 bd ca 99 7b 3d 76 e6 b0 3d e6 5a 16 bd
       -0.048668537 0.06142596 0.08637707 -0.03670778
000360 33 e9 12 3a 31 eb 86 bc 3e 6f 8c bc c0 11 04 be
       0.00056042074 -0.01646957 -0.017142888 -0.12897396
000370 0f 37 f5 bd 61 8d 00 3e 66 e4 8d bd e6 4e db 3d
       -0.11973392 0.12553932 -0.06928329 0.10708408
000380 07 5c bb 3d 6a c8 b0 bc 16 e7 8e bd 96 0e 8f 3b
       0.09148412 -0.02157994 -0.0697767 0.0043657525
000390 60 8b c7 bc f3 1d b3 bd 02 62 10 3e 7c e4 4c bc
       -0.024358451 -0.08745947 0.14099887 -0.012505647
0003a0 1b 96 bf bc d1 b6 c9 bd d1 46 ba 3c 58 f2 aa 3c
       -0.023387006 -0.098493226 0.022738846 0.020867512
0003b0 86 32 14 3e eb 5a 3a bd a3 43 a9 3d 63 20 02 3c
       0.14472398 -0.045496862 0.08264854 0.007942292
0003c0 a3 ff 9c 3d b7 5c e0 3a 18 40 d4 bc 69 a7 6a 3d
       0.07665946 0.0017117475 -0.025909469 0.05728856
0003d0 b6 5d 83 bd ec 8d b3 3d d0 ed fa bd bf 0a d8 bd
       -0.06414358 0.08767304 -0.122523904 -0.10548925
0003e0 7b 16 0f 3e ee 44 5e bd ef f6 eb bd b6 aa db bd
       0.1397342 -0.054264955 -0.11521708 -0.1072592
0003f0 d8 01 10 3e 81 57 9f bc b8 8c fa bd 50 10 a4 bc
       0.14063203 -0.019450905 -0.12233871 -0.02002731

node_embeddings.suministro.bias f4 [64]
000000 99 44 8e bc 38 d5 d6 bd ba 3c 8d 3d 37 4d 0d 3d
       -0.017366694 -0.10489887 0.06896348 0.034497466
000010 40 9d c2 3c 78 65 12 3e b6 35 c6 bc 60 5a bb 3d
       0.023756623 0.1429652 -0.024195533 0.09148097
000020 ca 07 99 bd 1a 81 90 bd 54 a0 0d 3d 6e 15 9a bd
       -0.07472189 -0.07055874 0.03457673 -0.07523619
000030 d1 da 82 3d 40 9d 0d be f1 fd 56 bd ee 79 15 3e
       0.06389392 -0.13829517 -0.05248827 0.14597294
000040 90 70 e6 bb fe 49 a4 3d 1a 10 06 3e 3a 30 2e bd
       -0.0070324615 0.080219254 0.1309208 -0.04252646
000050 0d 49 07 bd 16 37 af bc a5 c4 96 bd 2d bf 7a bb
       -0.03302865 -0.021388572 -0.07361726 -0.0038260922
000060 d2 6a 8f 3d ac d8 ff 3d 1c 19 cd 3d 3d 1f 12 3e
       0.07002796 0.12492499 0.10014555 0.14269729
000070 45 e2 94 bd 2f 4b cf bd 57 be 13 be a0 32 b1 3d
       -0.0726972 -0.10121762 -0.14428078 0.08652234
000080 c4 51 86 3d 63 b8 0b bd 46 cb f8 3d 6a 58 d5 bd
       0.06558564 -0.03411139 0.12148146 -0.10417254
000090 2b ed bc bc 65 5f 40 bb 31 c1 72 3d ee 1c fb 3d
       -0.02306231 -0.0029353735 0.059266273 0.12261377
0000a0 c7 68 a8 bd ea 00 14 3e 57 0d 0f 3e c1 07 23 3d
       -0.0822311 0.14453474 0.13969932 0.039802317
0000b0 0a d7 c2 bd 24 09 41 3d 3e fc f0 3c 16 b6 54 bd
       -0.09513672 0.047127858 0.029417153 -0.051931463
0000c0 9f cc 0e 3e 0c 12 ef bd 1b 49 50 bd bb a3 5c bd
       0.13945244 -0.11673364 -0.05085097 -0.053867083
0000d0 83 57 27 bd 53 4d df 3d c6 ef 06 bc 98 23 ad 3c
       -0.040854942 0.1090342 -0.008235877 0.021135136
0000e0 b0 3c 04 be f3 e7 cb bd c6 48 bb 3d 50 b4 3a bd
       -0.12913775 -0.0995635 0.0914474 -0.045582116
0000f0 ba ab 59 3d f8 ea e5 bd 03 6a ab bd 2a bc 91 3d
       0.053142287 -0.11226457 -0.083698295 0.071159676

node_embeddings.comercializadora.weight f4 [64, 11]
000000 60 6c 59 3e c0 85 99 3c 7e ca 8b be dd 3e 42 be
       0.21232748 0.018740535 -0.27302927 -0.18969293
000010 c2 aa e0 bd 46 b4 0f 3e e8 14 7b be 98 49 46 be
       -0.109700695 0.14033613 -0.24519694 -0.19364011
000020 68 6a 99 be b0 cb 59 be 2c 7e 5f 3e 6e 5f e6 bd
       -0.29963994 -0.21269107 0.21825475 -0.112486705
000030 88 a5 91 bd 60 37 18 3c 54 4d 74 bd 66 96 d3 bd
       -0.07111651 0.009290546 -0.05964406 -0.103314206
000040 40 16 c8 bb 28 ca 1a be 88 da 43 3e c0 c2 46 bc
       -0.006106168 -0.15116179 0.19126332 -0.012131393
000050 54 1b 0a 3e 90 df 14 3d 98 a1 68 3e ea 2f 16 3e
       0.13486987 0.03634602 0.22717893 0.14666715
000060 d7 37 1b be c2 20 91 bd 84 7f 8e 3d f2 c6 de bd
       -0.1515802 -0.07086326 0.069579154 -0.108777896
000070 2a 03 56 be 90 6a 81 3e 54 5c 4f 3e 54 3f 1a be
       -0.20899644 0.25276613 0.20250064 -0.1506322
000080 8c 8c 8e 3d 10 e0 5f 3e ee 13 3b be 00 7c 4b bd
       0.06960401 0.21862817 -0.18269321 -0.049678802
000090 b2 9c 7e be 10 41 8d be 8c 62 75 3e d4 1e d8 3d
       -0.24864462 -0.275887 0.23963374 0.10552755
0000a0 17 aa 48 be 40 4d b7 bc 40 9c 0f be 60 19 61 bd
       -0.19596134 -0.022375703 -0.14024448 -0.05495584
0000b0 ee 81 85 bd 18 99 c3 3d e0 b1 55 3d 04 56 51 be
       -0.06518923 0.09550685 0.052171588 -0.20442969
0000c0 08 ae 1a 3e 80 00 b6 3c 77 41 21 be 43 5b 33 be
       0.1510545 0.022217035 -0.15747629 -0.17515282
0000d0 80 06 da bb 1c ec d6 3d b2 91 8e be 52 98 8f bd
       -0.006653607 0.10494253 -0.27845532 -0.07011475
0000e0 06 19 5f be c6 59 90 be 6a 75 25 3e da 22 d4 bd
       -0.2178689 -0.28193492 0.16158071 -0.1035821
0000f0 5a 23 93 be 3e d3 b1 bd 4d 86 2a be aa e6 26 3e
       -0.2873791 -0.086828694 -0.16652794 0.16298929
000100 50 eb 41 bd 87 21 3b be 16 68 fc bd 40 99 88 bd
       -0.047343552 -0.18274508 -0.1232454 -0.06669855
000110 1c 4c 6c 3e 70 99 e0 3c 9d 55 74 be bc e1 9f bd
       0.23075908 0.027416915 -0.23860784 -0.07806727
000120 ae 43 8e 3e ec e8 83 be 00 8a e7 bd 44 78 86 3e
       0.2778601 -0.25763643 -0.11305618 0.2626363
000130 02 0c f9 bd ac 2c 6b 3e de 31 4a be a0 b5 69 3e
       -0.121604934 0.2296626 -0.19745585 0.2282319
000140 90 04 4c 3e 18 e0 66 bd 8e 32 8f be 70 dc d0 bd
       0.19923615 -0.056366056 -0.27968258 -0.10198295
000150 c0 a6 9a 3d 3a cf ce bd 32 69 76 be a4 71 88 be
       0.07551336 -0.10098119 -0.24063566 -0.266492
000160 50 04 13 3e 00 8f 5e 3e 1a e3 e9 bd 40 c9 3c 3c
       0.14357114 0.21734238 -0.11420269 0.011522591
000170 1a 00 3d be 68 44 32 3e d4 e2 4a be d5 1a 2f be
       -0.1845707 0.17408907 -0.1981309 -0.1710008
000180 14 6c fb bd 54 cb 62 bd 88 9e 18 3d 2f 87 91 be
       -0.12276474 -0.05536969 0.037260562 -0.2842345
000190 1c d3 e1 bd 5c ff 05 be 30 de 7a bd c0 9c 8c bc
       -0.11026594 -0.13085693 -0.06124705 -0.017164588
0001a0 60 77 67 3c 90 a6 1d 3e af c5 2f be c0 8f d7 3b
       0.014127582 0.1539557 -0.17165254 0.0065784156
0001b0 9e 49 8c 3e 18 6b 1e 3d b8 5a 65 be 40 53 53 3e
       0.27399915 0.03867635 -0.22397888 0.20637226
0001c0 bd fe 88 be 8c f8 fa 3d 34 9d 7f 3e e8 c7 1a 3d
       -0.2675685 0.12254438 0.24962312 0.0377883
0001d0 88 9b 25 3e 14 fe 74 3e a2 fa 0c 3e 0a 81 b9 bd
       0.16172612 0.23925048 0.13767484 -0.090578154
0001e0 ec 43 86 3d 40 b8 79 3e 34 c8 90 3d be 60 75 be
       0.06555924 0.24386692 0.07069436 -0.23962685
0001f0 ae 54 86 3e b4 9a 95 3e a8 2a 33 3e ac d8 27 3e
       0.2623648 0.29219592 0.17496741 0.16391248
000200 da 77 2d 3e e0 74 3b be ba 57 b9 bd 5c 71 05 3e
       0.16940251 -0.18306303 -0.09049936 0.13031524
000210 04 45 9d 3d 6e 33 03 3e 40 fe ba bb f5 c4 94 be
       0.07679179 0.12812588 -0.0057065785 -0.29056516
000220 6a 58 12 3e f4 32 42 be ee 23 7f be 50 aa 98 3e
       0.1429154 -0.1896475 -0.2491605 0.29817438
000230 b2 1a 08 3e 24 71 19 3e a0 45 07 be a0 8d e3 3d
       0.13291433 0.14984566 -0.13210154 0.11110997
000240 40 eb d1 3c c4 99 52 3e 08 77 10 3d ee f9 89 3e
       0.025624871 0.2056647 0.035269767 0.26948494
000250 f8 a0 90 bd 30 75 8e 3e ce e2 98 3e 28 13 12 3d
       -0.07061952 0.27823782 0.29860538 0.0356628
000260 fe 5e 62 be 00 a0 f7 38 74 c2 75 3e ac f1 52 be
       -0.22106549 0.0001180768 0.23999959 -0.20600003
000270 c8 ae dc bd 0c 4a df 3d 70 f0 7a 3d 2c 1e 91 3e
       -0.107755244 0.10902795 0.061264455 0.28343332
000280 50 6a 4b 3d 00 1c 17 bb b0 4f 22 3d e8 06 7e bd
       0.049661934 -0.002305746 0.039626777 -0.062018305
000290 31 1e 8e be 6a 95 d8 bd df f0 8b be e0 e7 61 3e
       -0.2775741 -0.105753735 -0.27332208 0.2206111
0002a0 40 72 95 3c b8 cd 0f 3d 00 6c ab bc b3 6a 1e be
       0.018242955 0.035108298 -0.020925522 -0.1547039
0002b0 30 d1 59 be d8 07 3d bd ac d4 ba 3d 3a f5 28 be
       -0.21271205 -0.04615006 0.09122595 -0.16499797
0002c0 10 04 3f be 26 98 48 3e 9a 65 d6 bd 20 f1 2d 3e
       -0.18653893 0.1958929 -0.10468598 0.16986513
0002d0 6c c9 93 3e d2 18 91 3e 1a b6 6e be 40 35 b7 3c
       0.2886461 0.2833925 -0.23311654 0.022364259
0002e0 46 17 72 be 00 e4 4b 3c d8 be 2b 3d 32 a2 05 be
       -0.2364169 0.012444496 0.04193005 -0.13050154
0002f0 ec 46 b7 3d 5a 94 c1 bd aa f3 2d 3e 80 60 3c 3b
       0.08949074 -0.09452124 0.16987482 0.0028744042
000300 0c 4f 56 3e b0 ae 50 3e 70 e3 89 3d b0 8e 66 3d
       0.20928591 0.20379138 0.067328334 0.05628842
000310 72 bd 0b be 90 e2 4b be e0 28 50 3e a4 bf 4b 3e
       -0.13646486 -0.19910645 0.20328093 0.19897324
000320 d8 ab 41 3d ec 85 81 3e 32 36 21 3e 24 af 49 3e
       0.047283024 0.25297487 0.1574333 0.19695717
000330 20 e1 6c bd 28 89 30 3d ea cb 8a be 6b 0d 8d be
       -0.057831883 0.043099552 -0.271087 -0.275493
000340 3c cd 12 3e 77 1c 3a be ec 25 6b 3e 22 21 79 be
       0.14336103 -0.18174921 0.22963685 -0.24329045
000350 b9 96 7f be 70 70 7d be ca 25 46 3e 1f a6 4c be
       -0.2495984 -0.24749923 0.19350353 -0.19985245
000360 27 63 84 be e8 6b 02 3e c0 1a 79 bd c9 08 93 be
       -0.25856897 0.12736475 -0.060816526 -0.2871764
000370 8c f8 5a 3e c0 c5 5f 3e 70 a8 77 3e ba cf 41 3e
       0.21383876 0.2185278 0.24185348 0.18926898
000380 b2 5c 6f be aa ea 07 be e4 aa f2 bd 55 21 96 be
       -0.23375204 -0.13273111 -0.11849001 -0.29322305
000390 18 c3 57 3e 74 e3 f9 bd ec f0 d3 3d a2 ff 1c be
       0.21070516 -0.12201586 0.103486866 -0.15331891
0003a0 36 56 8a 3e b4 8c 59 3e d0 16 55 3e e2 1d 17 3e
       0.270189 0.2124508 0.20809484 0.14757493
0003b0 8a 38 81 3e c8 e3 c9 3d 60 0a 53 3d f0 3b 8b bd
       0.25238448 0.09857899 0.051523566 -0.067985415
0003c0 5c e3 7a 3e f1 f4 94 be 38 82 5c 3e d0 b3 e9 bc
       0.24500793 -0.29093125 0.2153405 -0.028528124
0003d0 c0 83 a3 bc ce f9 4a be ff fc 06 be c8 f5 68 3d
       -0.019960284 -0.19821855 -0.13182448 0.05687502
0003e0 52 9f fb bd d4 d4 db 3d 00 fb 2d 3d 64 69 83 be
       -0.12286247 0.10733953 0.0424757 -0.25666344
0003f0 94 be 28 3e 92 f0 07 be 60 1a df bd e0 42 e3 bd
       0.1647895 -0.13275364 -0.108937025 -0.1109674

node_embeddings.comercializadora.bias f4 [64]
000000 d8 1b 20 bd 9e 65 21 be d8 e4 80 3e d0 ac 8f 3e
       -0.039089054 -0.1576142 0.25174594 0.28061533
000010 62 ad 23 3e c8 d7 71 3e 35 02 8b be f1 83 8b be
       0.15984109 0.2361747 -0.2715012 -0.272491
000020 ae b8 28 3e 0c a5 8a bd f8 47 03 3e 5c 76 8f 3e
       0.164767 -0.067697614 0.12820423 0.2801999
000030 c4 14 8d bd 25 09 24 be 18 a5 90 3e 90 02 14 be
       -0.06888726 -0.16019113 0.28250957 -0.14454103
000040 20 ea 30 be 40 c6 77 3e 00 18 4b bc ab 95 16 be
       -0.17276812 0.2419672 -0.012395859 -0.14705531
000050 8c 3c dc 3d 30 05 1c be c0 0c 34 3c d7 3c 73 be
       0.10753736 -0.15236354 0.010989368 -0.23753677
000060 8a 0f 95 bd 5c 86 6f 3e 60 e7 31 3d 58 4b 27 bd
       -0.072783545 0.23391098 0.043433547 -0.040843338
000070 18 22 6a 3e 84 37 27 3e 66 43 2d 3e 70 81 12 3e
       0.22864568 0.16329771 0.16920242 0.14307189
000080 d0 4a d3 bd 53 70 89 be f9 d4 36 be 1a 85 37 be
       -0.10317004 -0.2684351 -0.1785468 -0.17921868
000090 60 f5 ab 3d e8 98 77 3e f2 b3 8e 3e e8 3b 77 3e
       0.08396411 0.24179423 0.27871662 0.24143946
0000a0 78 3c 2f 3d 78 a1 54 3e 40 ec 77 3c 44 66 0f 3e
       0.042782277 0.2076472 0.01513201 0.14003855
0000b0 76 64 4c be aa b2 94 3e 8e bb 0e 3e 00 78 e8 39
       -0.19960198 0.2904256 0.13938734 0.00044339895
0000c0 88 27 f5 bd b8 4c 58 3d 38 45 0e bd 5c d7 47 be
       -0.119704306 0.05280754 -0.03473398 -0.19515747
0000d0 0d 4a 3f be dc 4f f6 bd f4 bf 8d 3d ce 13 47 be
       -0.18680592 -0.12026951 0.06921378 -0.19441149
0000e0 b8 26 2a 3e 38 0b 2a be 26 a0 39 3e 80 68 2a 3c
       0.16616333 -0.16605842 0.18127498 0.010400891
0000f0 00 f4 07 3a a8 c8 26 3d 80 05 15 bb ac 99 18 3e
       0.00051862 0.040718704 -0.0022738874 0.14902371

node_embeddings.ubicacion.weight f4 [64, 24]
000000 01 6c 8d bc 87 84 95 bd ee 52 ae 3c 8e c7 f4 bd
       -0.017263414 -0.07300668 0.021279778 -0.119521245
000010 ce 54 a7 3d 7e 34 a8 3c e6 e1 d2 3d 42 9e 12 bd
       0.08170472 0.020532843 0.10296993 -0.035795458
000020 fe 24 97 ba a7 0f c7 bd 92 ab bb bd be 73 a5 3b
       -0.001153141 -0.09719782 -0.09163584 0.005049198
000030 74 08 d8 3d a6 2a 9e bd 66 38 25 3e f6 23 8d bd
       0.10548487 -0.07722978 0.16134796 -0.06891625
000040 aa e1 2b bd 4f 9f 27 3e 26 c2 17 bd d9 24 e5 3d
       -0.041963257 0.16369365 -0.03705039 0.11188669
000050 3e a6 a4 bc cb cb f6 3d 8e 7b d9 3c 25 fd c4 bd
       -0.020098802 0.12050589 0.026548173 -0.09618596
000060 95 b0 0a be 6d 29 f6 3d ae 76 4d 3d ea da 01 bd
       -0.13543923 0.1201962 0.05016201 -0.031702913
000070 d5 7d 1d bd 8f 87 ad bd 38 c7 10 be 82 7b 39 3d
       -0.03845008 -0.084731214 -0.14138496 0.0452838
000080 5c ba 31 be be 7f 31 bb 88 66 14 3e ea ba be 3d
       -0.17356247 -0.0027084197 0.14492238 0.09312995
000090 c5 e1 e3 3d 3c 13 1d 3d 50 d5 e9 bd 33 f9 d6 3d
       0.111270465 0.03834842 -0.11417639 0.1049675
0000a0 27 20 22 3e 47 e7 ac 3d 34 60 12 3e 4d c6 28 be
       0.15832578 0.0844255 0.14294511 -0.16481896
0000b0 ad e2 35 be 36 a2 41 bd ca 08 5b 3d 29 4e 07 3e
       -0.17762251 -0.047273837 0.05347518 0.1321341
0000c0 94 09 73 bd a4 d7 b7 bd c4 a9 07 3e 2f f9 c7 bb
       -0.059335306 -0.08976677 0.13248354 -0.006102703
0000d0 7e d2 62 3c 62 b9 46 be 50 fd a2 bc 06 cf ca 3d
       0.013844131 -0.19406655 -0.01989618 0.09902768
0000e0 e9 c4 4a 3e 6e 70 94 3c 95 de 04 3e 94 f6 e8 3c
       0.19801678 0.018120017 0.12975533 0.02843789
0000f0 e2 91 25 be ee 83 c5 bb 87 8b 8e bd 02 2e ea bc
       -0.16168931 -0.00602769 -0.069602065 -0.028586391
000100 5d 9b a2 bd 2e 9e 1b 3e 6c 88 2a be 4b ce f9 bd
       -0.079397894 0.1519706 -0.16653603 -0.121975504
000110 ff 8a 83 bd 9d 6b 2e 3e 6e 17 2b bd 05 45 ac 3d
       -0.06422996 0.17033239 -0.04177039 0.08411602
000120 66 bc ce 3d ce c4 32 3e c2 1a 40 bd ea 2f 1c 3d
       0.10094528 0.17457888 -0.04690052 0.038131632
000130 d2 09 cc bd 8e 35 7e bc 7a 5e 33 be 87 30 2a be
       -0.099628106 -0.015515698 -0.17516509 -0.16620074
000140 4f 57 61 3d 9a 32 20 be 88 a9 d8 3d 5e 29 1a 3e
       0.055014905 -0.15644303 0.105792105 0.15054843
000150 12 09 92 3d 6f 3b a1 3d 7f e8 3d be e5 51 c1 bd
       0.07130636 0.07872664 -0.18545721 -0.09439448
000160 cf eb 16 be 22 33 46 be 2f 42 b0 3d 6b 26 3e 3d
       -0.14738391 -0.19355443 0.086063735 0.046423357
000170 34 92 47 3e 29 9b 67 bd d5 64 0a be 96 ee 33 be
       0.19489366 -0.056544457 -0.13515027 -0.17571482
000180 6e 2b 40 3c a6 d4 e6 bd 3c 01 17 3d ec 7c 09 3e
       0.011729104 -0.11271028 0.03686641 0.1342656
000190 30 40 32 3e 0b 96 06 bd 7c eb 07 be 7b 00 e3 bd
       0.17407298 -0.032857936 -0.13273424 -0.11084076
0001a0 3b ff 04 3e 8d 8d 54 3d 2e c2 53 3c 68 15 4b be
       0.12987988 0.051892806 0.012924714 -0.19832385
0001b0 82 34 e3 3d 47 a0 03 3e 32 e4 b3 3c 82 a8 16 bd
       0.110939994 0.1285411 0.021959398 -0.036781795
0001c0 e8 60 c6 bd cb ed 1d 3b 28 c3 1b 3c 46 e0 6f 3d
       -0.09686452 0.0024098034 0.009506978 0.058563493
0001d0 f7 17 19 bc 99 9e 46 3e 42 f8 05 3e 9a f2 38 3d
       -0.009344093 0.19396438 0.13082984 0.045153238
0001e0 bc 38 3a be 20 ea c8 bd d4 00 a4 3d f3 5d 07 be
       -0.18185705 -0.09810281 0.080079705 -0.13219433
0001f0 ab 00 6a 3d 2e ff 4e 3d e1 69 03 be f2 d9 25 3d
       0.057129543 0.050536327 -0.12833358 0.040491052
000200 f2 5c d2 bc ee 66 1c 3e 72 94 34 bd 7d 06 37 3e
       -0.025679085 0.1527364 -0.04408688 0.17873569
000210 35 29 35 3e 71 d2 89 bd 7d b9 0b 3d 6d 06 67 bd
       0.176915 -0.06729592 0.034112442 -0.056402612
000220 80 64 26 3e c3 8c c6 3d 7e 00 b0 3a 10 d5 fa 3d
       0.16249275 0.09694817 0.0013427881 0.1224767
000230 44 b1 28 be 95 7a 52 bd 63 a2 28 3d 79 61 45 be
       -0.16473871 -0.051386435 0.04117049 -0.19275464
000240 e2 ab 35 3e e5 32 81 3c e2 77 39 3e e6 57 73 bd
       0.1774135 0.015771339 0.18112138 -0.05941
000250 b6 63 55 3c ee 98 66 bd d7 c6 a9 bd 5f c4 9c bd
       0.013024261 -0.05629819 -0.08289879 -0.07654642
000260 4c 1b 11 3e 3c ea 3a 3e a8 0a 6d 3d 86 e3 ea 3d
       0.14170569 0.18253416 0.05787149 0.11469178
000270 06 a6 b7 3d 45 99 34 ba 17 93 1a be 00 f5 50 3d
       0.08967213 -0.0006889294 -0.15095173 0.0510149
000280 50 b0 91 bd c1 18 a2 3d 31 14 07 be ea f9 6f bc
       -0.07113707 0.07914878 -0.13191296 -0.0146469865
000290 59 bf a2 bd cf c0 40 be 31 c5 41 be e5 04 40 3e
       -0.07946653 -0.1882355 -0.18922879 0.18751867
0002a0 3e 22 20 3a 52 55 33 be b8 23 0b 3d a9 dc 45 bc
       0.0006108618 -0.17513016 0.03396961 -0.012076535
0002b0 80 0d 2d 3e bf aa 45 3e 57 d7 58 bd 8d d9 fa bd
       0.16899681 0.19303416 -0.05293974 -0.12248526
0002c0 b2 6b f0 bd 1a 4f 5e bd 16 77 e7 bd ba bc 3c 3e
       -0.11739291 -0.054274656 -0.11302011 0.18431368
0002d0 5e a4 a1 bd 7f eb d5 3d b3 40 bb 3d 01 9e 41 3d
       -0.07892679 0.10445308 0.091432 0.047269825
0002e0 85 a5 cd 3d 4e 9c 31 3e 97 fb af 3d 0e 44 b6 3d
       0.10041336 0.17344782 0.08592909 0.08899699
0002f0 d5 61 2f be 88 d7 8f bc fe 70 9a 3b 1a 9d 24 3e
       -0.17127164 -0.017558828 0.0047131767 0.16075554
000300 b3 ce b0 3d 0a aa 21 3e 20 ad 21 3e 19 00 c3 bd
       0.08633175 0.15787521 0.15788698 -0.09521503
000310 2e 3a ed 3c 66 4f 47 3e 7c c7 92 3d 94 6a ea 3d
       0.028958406 0.19463882 0.07166955 0.114461094
000320 ba ec a9 3d c2 3a 83 bd 4e a7 47 3d 0d 6d 10 be
       0.08297105 -0.064076915 0.04874354 -0.141041
000330 93 59 40 3e 19 06 32 3c a8 15 21 3e 86 ef 12 be
       0.1878417 0.010865712 0.15730917 -0.14349183
000340 50 05 40 be db de c1 3c 76 3d d6 bc 61 19 a9 bd
       -0.18752027 0.023665836 -0.026152354 -0.08256794
000350 79 fc d9 3d 36 f9 07 be 91 2a 38 3e 0f 0d 4c be
       0.106438585 -0.1327866 0.17984988 -0.19926856
000360 51 bf 2a 3d cc ca f4 bd fa 61 35 3d 3c 6d 4e 3e
       0.04168636 -0.11952743 0.04428289 0.20158857
000370 4e 7e cf bc 06 68 42 3d 7e 15 a3 bd bd 84 d6 bd
       -0.025328781 0.047462486 -0.07963084 -0.104745366
000380 42 8c 32 be da 4b f1 3d 5e 7a c9 ba 76 c4 90 3d
       -0.17436317 0.11782046 -0.0015371551 0.07068722
000390 22 c2 20 be 58 06 2e be de 0f 3e be e3 e9 f0 bd
       -0.15699056 -0.16994607 -0.1856074 -0.1176336
0003a0 ee 6c d9 bc 0e 4f fc bc a3 45 b6 3d 79 df c8 bd
       -0.0265412 -0.030799415 0.08900001 -0.09808249
0003b0 cb 62 4c 3e ae 81 be bd b4 90 44 be 40 1e 1e 3e
       0.19959562 -0.09302078 -0.19195825 0.15441227
0003c0 44 55 06 be 26 5d 9f 3c f6 70 a1 bc aa 67 2e bd
       -0.13118464 0.019453596 -0.019707184 -0.04257933
0003d0 fe ab 0a 39 a5 8b 4d be fe f5 3b 3e 7a b1 07 be
       0.00013224778 -0.20072801 0.18355557 -0.13251296
0003e0 76 e2 fe 3d e8 32 f7 bd 3a e2 4d bd fe 2f 9e bb
       0.12445538 -0.120702565 -0.050264575 -0.0048274985
0003f0 51 c5 a4 bd 21 1c b5 bd f8 f0 2f be 82 90 0f be
       -0.080454476 -0.08843256 -0.17181766 -0.14019969

node_embeddings.ubicacion.bias f4 [64]
000000 00 3c 25 be d3 35 a9 bd b0 3a da 3d 7a f5 c7 3c
       -0.1613617 -0.08262219 0.10655725 0.024409045
000010 9b e6 d3 bd 56 0c d1 3d 4d 75 51 3e 40 49 38 3d
       -0.10346719 0.10207431 0.20454903 0.04499173
000020 67 6c 1d be 64 32 63 bd 98 17 50 be 12 50 33 3e
       -0.15373383 -0.055467978 -0.203215 0.17511013
000030 ae a7 09 be 10 e8 a9 bb eb 3a f4 bd 1a 08 f3 bb
       -0.13442871 -0.0051851347 -0.119253 -0.0074167373
000040 d1 ca 14 be 05 23 24 be 49 b8 15 be ec fd af 3d
       -0.14530493 -0.16028984 -0.1462108 0.08593354
000050 10 18 50 be 99 60 2e 3e 23 a2 b2 3d 77 3c e1 3d
       -0.20321679 0.17029037 0.087223314 0.10997861
000060 15 88 44 3e 75 da 82 3c a1 5d 56 bd cf 03 41 be
       0.19192536 0.015973309 -0.052335385 -0.18849109
000070 5b 19 f9 bd f7 e1 0d be bd 7c 40 be b3 93 ab bd
       -0.12163039 -0.1385573 -0.18797584 -0.08377781
000080 1e 8f 6e bb 36 0e c1 bb 31 f7 fe 3c bd e3 0e be
       -0.0036401222 -0.0058915867 0.03112373 -0.13954063
000090 15 f0 f8 3d c5 66 42 be d6 17 8d 3d 75 74 a5 bd
       0.12155167 -0.18984516 0.06889312 -0.08078853
0000a0 57 74 33 3e 4a 0e da bd c9 eb 43 3e 64 2f 17 be
       0.17524849 -0.10647257 0.19132914 -0.14764172
0000b0 f8 3c 09 be 00 ba b3 bc 1c 92 10 be 3f 67 ac 3c
       -0.13402164 -0.021939278 -0.14118236 0.021045325
0000c0 b1 46 16 be 66 8c a9 bc c8 1c ce bc be 8b 94 bd
       -0.14675404 -0.02069683 -0.025160208 -0.07253216
0000d0 d3 c0 08 3d fb 7d eb bd ea b4 f5 3d d7 46 70 bd
       0.033387017 -0.11498638 0.11997397 -0.05866131
0000e0 1a d2 ef bd 09 b2 75 bd e8 4c 97 3d 1c a3 f0 bd
       -0.117099956 -0.05998424 0.073877156 -0.11749861
0000f0 e1 1b 42 be 6c b5 3d bd 6b c1 0c be ea ee 4b 3e
       -0.18955947 -0.046315596 -0.13745658 0.19915357

node_embeddings.concentrador.weight f4 [64, 15]
000000 8e a9 bb bd e2 96 85 3d 52 2d f9 bd 48 54 b6 3b
       -0.09163199 0.06522919 -0.12166847 0.0055642463
000010 5d e5 64 bd 2b 40 1e bd 66 0e 5a 3e 8e 51 dc 3d
       -0.0558828 -0.038635414 0.21294555 0.10757743
000020 1a d1 05 be c7 fc 08 3e 40 37 2a be 3c 78 4a 3e
       -0.13068047 0.13377677 -0.16622639 0.19772428
000030 b1 82 69 be 6a d3 80 be 7a 38 81 3e a8 73 0f 3e
       -0.22803761 -0.25161296 0.252384 0.14008963
000040 be be 14 3c c4 77 4b be ac e8 22 3e 29 91 d8 bd
       0.00907868 -0.19869906 0.1590907 -0.10574562
000050 3f fe 95 3d 50 5c 39 3d 66 8f 29 3e da 79 7d bd
       0.07323884 0.04525405 0.16558608 -0.061883785
000060 af a4 84 3e 2c f6 3f be 3e 08 ef bd 53 08 82 3e
       0.25906894 -0.18746251 -0.11671494 0.25396976
000070 e0 55 69 be 84 26 a3 bd 8a 38 a5 3d e6 82 d3 3d
       -0.22786665 -0.07966331 0.080674246 0.10327701
000080 84 62 a8 bd c5 75 4f be dc 74 60 3e fe eb 4a be
       -0.08221915 -0.2025977 0.21919578 -0.19816586
000090 fc b2 7a 3e 33 04 a2 3c 98 5d 16 be d9 5c 11 3d
       0.2448234 0.019777393 -0.1468414 0.035488937
0000a0 19 1b fe bb 39 11 5c be 93 8b 65 3e 18 69 1a be
       -0.007754695 -0.21490945 0.22416525 -0.15079153
0000b0 ea 0d 3d bd e9 a0 0d be 92 3f 6c 3d de 1c 31 be
       -0.046155848 -0.13830914 0.057677813 -0.17296168
0000c0 51 c2 61 3e 28 64 8b bd 46 b6 75 3e 0d 42 56 3a
       0.22046782 -0.06806213 0.23995313 0.00081732945
0000d0 50 ed 2d bd a5 3b 6e be 85 13 25 3e 1a cd 25 bb
       -0.042462647 -0.2326494 0.16120727 -0.0025299252
0000e0 31 5d 51 be 2c 86 fd 3d e2 44 24 3d 6f 97 10 be
       -0.20445706 0.12379107 0.040104754 -0.14120267
0000f0 6f e7 1d be 9e 71 51 bd 10 d7 f5 3d 9c a5 ac 3d
       -0.15420316 -0.051133744 0.120039105 0.08430025
000100 99 57 22 be c9 60 3a be 30 6e 5c 3e 57 ad 4b 3d
       -0.15853728 -0.18200983 0.21526408 0.049725857
000110 ae a8 01 3e 17 f4 79 be 1a 9b fb 3d 6e 81 64 3e
       0.12662002 -0.24409519 0.12285443 0.22314999
000120 96 b7 14 bc 48 6a 57 3e 91 1c 64 3d 3e 17 25 3c
       -0.009076973 0.21036637 0.055691306 0.010076342
000130 82 9e b8 3d 0f b4 b8 bd 31 09 e2 bc 7e f8 4d bd
       0.09014608 -0.090187185 -0.027592273 -0.05028581
000140 45 b3 86 3d c9 83 d7 3c 64 d0 f6 bd e9 cf 07 3e
       0.06577162 0.026307957 -0.12051466 0.13262905
000150 da 51 14 be 37 c1 25 3e b7 e6 da 3c a0 15 8f bc
       -0.14484349 0.16186987 0.026721342 -0.017466366
000160 9e ea 89 bc 56 89 67 3d 1e 54 31 3c 50 b4 66 3e
       -0.016835507 0.056527458 0.010823278 0.22529721
000170 c5 bf 52 3e bf f1 83 3e 6f 44 20 3e 74 55 9e 3b
       0.20580967 0.25770375 0.15651105 0.004831964
000180 2a e9 cc bd af d4 c4 bd f9 d3 1f 3e b5 0d ae bc
       -0.1000541 -0.09610879 0.15608205 -0.02124677
000190 da 2e 6c be f9 76 f7 3b f3 3d 7d bd a4 53 3f be
       -0.23064747 0.0075520244 -0.061826658 -0.1868425
0001a0 e5 86 48 be c6 2a c1 bc e6 3d bd 3d 7d d6 0d 3e
       -0.19582708 -0.023579966 0.09240322 0.13851352
0001b0 6f 5d 3e be c8 a8 5e be 7b d0 48 be a5 9d 1a bc
       -0.1859033 -0.21744072 -0.19610779 -0.009436999
0001c0 96 d3 ac bc 7d fd f8 3d f4 2d 58 be 0f 77 71 3e
       -0.021096986 0.12157724 -0.2111128 0.23580573
0001d0 82 3e 9e bd 8f 6e 7a be c0 b7 26 be 86 49 80 3d
       -0.07726766 -0.24456237 -0.16281033 0.062640235
0001e0 1b 18 57 bd 84 6f 3f 3e b4 2a 10 bb 0c d6 21 3e
       -0.052513223 0.18694884 -0.002199811 0.15804309
0001f0 1e 9b 5a 3e 03 19 c7 bd 50 ee b5 3c 1a 39 9f bc
       0.21348235 -0.097215675 0.022208363 -0.019436408
000200 bd c9 ef bd 3e a4 71 be e4 b8 00 be 72 13 08 3e
       -0.117084004 -0.2359781 -0.1257053 0.13288668
000210 90 7c 47 bd 87 02 69 be 3f 01 8e 3d eb 32 c0 3d
       -0.048702776 -0.2275487 0.069338314 0.09384712
000220 a4 09 3f 3d 2e 86 57 3e 30 9c 4a be d4 41 d2 bd
       0.046640053 0.21047279 -0.19786143 -0.10266462
000230 dd d2 77 bc bf 71 2d be 69 d9 b0 3d 67 31 83 bd
       -0.015125957 -0.16937922 0.08635218 -0.06405907
000240 a4 64 77 3e 03 e9 ac bd 60 e3 3b be 39 f2 4b 3e
       0.24159485 -0.08442881 -0.18348455 0.1991662
000250 16 91 81 3e b4 62 42 3e 73 5e 4c be d5 c1 02 be
       0.25306004 0.18982965 -0.19957905 -0.12769254
000260 34 a0 fa 3d 9f c5 73 3e 9d 79 33 3e dd 1b 63 be
       0.122375876 0.23805855 0.1752686 -0.22178598
000270 7c 2e b3 bd 7e bb 66 bc 18 c7 00 3e ad 33 37 be
       -0.087491006 -0.014082788 0.12575948 -0.17890806
000280 c0 4e d0 3d 72 66 76 bd 3a 38 a2 3d de c3 28 bd
       0.1017127 -0.060156293 0.079208806 -0.04120242
000290 fa 08 80 3e b6 81 de bc 66 07 cc bd 52 c3 2b bd
       0.2500685 -0.02716146 -0.09962349 -0.04193432
0002a0 cd 86 02 be ca a5 5a be 11 fb 2a 3e 78 5b 20 be
       -0.12746735 -0.21352306 0.16697337 -0.15659893
0002b0 fc 38 e6 bd 0c 4e 08 be 1b 2b 1f bb cf c0 14 3e
       -0.11241338 -0.13311023 -0.0024287167 0.14526676
0002c0 34 99 8e bd fe 62 c5 3a f8 b5 bb bd d0 f7 4e 3e
       -0.06962815 0.0015059409 -0.09165567 0.2021172
0002d0 a6 ce 1b bd 10 db 3c 3e ea c6 8d bd 52 c6 95 bd
       -0.038038872 0.1844294 -0.069227055 -0.07313217
0002e0 88 69 11 be 94 a4 31 be 1e c9 0e 3e b6 25 79 be
       -0.14200413 -0.17347938 0.13943908 -0.24330792
0002f0 ef 00 54 3d 01 8c 5c 3e 28 06 44 be b3 51 da 3d
       0.051758703 0.21537782 -0.19142973 0.10660114
000300 f3 9a 7e 3d be c6 c8 3c 84 17 7b 3e ad de 34 be
       0.06215949 0.02450883 0.24520689 -0.17663069
000310 da 5a 1c 3e c5 34 04 be f6 54 1e 3e 39 bf ae 3c
       0.15269032 -0.12910755 0.15462098 0.021331416
000320 57 02 a2 3c b0 21 61 be ca ac f8 3c cb 31 41 be
       0.019776506 -0.21985507 0.03035583 -0.18866651
000330 81 9c 5c be fe 07 15 3e 02 8e 09 3b 8e fb 86 bd
       -0.21544077 0.1455383 0.0020989184 -0.06590949
000340 e7 33 24 bd 03 b8 52 3e 7e 05 98 bb 18 3e 29 be
       -0.04008856 0.20578007 -0.0046393266 -0.16527593
000350 a6 89 7e 3e f4 ed 12 be e8 5a 40 3e 61 5f 5d 3e
       0.24857196 -0.14348584 0.18784678 0.21618415
000360 5e 41 44 3d 58 70 70 be 03 25 9a bd da 75 5b be
       0.0479139 -0.23480356 -0.07526591 -0.21431676
000370 d6 bf 66 be cc 64 44 be cc 62 0b be d6 ff 73 be
       -0.22534117 -0.19179076 -0.13611907 -0.23828062
000380 14 30 11 be 9a e1 50 be 82 f7 4c be c4 0f 2d be
       -0.14178497 -0.2039856 -0.20016292 -0.16900545
000390 42 89 7d be 52 a2 8d 3b 5b a2 bd 3c e1 31 4f bd
       -0.24759391 0.0043223286 0.023148706 -0.050584678
0003a0 51 d7 82 3e 56 22 fe 3d 0a 7a 26 3e bb de 09 3e
       0.25554898 0.12408893 0.16257492 0.13463871
0003b0 1d ac 0a be e6 68 84 3d ca fa a8 3d 3f 95 42 be
       -0.13542219 0.0646532 0.08250959 -0.19002245
0003c0 d3 69 66 3e 70 0c 1d be 1a 2d 06 bd 9d 8f 81 be
       0.22501306 -0.15336776 -0.032757856 -0.2530488
0003d0 c9 32 4f be 4a 0f 55 3e 3c e1 42 be 71 2d 6e 3e
       -0.20234217 0.20806614 -0.19031233 0.23259522
0003e0 c9 f4 07 3e 3f 81 73 3e ff bf f5 bd b6 12 4f be
       0.13276972 0.23779772 -0.11999511 -0.20221981
0003f0 51 f6 5a 3e ba 4e d8 bd 36 17 fd bc 44 56 75 3e
       0.21383025 -0.10561891 -0.030894857 0.23958689

node_embeddings.concentrador.bias f4 [64]
000000 65 06 61 be 15 95 e3 bc cf ac b2 bd f4 ab 22 bd
       -0.21975096 -0.027781049 -0.08724367 -0.03971477
000010 81 8c 3b 3e 08 2c 2e be 91 6b 0a be 2d af d4 bd
       0.18315317 -0.17008984 -0.13517596 -0.10384975
000020 71 e9 9c 3c 97 f0 11 be ad bc 51 3d 1f dc 5f be
       0.019154282 -0.14251934 0.051205326 -0.21861313
000030 00 f5 06 be d0 e8 1e 3e 7f 52 37 3e ba ad a4 bd
       -0.13179398 0.15518498 0.17902564 -0.08040948
000040 1d 57 52 3c df c4 17 bc f9 30 3c be c7 b9 6b bd
       0.012838152 -0.009263246 -0.18378057 -0.057550218
000050 49 18 1d 3e b6 32 08 3c 39 9f 7e 3e 2c c7 58 be
       0.15341295 0.008312872 0.24865426 -0.21169728
000060 88 71 3a be 04 73 60 be ac 5a 26 be e0 2a 5f 3d
       -0.18207371 -0.21918875 -0.16245526 0.05448425
000070 a7 b5 30 3e 7f ac 57 be 59 5d 49 be f1 e9 c4 bd
       0.17256795 -0.21061896 -0.19664516 -0.09614933
000080 04 9c 1d 3e 0c 9b 0c 3e 51 aa d4 bc 0a 26 70 3e
       0.15391546 0.1373102 -0.02596012 0.23452011
000090 21 79 c2 3d 4f 76 79 3e a7 c0 5b 3a 0e 9d 24 be
       0.0949576 0.24361537 0.00083828944 -0.16075537
0000a0 32 92 60 3b b2 85 a5 3d a2 c7 cd 3d 30 01 a8 ba
       0.0034266827 0.08082141 0.100478426 -0.0012817737
0000b0 9f a8 19 3c 18 2c 4a 3d b9 06 6d bd 0a d5 7e 3d
       0.009378581 0.049358457 -0.05786774 0.06221489
0000c0 5a 73 28 be 89 76 6c bd bf e0 0e 3e 4f cf 9f 3d
       -0.16450253 -0.05773023 0.13952921 0.07803213
0000d0 1f f9 14 3e 0c 15 31 be 01 76 9d bd 1e a5 09 be
       0.14548157 -0.17293185 -0.07688523 -0.13441893
0000e0 b8 b1 4c be b6 a7 d9 bd c7 48 7e bc 54 68 a1 bc
       -0.1998967 -0.106276914 -0.015520281 -0.019703068
0000f0 49 f7 89 bc 72 e7 27 be 9a c3 92 bc aa 35 8c 3d
       -0.016841548 -0.16396883 -0.017915536 0.06846173
