models/best_hetero_fraud_model.pth (torch, 954051 bytes, 172 tensors)

info_attention f4 [5]
000000 db e5 dd bf d9 25 01 bf d1 b9 d8 bf 17 95 53 bf
       -1.7335771 -0.50448376 -1.6931707 -0.8264937
000010 82 20 a2 3f
       1.2666171

node_embeddings.contador.weight f4 [64, 64]
000000 46 c4 a5 3d ee e8 e3 3a 80 a0 81 3d ad 46 f4 3d
       0.08094077 0.0017388144 0.06329441 0.11927543
000010 45 1f 44 bd f6 e2 f6 bd 4e b5 fa 3d c2 12 88 bd
       -0.047881383 -0.12055008 0.122416124 -0.06644203
000020 33 a3 eb 3c 10 f5 9d 3d 24 d5 9e bc 6d 1e bc 3d
       0.028764343 0.077127576 -0.019388743 0.09185491
000030 ba 97 ae 3d 9b 16 d8 bc ee e1 19 3d 63 60 2f 3c
       0.08525033 -0.026377967 0.03756898 0.010704133
000040 98 a4 f7 3d b1 2f b4 3d 5e 53 aa bd 66 7b 2e 3c
       0.12091941 0.08798159 -0.08316682 0.010649538
000050 25 e7 90 3d e6 b3 be 3d 69 6f 3b 3d bf e4 63 3d
       0.07075337 0.09311657 0.045760546 0.05563807
000060 f5 27 bf bc 4e d6 18 3a 39 a8 ae bd 21 b3 d5 3d
       -0.023334483 0.0005830274 -0.0852818 0.10434557
000070 21 04 c5 3d 3d 53 86 bd d8 e6 de bd c7 1e d1 3d
       0.09619928 -0.06558845 -0.10883874 0.102109484
000080 70 9c df bd f9 54 a0 3d ed bc f6 bd 18 6a 8c bd
       -0.1091851 0.07828707 -0.120477535 -0.06856173
000090 85 9a 51 bd de 23 f6 3d 5a e2 bc bc 0b 1b e7 3d
       -0.051172752 0.1201856 -0.023057152 0.11284455
0000a0 85 1e 15 3d ce 79 fb 3d e2 62 ae 3d 99 74 b4 3d
       0.03640606 0.12279092 0.08514954 0.08811302
0000b0 94 68 dc 3d 80 b5 00 bd 8f 2e f4 bc 37 01 28 3d
       0.10762134 -0.031423092 -0.029807357 0.041016784
0000c0 65 1e e0 3d 14 0f 38 bd 21 c6 ca bd 02 74 c3 bd
       0.10943297 -0.044936255 -0.09901071 -0.09543611
0000d0 39 ac 78 bd 0c 25 b5 3c d3 79 57 bc 66 24 fc bc
       -0.06071112 0.022112392 -0.013151604 -0.030779075
0000e0 57 75 69 bd 99 78 f8 3c 61 18 d0 bd 2e 4c 00 3e
       -0.05699667 0.030330943 -0.101609 0.1252906
0000f0 bb 6f 90 bc 0d 1a e0 3c ea c7 2f 3d b2 cb 43 bd
       -0.017631402 0.027356172 0.042915262 -0.04780168
000100 34 b2 c9 3d 9b 07 3c bb 9c b8 51 3c 5a 24 f0 bd
       0.09848443 -0.0028691057 0.012800362 -0.117256835
000110 cf 50 60 3c e8 23 39 3d bc 4b bb 3c f8 ad 23 bc
       0.013691141 0.04520026 0.022863261 -0.009990208
000120 b5 73 ca 3d e4 b7 c8 3d 37 11 b0 3d 0f f6 dd bc
       0.098853506 0.09800699 0.085970335 -0.027094869
000130 54 29 db 3c 8a 96 b9 bd 82 b4 b6 bd ba cb 9a bc
       0.026753105 -0.09061916 -0.08921148 -0.018895973
000140 6b 3a 41 3c 74 87 98 bd b2 04 d6 bd c8 5b 5f 3d
       0.011793713 -0.07447711 -0.10450114 0.05453089
000150 13 03 3b 3d 0f 61 b2 bd 54 ef b0 3d af 5c b9 bd
       0.04565723 -0.08709919 0.08639398 -0.09050881
000160 3f a3 c2 3d 11 84 85 3d dc f3 20 bd 36 4e f0 3d
       0.09503793 0.0651933 -0.039295062 0.117336676
000170 77 1b 9a bd b4 ab 55 bd ae f9 c7 3d 92 c0 ff bc
       -0.0752477 -0.052165702 0.097644195 -0.031219754
000180 39 f6 51 bd 20 19 ab 3c 4f 2c 98 bc 46 9e 98 3d
       -0.051260207 0.020886004 -0.018575815 0.07452063
000190 b8 b5 d6 3d 67 cb 66 3d 6d 26 d9 3c dd 54 f1 3c
       0.10483879 0.056346323 0.02650758 0.029459411
0001a0 6d 80 4a 3b 3e ef 83 3c a4 6e c6 3b 2a 08 ac 3d
       0.0030899302 0.01610529 0.00605567 0.08399995
0001b0 1d e4 90 3d 8f 3a 06 bc bb 84 50 3d d4 20 e4 3b
       0.07074759 -0.008192672 0.05090783 0.006961921
0001c0 99 9b 33 3d da 2f ce 3d df 1c b5 bd 4f b9 92 3c
       0.04384956 0.10067721 -0.08843397 0.017910628
0001d0 37 c9 dc bc 67 bb f6 bd 03 b5 ef bd e0 2a ae bc
       -0.026951415 -0.12047463 -0.11704447 -0.021260679
0001e0 a6 cd b3 3d f7 07 a4 bd 67 38 27 3d 1b d9 93 3d
       0.08779459 -0.08009332 0.040825274 0.07219144
0001f0 d5 70 ba bd 01 cb 5f 3d 60 77 c1 3c d2 ab e2 bd
       -0.09103552 0.05463696 0.023616493 -0.110679284
000200 7d 64 9a b8 6b 60 f0 bd 69 55 e3 3d 45 cc 79 3d
       -7.36201e-05 -0.1173714 0.11100275 0.060985822
000210 86 9d 3f 3d 52 ae c6 3d 5e b6 c6 3d 37 2b 00 3e
       0.046781085 0.09701218 0.097027525 0.12516485
000220 16 a5 62 3d b2 1b b8 bd 0e f1 ea 3d 13 9d eb 3c
       0.05533322 -0.089896575 0.11471759 0.028761422
000230 7d 36 35 bd 4a d7 3e bd 3a 72 f7 3d 4f f7 f8 3c
       -0.044241417 -0.046592034 0.12082334 0.030391363
000240 b1 a3 b8 3d f3 1f 3c 3c 33 3f f1 3d 7a a2 be bd
       0.09015597 0.011482227 0.117796324 -0.09308334
000250 b4 cf 00 3d 08 03 cc 3c c7 2f 37 3b 87 45 e9 3d
       0.03144808 0.02490379 0.0027952062 0.113902144
000260 0e eb df 3c 14 e7 5b 3b ee 19 b4 3d 76 47 05 bc
       0.027333762 0.0033554481 0.08794008 -0.008134713
000270 50 e6 0b bc 21 e7 d1 bd 52 7c ec ba 38 45 62 bd
       -0.0085387975 -0.102491625 -0.0018042421 -0.055241793
000280 13 92 99 3d 07 10 df 3d 51 51 eb bd ff 01 9f bd
       0.074985646 0.10891729 -0.11490119 -0.077640526
000290 15 a0 f5 3d ed 17 5a bd fe a9 e3 3d a5 01 fc 3d
       0.11993424 -0.053245474 0.11116408 0.12305001
0002a0 97 b8 ed bc f8 77 cd bd c5 1d 82 3d bc 57 6b 3d
       -0.029018683 -0.10032648 0.06353334 0.057456717
0002b0 cf 07 dd 3d 9f 7f af 3c 90 7b 92 3d e2 18 e1 bd
       0.10792505 0.02142316 0.07152474 -0.10991074
0002c0 9a ba 90 3c 83 f0 f6 3c 34 ed 98 3d 15 eb 8d bd
       0.017667104 0.030143982 0.07467118 -0.06929604
0002d0 e1 d6 82 bc c8 e4 92 bd 99 d0 a7 bd a0 82 52 3d
       -0.015971603 -0.07172543 -0.08194084 0.051394105
0002e0 d4 59 aa 3c 29 e3 43 3d cc 12 5c bb ef 03 72 bb
       0.020794787 0.04782406 -0.003358054 -0.0036928614
0002f0 aa b5 b9 bb 2a e1 89 3d 0a c2 b2 bd 27 2b e3 3c
       -0.005667408 0.067324 -0.08728416 0.027730538
000300 8e 5f 8c 3d 36 7a 94 3d b0 b2 75 bd e2 3d c6 3d
       0.06854163 0.072498724 -0.059984863 0.09679772
000310 32 9d aa bd f0 7c 85 3d 88 68 d1 3d f4 6c 83 3b
       -0.08330764 0.065179706 0.10225016 0.004010791
000320 20 db 1c 3d 94 83 f2 bd bc 86 4a bd 14 29 49 bd
       0.03829491 -0.11841503 -0.0494449 -0.04911144
000330 38 58 ee bd 74 d8 d8 bc e6 b7 b2 3d 34 8a 43 bc
       -0.1163792 -0.0264704 0.08726482 -0.011934806
000340 26 f9 fc 3d d2 71 e6 bd 70 31 4c 3d 9e 5d dd 3d
       0.12352209 -0.11252178 0.049851835 0.10808872
000350 3e d2 f8 3d b4 9c 46 bd 48 25 e7 bd 98 2e 3c bd
       0.121494755 -0.048489287 -0.11286408 -0.045942873
000360 56 c6 bd 3d 64 70 33 3c 44 af f4 3d ea ec ba bd
       0.09266345 0.010952089 0.11947492 -0.09127219
000370 6c 4d a0 bd 4a 77 82 3d d4 8d 2f 3d 76 51 a6 bd
       -0.07827267 0.06370409 0.042859867 -0.08121006
000380 2c 29 ee 3d 88 75 45 bd e0 c2 d4 bd d4 49 0e 3d
       0.11628947 -0.04820779 -0.10388732 0.034738377
000390 74 6b 8f bd 4c a6 73 bd d0 02 8f bd 14 42 0b 3d
       -0.07002917 -0.059484765 -0.06982958 0.033998564
0003a0 5c de 6f 3d 36 2d ac 3d 9e dc 90 bd dc 51 ef bc
       0.058561668 0.08407061 -0.070733294 -0.029213838
0003b0 ba f4 ee 3d 52 81 83 bd bc 11 39 bd 64 e6 c4 bc
       0.11667772 -0.0642115 -0.04518293 -0.02403564
0003c0 dc ae e2 bd 50 37 bd bd 54 11 e4 3d 1c 06 bd 3c
       -0.11068508 -0.09239066 0.111361176 0.023074202
0003d0 6c 53 bf 3c d0 f8 4a 3d 8a af 9b 3d 58 f5 ab 3d
       0.023355208 0.049553692 0.07601841 0.08396405
0003e0 3c 5b b7 3d 34 a6 4e 3d 66 fd c0 3d a0 43 a7 3d
       0.089529485 0.050451472 0.09423332 0.08167195
0003f0 2c 39 ab bc b4 79 38 3c b4 18 86 bd 7e a1 c0 bd
       -0.020901285 0.011259485 -0.065476805 -0.09405802

node_embeddings.contador.bias f4 [64]
000000 5c 6d 93 3d 29 c3 ca bd ff d0 ae bd d8 be 9d bd
       0.07198593 -0.09900505 -0.085359566 -0.07702416
000010 6c 86 06 bd d4 5d 48 3d 1b e0 b5 3d 01 d0 fe 3d
       -0.03284304 0.048917606 0.08880635 0.12442017
000020 04 27 ec bc 38 84 07 3d 24 31 10 3c e9 13 88 3d
       -0.028827198 0.033085078 0.008800779 0.066444226
000030 84 8a 7d 3d 29 46 8d 3d a6 b3 b5 3d c5 a5 d0 3d
       0.061899677 0.068981476 0.08872156 0.10187868
000040 7d 65 03 3c fa 35 b3 3d 8f c1 96 bd e1 6b 02 bd
       0.008019802 0.087505296 -0.07361137 -0.031841163
000050 f1 35 1b bd 04 4d 19 bd 4d cb 25 3c 24 db f0 bd
       -0.03789324 -0.037426963 0.010119271 -0.11760548
000060 0c 12 8c bd d4 fb 3f bc 03 53 bc 3c b9 46 ba 3d
       -0.0683938 -0.011717755 0.022988802 0.090955205
000070 3f fc ab bd 48 a1 f7 3c 66 f4 78 3d 3a 98 88 bd
       -0.083977215 0.030228272 0.06077995 -0.0666966
000080 94 23 ae 3c e0 2d 86 bd 07 f7 99 bb 2c ac 8c bd
       0.0212572 -0.06551719 -0.0046986374 -0.06868777
000090 80 7d 10 bd 50 8b 4a bd 54 43 de 3d 0c 25 f7 3c
       -0.035275936 -0.049449265 0.108526856 0.030169033
0000a0 fa da fb bd 6f 94 36 3c 0a 9a 8b 3d 64 f7 5e bd
       -0.12297626 0.011143788 0.0681649 -0.05443515
0000b0 62 17 99 bd 1c 10 c9 bc 06 20 e2 bd d4 7e 3e bd
       -0.07475163 -0.024543814 -0.11041264 -0.04650767
0000c0 6e 8e 3d 3c 68 fe be bd f2 26 f3 bd 0a 32 98 bd
       0.011569602 -0.09325868 -0.118726626 -0.07431419
0000d0 86 01 bb bd 7e 89 72 3b fb 28 43 3d ae 9a a5 3d
       -0.0913115 0.0037008221 0.047646504 0.080861434
0000e0 42 ce ff 3d da 7c 8e 3d 5c 28 67 bd 54 05 88 bc
       0.124905124 0.06957407 -0.056434974 -0.016604103
0000f0 c8 76 83 bd a5 1a 92 3d 28 b3 2a 3d 58 ff 6b 3d
       -0.0641914 0.07133988 0.041674763 0.05761656

node_embeddings.suministro.weight f4 [64, 47]
000000 10 be c4 bd 75 bb e4 3d 81 69 05 be fb 73 93 3d
       -0.09606564 0.11168567 -0.13028528 0.07199856
000010 5c 99 ff bd cc d1 e3 3d d5 db af bd 3c 27 e5 bd
       -0.12480423 0.11124 -0.085868515 -0.11189124
000020 9f 0d 9b 3d 4c 69 02 3e c6 c3 42 bc 58 9b 6d 3d
       0.075709574 0.1273548 -0.011887496 0.058009475
000030 98 b5 09 3e ca 62 f3 bd 66 fe 79 3d a8 49 08 3d
       0.13448179 -0.11884077 0.06103363 0.03327337
000040 7d 78 a7 bd fa a6 ac 3d ac 21 06 3e 6e 48 de 3d
       -0.08177278 0.08430286 0.13098782 0.108536586
000050 36 e0 da bd 39 79 03 3e df a8 fa 3d 98 9f 60 3d
       -0.10687296 0.12839212 0.12239241 0.0548397
000060 c3 b8 ca bc fa 35 ef 3d 3b 06 c9 bd 23 ec b0 bd
       -0.024746304 0.11680217 -0.098156415 -0.086387895
000070 bf 10 9c 3d 8b 51 c6 3d cf a4 6f bc e8 93 09 3e
       0.076203816 0.09683522 -0.014626696 0.13435328
000080 88 20 9a 3d f1 0c 8b 3d 8e 89 fa 3d 71 41 11 3e
       0.07525736 0.06789578 0.12233268 0.1418512
000090 3a 82 d0 3d c4 cd f2 3d f3 a8 5d 3c fd 09 ed 3d
       0.10181089 0.11855653 0.01352905 0.11574171
0000a0 15 d8 99 3d 3d f4 8a bd 59 7b b0 3d 10 60 d7 3b
       0.075119175 -0.06784866 0.08617277 0.006572731
0000b0 ce 64 55 bd 2c da dd 3d 43 b2 1c 3d 93 81 e7 3d
       -0.052098088 0.108326286 0.03825594 0.11304011
0000c0 44 97 06 3d 99 90 34 3d 4d e2 b8 3d 79 e3 0b bd
       0.032859102 0.04408321 0.090275384 -0.03415248
0000d0 8a 96 b3 3d a1 69 9a bd 1d a3 a9 bc d4 e6 3b 3c
       0.087689474 -0.07539678 -0.020707661 0.011468608
0000e0 04 f9 ce 3d 9d b8 83 3d 10 8e 14 3e 45 b1 a8 bd
       0.1010609 0.064316966 0.14507318 -0.082369365
0000f0 ca 04 36 bc 23 cf 7d bc 9e 54 f4 3d f8 b3 0c 3e
       -0.01110954 -0.01549128 0.11930202 0.13740528
000100 7d 53 17 3d ca d2 ef bd ed 86 d2 bd f6 52 e9 3c
       0.036944855 -0.11710127 -0.10279641 0.028481942
000110 8f 4f 00 be 9c a6 4e bd 60 5b da bd a6 2b 9c 3d
       -0.12530349 -0.05045186 -0.1066196 0.07625513
000120 5f 81 ce bc a5 fd e6 bd b8 55 c8 3d ee 86 07 be
       -0.025208173 -0.112788476 0.097819746 -0.13235065
000130 ce e0 52 bc a1 27 0f 3e 70 60 92 3d 9e 9b fb bd
       -0.01287098 0.13979961 0.071473 -0.12285541
000140 73 48 78 3c 0d 23 b3 bc d2 04 85 3d 85 38 0a 3e
       0.015153992 -0.0218673 0.0649506 0.13498123
000150 95 5e 00 3e 66 e9 3d bc bc 4e 84 3d 38 bc 10 be
       0.1253608 -0.011591291 0.0646033 -0.141343
000160 a5 ca e4 3d 40 0f 98 3d 15 7a ca bd 70 d5 37 bd
       0.11171464 0.07424784 -0.098865665 -0.044881284
000170 b9 60 6d bd b2 fa af bd 31 15 71 3d 9c 80 36 bd
       -0.05795357 -0.08592738 0.0588581 -0.044556245
000180 5d 0e 7b 3d aa 6a 3c bd e9 a4 e5 3d fa fe 70 bd
       0.061292995 -0.04600016 0.11213095 -0.058836915
000190 55 8d b2 bc 93 a8 40 bd 21 df 1e 3c 67 b9 5e bd
       -0.021795908 -0.047035765 0.009696753 -0.054376032
0001a0 ba 9a d5 bd be 51 0d be 70 63 b8 3d e4 cc a5 3c
       -0.104299024 -0.13800713 0.09003341 0.020239301
0001b0 ae 4c c3 bd 5e c8 9a 3d 75 b5 9b 3c 17 de 63 bd
       -0.0953611 0.07557748 0.019007424 -0.055631723
0001c0 dc 68 72 bc 4b aa 84 3c fa 54 d3 3d 72 8d 0c be
       -0.014795508 0.016194483 0.10318942 -0.13725832
0001d0 54 dc e7 bd 03 e9 f4 bd 0b 6d e7 bd 27 be 3f 3a
       -0.11321321 -0.11958506 -0.11300095 0.00073144067
0001e0 81 43 a7 3d 22 5b 1e 3d af 70 6f 3d e4 c3 8f 3c
       0.08167172 0.03866113 0.058457073 0.017549463
0001f0 74 2f 36 bb 15 d1 07 be 5f 7c 06 3e 3b 25 0d 3e
       -0.002779928 -0.13263352 0.13133381 0.13783734
000200 fb cb e3 ba 47 6e d6 3c 5c 3b dd 3c fc d0 13 3e
       -0.0017379517 0.026175631 0.027005844 0.1443519
000210 55 9c 1f 3b 7b a2 d9 bc 61 db a3 bd 1c 88 0d 3d
       0.0024354656 -0.026566735 -0.080008276 0.034553632
000220 c7 26 8d 3d a4 2d 01 be 6d b3 56 3d 28 96 12 3d
       0.06892162 -0.12615067 0.052417208 0.03578773
000230 f8 81 84 3d 54 4b 90 3d 2c 1c 22 bd 5f 2a b2 3c
       0.06470102 0.07045618 -0.039577648 0.02174872
000240 9d b9 cf bd 9f db b1 3d 21 6f f5 bd 15 d9 02 be
       -0.10142825 0.086844675 -0.11984087 -0.12778123
000250 61 30 e2 bd 41 cb ab bd d6 c9 ce 3b c8 ac c8 3d
       -0.11044384 -0.08388377 0.006310682 0.097985804
000260 cf 75 9e bc bc 2e d9 3d 0f 75 d9 bc cd 8d fe 3d
       -0.019343285 0.10604617 -0.026545076 0.1242939
000270 3c a0 c8 3d 99 7b bd 3d 01 d2 77 3d f6 7f cb bd
       0.09796187 0.0925209 0.06050301 -0.09936516
000280 54 13 12 3e 30 df 10 be bd 50 d9 bd d9 13 ba bd
       0.14265186 -0.1414764 -0.10611103 -0.09085817
000290 da 4f 2c bd 1d 9b 8d 3d 80 eb 04 3d 6a a5 fa bd
       -0.04206834 0.06914351 0.032451153 -0.122385815
0002a0 4e 28 12 3e 6b cb 0b 3e bc 2b 90 3d 56 52 13 be
       0.14273188 0.13651817 0.07039592 -0.14386877
0002b0 a7 23 b0 3d 5d db 2f 3d 81 7d 9e bc 5e d2 fe bd
       0.0860055 0.04293381 -0.019346954 -0.12442468
0002c0 86 d8 f8 3d 2e 77 36 bd f9 bd f3 bd 43 67 e6 3d
       0.121506736 -0.044547252 -0.11901469 0.11250164
0002d0 a1 95 77 3d 4d 4a 2e 3d c4 99 ba 3d 09 36 4a 3d
       0.06044543 0.042551327 0.0911136 0.04936794
0002e0 4d 6d 01 bd 1d 3a aa bc be f4 f5 3d d6 d9 bc bb
       -0.031598378 -0.020779664 0.120095715 -0.0057632728
0002f0 c6 86 f9 bd b6 6e ce bd 87 d5 e2 bd f7 65 4a 3c
       -0.12183909 -0.1007971 -0.11075883 0.012353412
000300 a1 12 dd 3d 70 67 ac 3d fc 12 26 3d c7 88 4a 3d
       0.10794569 0.08418167 0.04054545 0.049446847
000310 45 3d 89 bd 5b fd 09 3e a9 3b 5d 3d bd 93 b6 bd
       -0.06701139 0.13475554 0.054011974 -0.089148976
000320 dc b0 cb bd fa 66 05 be 4b a8 33 bd a6 52 db 3d
       -0.099458426 -0.13027564 -0.04386167 0.10709123
000330 e9 e0 f4 3b d0 4e 8c bd 5f a6 22 3d 59 7e d3 bd
       0.0074731004 -0.0685097 0.039709445 -0.10326833
000340 e7 e6 37 3d 55 5e c3 3d 5e 13 92 3d f9 27 27 bd
       0.04489794 0.09539477 0.071326 -0.040809605
000350 7b f8 46 bd 8b 19 7c 3d 13 7f b4 3d 93 35 04 bd
       -0.048576813 0.061547797 0.088133 -0.032277655
000360 df 58 8a bb f5 79 83 bc 34 6f 8c bc 07 86 08 be
       -0.00422202 -0.016049365 -0.01714287 -0.13332377
000370 2b 8e fc bd 7c 58 01 3e f8 8d 8a bd 8c 1a de 3d
       -0.12331804 0.1263141 -0.0676536 0.10844907
000380 7c 29 ba 3d 80 c1 b5 bc 6b 0a 8d bd ba fc f8 3b
       0.09089944 -0.022186995 -0.06886753 0.0075984867
000390 bb da d1 bc e9 3c b4 bd 58 1d 0f 3e 30 c9 18 bc
       -0.025616994 -0.0880068 0.13976038 -0.009325311
0003a0 cb 72 c9 bc cc f1 cd bd 04 59 c2 3c 1b fd b2 3c
       -0.02459087 -0.10055885 0.023724087 0.021849206
0003b0 bc 66 12 3e 4a e8 3f bd a0 4e a2 3d a2 2c 43 3b
       0.14297003 -0.046852387 0.07925153 0.0029781242
0003c0 81 e0 a2 3d 60 26 8c 3b a0 34 cf bc 37 4d 75 3d
       0.07952977 0.0042770356 -0.025293648 0.05988809
0003d0 d7 0f 85 bd 95 05 b2 3d b4 8f 00 be f2 b7 d4 bd
       -0.06497162 0.08692471 -0.12554818 -0.10386647
0003e0 00 59 0e 3e 24 cf 61 bd cd 71 ed bd 2b be d8 bd
       0.13901138 -0.055129185 -0.115939714 -0.10583147
0003f0 16 26 10 3e 0a 1f b3 bc e1 37 fb bd 6e 31 c4 bc
       0.14077029 -0.021865387 -0.122665174 -0.023949351

node_embeddings.suministro.bias f4 [64]
000000 a6 ff ab bc 8e b2 d8 bd 0a e4 87 3d ad 24 14 3d
       -0.020995926 -0.105809316 0.06635292 0.03616779
000010 f6 e9 b4 3c 8b 07 12 3e 65 a5 d5 bc e4 41 bb 3d
       0.022084218 0.1426069 -0.026079843 0.09143427
000020 c4 2b 97 bd b5 66 96 bd 1d 52 1d 3d 91 6e a0 bd
       -0.073813945 -0.073438086 0.038408387 -0.07833589
000030 a4 f2 7d 3d 49 35 0a be 00 60 62 bd e6 94 16 3e
       0.06199898 -0.13496889 -0.055267334 0.14705238
000040 3e cb 4d bb 7d 6b 9f 3d a8 92 07 3e 42 23 26 bd
       -0.003140166 0.07784174 0.13239539 -0.04056097
000050 09 ec 09 bd 5d d1 9a bc f3 19 9c bd 62 b5 21 bb
       -0.033672366 -0.01889866 -0.07622137 -0.0024674763
000060 70 3e 8f 3d bd 8a 05 3e 41 d7 d0 3d df f3 14 3e
       0.06994331 0.13041206 0.101973064 0.14546154
000070 a6 bd 99 bd 00 6d cf bd cd 89 14 be a1 21 b7 3d
       -0.07506876 -0.10128212 -0.14505692 0.08941961
000080 62 0e 79 3d 87 b3 1e bd 02 b4 f2 3d 72 88 de bd
       0.060804732 -0.03874543 0.1185074 -0.10865869
000090 45 e3 94 bc ae 6a 8f bb b6 d7 6c 3d 93 78 f8 3d
       -0.018174777 -0.004376731 0.057822905 0.12132373
0000a0 cc 1e b0 bd 79 f3 19 3e 56 aa 0c 3e 6a 61 28 3d
       -0.08599624 0.15034284 0.13736853 0.041108526
0000b0 70 14 c8 bd 37 ea 44 3d 0a 1a d7 3c c2 25 68 bd
       -0.09769523 0.048074927 0.026257534 -0.056676634
0000c0 82 78 10 3e 28 57 f1 bd bf 80 55 bd 28 5a 6e bd
       0.1410847 -0.11784202 -0.052124735 -0.05819145
0000d0 d0 c5 30 bd fa eb d7 3d 0a e3 1a bc 92 b1 b1 3c
       -0.0431574 0.10543056 -0.009453544 0.021691117
0000e0 1b 94 08 be 30 cb d1 bd 62 07 be 3d c5 a4 2b bd
       -0.13337748 -0.10243833 0.09278752 -0.041905183
0000f0 58 38 60 3d 86 f4 f0 bd e3 27 a4 bd b5 14 90 3d
       0.054741234 -0.11765389 -0.0801542 0.070351996

node_embeddings.comercializadora.weight f4 [64, 11]
000000 60 6c 59 3e c0 85 99 3c 7e ca 8b be dd 3e 42 be
       0.21232748 0.018740535 -0.27302927 -0.18969293
000010 c2 aa e0 bd 46 b4 0f 3e e8 14 7b be 98 49 46 be
       -0.109700695 0.14033613 -0.24519694 -0.19364011
000020 68 6a 99 be b0 cb 59 be 2c 7e 5f 3e 6e 5f e6 bd
       -0.29963994 -0.21269107 0.21825475 -0.112486705
000030 88 a5 91 bd 60 37 18 3c 54 4d 74 bd 66 96 d3 bd
       -0.07111651 0.009290546 -0.05964406 -0.103314206
000040 40 16 c8 bb 28 ca 1a be 88 da 43 3e c0 c2 46 bc
       -0.006106168 -0.15116179 0.19126332 -0.012131393
000050 54 1b 0a 3e 90 df 14 3d 98 a1 68 3e ea 2f 16 3e
       0.13486987 0.03634602 0.22717893 0.14666715
000060 d7 37 1b be c2 20 91 bd 84 7f 8e 3d f2 c6 de bd
       -0.1515802 -0.07086326 0.069579154 -0.108777896
000070 2a 03 56 be 90 6a 81 3e 54 5c 4f 3e 54 3f 1a be
       -0.20899644 0.25276613 0.20250064 -0.1506322
000080 8c 8c 8e 3d 10 e0 5f 3e ee 13 3b be 00 7c 4b bd
       0.06960401 0.21862817 -0.18269321 -0.049678802
000090 b2 9c 7e be 10 41 8d be 8c 62 75 3e d4 1e d8 3d
       -0.24864462 -0.275887 0.23963374 0.10552755
0000a0 17 aa 48 be 40 4d b7 bc 40 9c 0f be 60 19 61 bd
       -0.19596134 -0.022375703 -0.14024448 -0.05495584
0000b0 ee 81 85 bd 18 99 c3 3d e0 b1 55 3d 04 56 51 be
       -0.06518923 0.09550685 0.052171588 -0.20442969
0000c0 08 ae 1a 3e 80 00 b6 3c 77 41 21 be 43 5b 33 be
       0.1510545 0.022217035 -0.15747629 -0.17515282
0000d0 80 06 da bb 1c ec d6 3d b2 91 8e be 52 98 8f bd
       -0.006653607 0.10494253 -0.27845532 -0.07011475
0000e0 06 19 5f be c6 59 90 be 6a 75 25 3e da 22 d4 bd
       -0.2178689 -0.28193492 0.16158071 -0.1035821
0000f0 5a 23 93 be 3e d3 b1 bd 4d 86 2a be aa e6 26 3e
       -0.2873791 -0.086828694 -0.16652794 0.16298929
000100 50 eb 41 bd 87 21 3b be 16 68 fc bd 40 99 88 bd
       -0.047343552 -0.18274508 -0.1232454 -0.06669855
000110 1c 4c 6c 3e 70 99 e0 3c 9d 55 74 be bc e1 9f bd
       0.23075908 0.027416915 -0.23860784 -0.07806727
000120 ae 43 8e 3e ec e8 83 be 00 8a e7 bd 44 78 86 3e
       0.2778601 -0.25763643 -0.11305618 0.2626363
000130 02 0c f9 bd ac 2c 6b 3e de 31 4a be a0 b5 69 3e
       -0.121604934 0.2296626 -0.19745585 0.2282319
000140 90 04 4c 3e 18 e0 66 bd 8e 32 8f be 70 dc d0 bd
       0.19923615 -0.056366056 -0.27968258 -0.10198295
000150 c0 a6 9a 3d 3a cf ce bd 32 69 76 be a4 71 88 be
       0.07551336 -0.10098119 -0.24063566 -0.266492
000160 50 04 13 3e 00 8f 5e 3e 1a e3 e9 bd 40 c9 3c 3c
       0.14357114 0.21734238 -0.11420269 0.011522591
000170 1a 00 3d be 68 44 32 3e d4 e2 4a be d5 1a 2f be
       -0.1845707 0.17408907 -0.1981309 -0.1710008
000180 14 6c fb bd 54 cb 62 bd 88 9e 18 3d 2f 87 91 be
       -0.12276474 -0.05536969 0.037260562 -0.2842345
000190 1c d3 e1 bd 5c ff 05 be 30 de 7a bd c0 9c 8c bc
       -0.11026594 -0.13085693 -0.06124705 -0.017164588
0001a0 60 77 67 3c 90 a6 1d 3e af c5 2f be c0 8f d7 3b
       0.014127582 0.1539557 -0.17165254 0.0065784156
0001b0 9e 49 8c 3e 18 6b 1e 3d b8 5a 65 be 40 53 53 3e
       0.27399915 0.03867635 -0.22397888 0.20637226
0001c0 bd fe 88 be 8c f8 fa 3d 34 9d 7f 3e e8 c7 1a 3d
       -0.2675685 0.12254438 0.24962312 0.0377883
0001d0 88 9b 25 3e 14 fe 74 3e a2 fa 0c 3e 0a 81 b9 bd
       0.16172612 0.23925048 0.13767484 -0.090578154
0001e0 ec 43 86 3d 40 b8 79 3e 34 c8 90 3d be 60 75 be
       0.06555924 0.24386692 0.07069436 -0.23962685
0001f0 ae 54 86 3e b4 9a 95 3e a8 2a 33 3e ac d8 27 3e
       0.2623648 0.29219592 0.17496741 0.16391248
000200 da 77 2d 3e e0 74 3b be ba 57 b9 bd 5c 71 05 3e
       0.16940251 -0.18306303 -0.09049936 0.13031524
000210 04 45 9d 3d 6e 33 03 3e 40 fe ba bb f5 c4 94 be
       0.07679179 0.12812588 -0.0057065785 -0.29056516
000220 6a 58 12 3e f4 32 42 be ee 23 7f be 50 aa 98 3e
       0.1429154 -0.1896475 -0.2491605 0.29817438
000230 b2 1a 08 3e 24 71 19 3e a0 45 07 be a0 8d e3 3d
       0.13291433 0.14984566 -0.13210154 0.11110997
000240 40 eb d1 3c c4 99 52 3e 08 77 10 3d ee f9 89 3e
       0.025624871 0.2056647 0.035269767 0.26948494
000250 f8 a0 90 bd 30 75 8e 3e ce e2 98 3e 28 13 12 3d
       -0.07061952 0.27823782 0.29860538 0.0356628
000260 fe 5e 62 be 00 a0 f7 38 74 c2 75 3e ac f1 52 be
       -0.22106549 0.0001180768 0.23999959 -0.20600003
000270 c8 ae dc bd 0c 4a df 3d 70 f0 7a 3d 2c 1e 91 3e
       -0.107755244 0.10902795 0.061264455 0.28343332
000280 50 6a 4b 3d 00 1c 17 bb b0 4f 22 3d e8 06 7e bd
       0.049661934 -0.002305746 0.039626777 -0.062018305
000290 31 1e 8e be 6a 95 d8 bd df f0 8b be e0 e7 61 3e
       -0.2775741 -0.105753735 -0.27332208 0.2206111
0002a0 40 72 95 3c b8 cd 0f 3d 00 6c ab bc b3 6a 1e be
       0.018242955 0.035108298 -0.020925522 -0.1547039
0002b0 30 d1 59 be d8 07 3d bd ac d4 ba 3d 3a f5 28 be
       -0.21271205 -0.04615006 0.09122595 -0.16499797
0002c0 10 04 3f be 26 98 48 3e 9a 65 d6 bd 20 f1 2d 3e
       -0.18653893 0.1958929 -0.10468598 0.16986513
0002d0 6c c9 93 3e d2 18 91 3e 1a b6 6e be 40 35 b7 3c
       0.2886461 0.2833925 -0.23311654 0.022364259
0002e0 46 17 72 be 00 e4 4b 3c d8 be 2b 3d 32 a2 05 be
       -0.2364169 0.012444496 0.04193005 -0.13050154
0002f0 ec 46 b7 3d 5a 94 c1 bd aa f3 2d 3e 80 60 3c 3b
       0.08949074 -0.09452124 0.16987482 0.0028744042
000300 0c 4f 56 3e b0 ae 50 3e 70 e3 89 3d b0 8e 66 3d
       0.20928591 0.20379138 0.067328334 0.05628842
000310 72 bd 0b be 90 e2 4b be e0 28 50 3e a4 bf 4b 3e
       -0.13646486 -0.19910645 0.20328093 0.19897324
000320 d8 ab 41 3d ec 85 81 3e 32 36 21 3e 24 af 49 3e
       0.047283024 0.25297487 0.1574333 0.19695717
000330 20 e1 6c bd 28 89 30 3d ea cb 8a be 6b 0d 8d be
       -0.057831883 0.043099552 -0.271087 -0.275493
000340 3c cd 12 3e 77 1c 3a be ec 25 6b 3e 22 21 79 be
       0.14336103 -0.18174921 0.22963685 -0.24329045
000350 b9 96 7f be 70 70 7d be ca 25 46 3e 1f a6 4c be
       -0.2495984 -0.24749923 0.19350353 -0.19985245
000360 27 63 84 be e8 6b 02 3e c0 1a 79 bd c9 08 93 be
       -0.25856897 0.12736475 -0.060816526 -0.2871764
000370 8c f8 5a 3e c0 c5 5f 3e 70 a8 77 3e ba cf 41 3e
       0.21383876 0.2185278 0.24185348 0.18926898
000380 b2 5c 6f be aa ea 07 be e4 aa f2 bd 55 21 96 be
       -0.23375204 -0.13273111 -0.11849001 -0.29322305
000390 18 c3 57 3e 74 e3 f9 bd ec f0 d3 3d a2 ff 1c be
       0.21070516 -0.12201586 0.103486866 -0.15331891
0003a0 36 56 8a 3e b4 8c 59 3e d0 16 55 3e e2 1d 17 3e
       0.270189 0.2124508 0.20809484 0.14757493
0003b0 8a 38 81 3e c8 e3 c9 3d 60 0a 53 3d f0 3b 8b bd
       0.25238448 0.09857899 0.051523566 -0.067985415
0003c0 5c e3 7a 3e f1 f4 94 be 38 82 5c 3e d0 b3 e9 bc
       0.24500793 -0.29093125 0.2153405 -0.028528124
0003d0 c0 83 a3 bc ce f9 4a be ff fc 06 be c8 f5 68 3d
       -0.019960284 -0.19821855 -0.13182448 0.05687502
0003e0 52 9f fb bd d4 d4 db 3d 00 fb 2d 3d 64 69 83 be
       -0.12286247 0.10733953 0.0424757 -0.25666344
0003f0 94 be 28 3e 92 f0 07 be 60 1a df bd e0 42 e3 bd
       0.1647895 -0.13275364 -0.108937025 -0.1109674

node_embeddings.comercializadora.bias f4 [64]
000000 d8 1b 20 bd 9e 65 21 be d8 e4 80 3e d0 ac 8f 3e
       -0.039089054 -0.1576142 0.25174594 0.28061533
000010 62 ad 23 3e c8 d7 71 3e 35 02 8b be f1 83 8b be
       0.15984109 0.2361747 -0.2715012 -0.272491
000020 ae b8 28 3e 0c a5 8a bd f8 47 03 3e 5c 76 8f 3e
       0.164767 -0.067697614 0.12820423 0.2801999
000030 c4 14 8d bd 25 09 24 be 18 a5 90 3e 90 02 14 be
       -0.06888726 -0.16019113 0.28250957 -0.14454103
000040 20 ea 30 be 40 c6 77 3e 00 18 4b bc ab 95 16 be
       -0.17276812 0.2419672 -0.012395859 -0.14705531
000050 8c 3c dc 3d 30 05 1c be c0 0c 34 3c d7 3c 73 be
       0.10753736 -0.15236354 0.010989368 -0.23753677
000060 8a 0f 95 bd 5c 86 6f 3e 60 e7 31 3d 58 4b 27 bd
       -0.072783545 0.23391098 0.043433547 -0.040843338
000070 18 22 6a 3e 84 37 27 3e 66 43 2d 3e 70 81 12 3e
       0.22864568 0.16329771 0.16920242 0.14307189
000080 d0 4a d3 bd 53 70 89 be f9 d4 36 be 1a 85 37 be
       -0.10317004 -0.2684351 -0.1785468 -0.17921868
000090 60 f5 ab 3d e8 98 77 3e f2 b3 8e 3e e8 3b 77 3e
       0.08396411 0.24179423 0.27871662 0.24143946
0000a0 78 3c 2f 3d 78 a1 54 3e 40 ec 77 3c 44 66 0f 3e
       0.042782277 0.2076472 0.01513201 0.14003855
0000b0 76 64 4c be aa b2 94 3e 8e bb 0e 3e 00 78 e8 39
       -0.19960198 0.2904256 0.13938734 0.00044339895
0000c0 88 27 f5 bd b8 4c 58 3d 38 45 0e bd 5c d7 47 be
       -0.119704306 0.05280754 -0.03473398 -0.19515747
0000d0 0d 4a 3f be dc 4f f6 bd f4 bf 8d 3d ce 13 47 be
       -0.18680592 -0.12026951 0.06921378 -0.19441149
0000e0 b8 26 2a 3e 38 0b 2a be 26 a0 39 3e 80 68 2a 3c
       0.16616333 -0.16605842 0.18127498 0.010400891
0000f0 00 f4 07 3a a8 c8 26 3d 80 05 15 bb ac 99 18 3e
       0.00051862 0.040718704 -0.0022738874 0.14902371

node_embeddings.ubicacion.weight f4 [64, 24]
000000 b8 32 45 bc e8 ce 8a bd e4 52 ae 3c 84 c7 f4 bd
       -0.012036018 -0.067777455 0.02127976 -0.11952117
000010 c4 54 a7 3d 55 a5 97 3c dc e1 d2 3d 38 9e 12 bd
       0.08170465 0.018511454 0.102969855 -0.03579542
000020 f4 24 97 ba 9d 0f c7 bd 88 ab bb bd 75 b0 46 3b
       -0.0011531399 -0.09719775 -0.09163576 0.003031758
000030 91 4a cd 3d 9c 2a 9e bd 7b 83 21 3e ec 23 8d bd
       0.10023988 -0.07722971 0.15772812 -0.06891617
000040 a0 e1 2b bd d1 a3 24 3e 1c c2 17 bd b8 63 e3 3d
       -0.04196322 0.16078116 -0.03705035 0.11103004
000050 34 a6 a4 bc 8a 03 f3 3d 84 7b d9 3c 1b fd c4 bd
       -0.020098783 0.118659094 0.026548155 -0.096185885
000060 50 5b 0a be d7 ef f6 3d a4 76 4d 3d e0 da 01 bd
       -0.13511395 0.120574646 0.050161973 -0.031702876
000070 10 bd 1f bd 85 87 ad bd 2e c7 10 be 78 7b 39 3d
       -0.038998663 -0.08473114 -0.14138481 0.045283765
000080 52 ba 31 be 71 d2 ae bb 58 28 14 3e a9 87 b7 3d
       -0.17356232 -0.005335145 0.14468515 0.08961422
000090 43 ee e9 3d 84 14 25 3d 46 d5 e9 bd 76 00 d9 3d
       0.11422398 0.04030277 -0.11417632 0.10595791
0000a0 60 02 20 3e d1 7a a7 3d e9 ae 11 3e 43 c6 28 be
       0.15625906 0.08177722 0.14226879 -0.16481881
0000b0 a3 e2 35 be 2c a2 41 bd 33 01 73 3d 1e df 09 3e
       -0.17762236 -0.0472738 0.059327316 0.13464019
0000c0 39 30 67 bd ab ea b1 bd bd cd 05 3e 97 8c fd bb
       -0.056442473 -0.086873375 0.13066764 -0.007737707
0000d0 5f 06 37 3c a0 6e 47 be bc 52 9b bc b6 9f cd 3d
       0.011170953 -0.19475794 -0.01896035 0.10040228
0000e0 75 20 4c 3e f8 1b 9b 3c b5 ad 01 3e 95 d5 dc 3c
       0.19934256 0.018934235 0.1266392 0.026957313
0000f0 69 f9 27 be 54 66 e1 bb b4 db 8e bd 42 89 f8 bc
       -0.16403736 -0.0068786535 -0.06975499 -0.030338887
000100 9d 2e a0 bd 40 2c 19 3e df a1 2a be af 76 f8 bd
       -0.07821391 0.14958286 -0.16663311 -0.12132012
000110 7c ce 81 bd e6 ff 2d 3e 64 17 2b bd 21 46 a6 3d
       -0.06338212 0.16992149 -0.041770354 0.08118845
000120 ea 25 ca 3d 4e 20 33 3e b8 1a 40 bd e0 2f 1c 3d
       0.09870513 0.17492792 -0.04690048 0.038131595
000130 c8 09 cc bd 84 35 7e bc 37 de 36 be f0 8c 2a be
       -0.09962803 -0.015515689 -0.17858206 -0.16655326
000140 14 69 63 3d 90 32 20 be 64 7e da 3d 9a 7d 1a 3e
       0.055520132 -0.15644288 0.10668638 0.15086976
000150 0a f0 9c 3d 68 b7 a1 3d 75 e8 3d be db 51 c1 bd
       0.07662971 0.0789631 -0.18545707 -0.09439441
000160 c5 eb 16 be 18 33 46 be 81 26 b9 3d f5 3d 48 3d
       -0.14738376 -0.19355428 0.09040547 0.04888721
000170 36 d5 46 3e a6 e2 69 bd cb 64 0a be 8c ee 33 be
       0.19417271 -0.057100914 -0.13515012 -0.17571467
000180 af 11 80 3c 82 d3 de bd 7d 64 13 3d c6 21 0b 3e
       0.015633432 -0.10880186 0.035984505 0.13587102
000190 79 4d 34 3e 74 5c 08 bd 72 eb 07 be 71 00 e3 bd
       0.17607678 -0.033291295 -0.13273409 -0.110840686
0001a0 9a 87 01 3e 7c 5e 58 3d 24 c2 53 3c 5e 15 4b be
       0.12649384 0.052824482 0.012924705 -0.1983237
0001b0 dc 3a db 3d 9e cb 08 3e 5d ad a0 3c c1 38 10 bd
       0.10704586 0.13358924 0.019613916 -0.035210375
0001c0 de 60 c6 bd f8 21 b0 3b 9f 6b 37 3c 62 1f 6f 3d
       -0.09686445 0.005375143 0.011195092 0.05837954
0001d0 88 9c e2 bb 62 44 47 3e d9 a1 02 3e 04 3b 2c 3d
       -0.0069156326 0.1945968 0.12757052 0.04204847
0001e0 8b a3 3b be 4b c1 cb bd 5a b1 a2 3d 4f 15 07 be
       -0.18324105 -0.09948977 0.079439834 -0.13191722
0001f0 68 4f 57 3d ca bf 61 3d d7 69 03 be f9 d1 37 3d
       0.052565962 0.055114545 -0.12833343 0.04487798
000200 ed ea ae bc 76 8b 18 3e 16 e5 39 bd 70 fc 35 3e
       -0.021352256 0.1489695 -0.04538449 0.17772079
000210 af aa 33 3e e8 e0 93 bd 21 9d 1c 3d 5c 4e 62 bd
       0.1754558 -0.07220632 0.038235787 -0.05525051
000220 e7 05 25 3e ba d7 cb 3d ac b7 78 bb c2 13 fd 3d
       0.16115533 0.09953256 -0.0037951274 0.12357284
000230 a9 c3 24 be 1d 90 59 bd 13 1a 29 3d f4 a1 47 be
       -0.16090263 -0.053115953 0.041284632 -0.19495374
000240 f7 05 35 3e a7 ba 76 3c 8a 1d 35 3e 2b 48 75 bd
       0.17678057 0.01505915 0.1768705 -0.059883278
000250 13 ae 3a 3c e4 98 66 bd 96 f2 b0 bd 50 57 9b bd
       0.011394042 -0.05629815 -0.086400196 -0.07585013
000260 d9 92 0f 3e 92 ad 39 3e 8c a0 6e 3d c6 31 e5 3d
       0.14020862 0.18132618 0.05825858 0.11191134
000270 5c cc bc 3d 71 d8 03 ba 9b 2e 1b be b2 b3 50 3d
       0.09218666 -0.00050295057 -0.15154497 0.05095262
000280 63 2f 92 bd 8f fe 9f 3d b5 f1 09 be 13 69 31 bc
       -0.071379445 0.07812225 -0.1347111 -0.010828274
000290 ba a6 a7 bd 58 75 41 be f5 36 3c be f6 a4 3f 3e
       -0.081860974 -0.1889242 -0.1838034 0.18715271
0002a0 42 3c bb bb e6 cf 39 be ca 9e fa 3c df 81 7c bc
       -0.0057139704 -0.18145713 0.030593295 -0.015411823
0002b0 46 9d 2d 3e ed 9f 40 3e d4 e6 56 bd 18 24 f8 bd
       0.16954526 0.18811007 -0.05246623 -0.12116259
0002c0 fa 3d ed bd 44 db 50 bd 88 b8 e6 bd 34 85 3c 3e
       -0.11584087 -0.050990358 -0.11265665 0.18410188
0002d0 10 dc 93 bd 4a 98 dd 3d 3e 46 c0 3d 09 80 44 3d
       -0.07219708 0.108200625 0.09388398 0.047973666
0002e0 31 4a ce 3d a1 dc 2f 3e ba 8d ba 3d dd a0 b6 3d
       0.10072745 0.17174007 0.091090634 0.08917401
0002f0 cb 61 2f be 6d c4 ab bc 44 39 9e 3b f9 a0 27 3e
       -0.17127149 -0.020967687 0.004828604 0.1637
000300 d6 67 b3 3d 6a 2d 23 3e 16 ad 21 3e 0f 00 c3 bd
       0.087600395 0.15935293 0.15788683 -0.095214956
000310 24 3a ed 3c f1 44 46 3e 2e 0a 92 3d fc 5d ec 3d
       0.028958388 0.19362237 0.07130848 0.115413636
000320 b0 ec a9 3d b8 3a 83 bd 44 a7 47 3d 03 6d 10 be
       0.08297098 -0.06407684 0.0487435 -0.14104085
000330 c0 07 42 3e 66 10 5a 3c 8c 8d 1e 3e 7c ef 12 be
       0.18948269 0.013309574 0.15483683 -0.14349169
000340 46 05 40 be 9a cb ae 3c 6c 3d d6 bc 57 19 a9 bd
       -0.18752012 0.02133732 -0.026152335 -0.08256786
000350 1e 58 de 3d 2c f9 07 be 9e 86 3a 3e 05 0d 4c be
       0.10856651 -0.13278645 0.18215415 -0.19926842
000360 23 c1 35 3d a5 46 ef bd f0 61 35 3d 83 e6 4a 3e
       0.044373643 -0.11683396 0.044282854 0.19814496
000370 7c b5 c8 bc fc 67 42 3d 6b 84 a4 bd b3 84 d6 bd
       -0.024500601 0.04746245 -0.08033069 -0.10474529
000380 38 8c 32 be 8e 4d ec 3d b4 91 14 bb 6c c4 90 3d
       -0.17436302 0.1153823 -0.0022669854 0.070687145
000390 18 c2 20 be 4e 06 2e be d4 0f 3e be 37 f7 f7 bd
       -0.15699041 -0.16994593 -0.18560725 -0.12107699
0003a0 11 7d d9 bc b8 07 11 bd ec d0 b7 3d 6f df c8 bd
       -0.026548894 -0.03540775 0.089753956 -0.098082416
0003b0 46 ab 4b 3e a4 81 be bd aa 90 44 be 36 1e 1e 3e
       0.19889554 -0.09302071 -0.1919581 0.15441212
0003c0 3a 55 06 be 1c 5d 9f 3c ec 70 a1 bc a0 67 2e bd
       -0.13118449 0.019453578 -0.019707166 -0.042579293
0003d0 f4 ab 0a 39 9b 8b 4d be f4 f5 3b 3e 70 b1 07 be
       0.00013224763 -0.20072787 0.18355542 -0.13251281
0003e0 6c e2 fe 3d de 32 f7 bd 30 e2 4d bd f4 2f 9e bb
       0.1244553 -0.12070249 -0.050264537 -0.004827494
0003f0 47 c5 a4 bd 17 1c b5 bd ee f0 2f be 78 90 0f be
       -0.0804544 -0.08843248 -0.17181751 -0.14019954

node_embeddings.ubicacion.bias f4 [64]
000000 92 bd 2a be 59 90 a3 bd 42 23 d4 3d 7a 35 f2 3c
       -0.16673878 -0.079865165 0.103582874 0.029566515
000010 b2 2f dc bd f2 c5 d3 3d 4f 74 52 3e 2d 05 53 3d
       -0.10751285 0.103404894 0.2055218 0.051518608
000020 00 c5 1b be 80 35 72 bd 8e 17 50 be 3e 53 35 3e
       -0.15211868 -0.059133053 -0.20321485 0.17707536
000030 41 86 09 be d8 6c 28 bc 41 d4 f3 bd 55 b6 0c bc
       -0.1343012 -0.010279857 -0.119057186 -0.008588393
000040 22 46 16 be ee 23 25 be 95 5f 16 be ab 5e a9 3d
       -0.14675191 -0.16126987 -0.14684899 0.082700096
000050 bf 48 51 be 39 68 2e 3e 51 6a b1 3d a1 0a e0 3d
       -0.20437907 0.17031945 0.08662856 0.10939527
000060 af 7f 3f 3e 63 d3 75 3c 59 b6 40 bd 58 60 3f be
       0.18701051 0.015004012 -0.0470489 -0.18689096
000070 07 14 f6 bd d5 02 0f be 2a c3 42 be b0 d5 a4 bd
       -0.12015539 -0.13965924 -0.19019762 -0.0804857
000080 0f a1 91 bb 93 4e 2a bb 91 af f7 3c d3 85 0e be
       -0.0044442485 -0.0025986775 0.030235084 -0.13918237
000090 5b ec f4 3d 0e ec 43 be a9 55 84 3d 9b 15 ab bd
       0.11959144 -0.19133016 0.06461651 -0.0835373
0000a0 9d 07 32 3e 34 fd df bd aa 0d 45 3e ef fe 13 be
       0.17385717 -0.109369665 0.19243494 -0.14452718
0000b0 91 3c 07 be c1 ed c3 bc 35 fb 0f be d4 1c a4 3c
       -0.13206698 -0.02391708 -0.14060672 0.020033278
0000c0 32 41 14 be 84 3d aa bc a1 f6 e9 bc 15 34 99 bd
       -0.14477995 -0.020781286 -0.028559985 -0.07480637
0000d0 3c c9 08 3d 80 5b f7 bd b0 df ee 3d 5c d9 60 bd
       0.033395037 -0.12077999 0.11663759 -0.05489479
0000e0 c9 3d ed bd 82 3b 6e bd 89 24 9c 3d 09 47 f3 bd
       -0.1158405 -0.05816222 0.07624156 -0.11878783
0000f0 41 24 43 be 16 10 29 bd ed 2d 0e be f5 d6 4b 3e
       -0.19056799 -0.041275106 -0.13884707 0.19906218

node_embeddings.concentrador.weight f4 [64, 15]
000000 08 cd c0 bd d8 96 85 3d 48 2d f9 bd 88 db 11 3c
       -0.094141066 0.06522912 -0.1216684 0.008902438
000010 1b 48 7a bd 62 c2 17 bd 65 54 5b 3e 29 5f d9 3d
       -0.06110392 -0.037050612 0.21418913 0.106138535
000020 70 6c 04 be bc bd 07 3e 36 37 2a be 76 c6 4b 3e
       -0.1293199 0.13255972 -0.16622624 0.19899926
000030 a7 82 69 be 60 d3 80 be 1d df 7f 3e f6 23 11 3e
       -0.22803746 -0.25161266 0.24987455 0.14173874
000040 b4 be 14 3c 53 06 49 be 97 1f 26 3e 8d 13 d9 bd
       0.00907867 -0.19631319 0.16222988 -0.10599432
000050 f9 33 8b 3d a1 14 2a 3d 2f 69 2a 3e 04 94 83 bd
       0.06797022 0.04152358 0.16641687 -0.06424716
000060 5e c9 82 3e ed 3b 3d be 1c 81 f4 bd 9d a3 80 3e
       0.25544256 -0.18479891 -0.11938688 0.25124827
000070 d6 55 69 be cb c5 9f bd 80 38 a5 3d dc 82 d3 3d
       -0.2278665 -0.07801398 0.08067417 0.10327694
000080 4f ca a7 bd bb 75 4f be 79 39 5f 3e f4 eb 4a be
       -0.08192884 -0.20259754 0.21799268 -0.19816571
000090 e7 6d 7d 3e 8a 03 99 3c 48 c4 15 be cd d4 12 3d
       0.24748956 0.018678445 -0.14625657 0.035847474
0000a0 24 04 fd bb 2f 11 5c be bb 2b 64 3e 0e 69 1a be
       -0.007721441 -0.2149093 0.22282307 -0.15079138
0000b0 e0 0d 3d bd df a0 0d be 9e 47 61 3d 77 87 31 be
       -0.04615581 -0.13830899 0.05499994 -0.17336832
0000c0 cb 1b 60 3e af 07 89 bd 5b d5 79 3e c0 5a 91 ba
       0.21885602 -0.06690919 0.24397795 -0.0011089668
0000d0 57 5a 3a bd 5d fa 6f be fa 51 27 3e 2c 6a 9f bb
       -0.04549631 -0.2343535 0.16339865 -0.0048649516
0000e0 76 24 54 be 70 79 00 3e ee 4c 19 3d 65 97 10 be
       -0.20717034 0.12546325 0.03742688 -0.14120252
0000f0 e0 65 23 be 0d 2f 61 bd 21 51 fa 3d 97 f3 a1 3d
       -0.15956831 -0.05497651 0.12222505 0.07907789
000100 7d c7 21 be 6f 4f 39 be 40 eb 60 3e 33 b5 55 3d
       -0.15798755 -0.18096708 0.21964741 0.05217476
000110 af 4f 00 3e 2b 00 7d be 36 60 f6 3d 16 0a 6a 3e
       0.12530397 -0.24707095 0.120300695 0.2285541
000120 0d 48 ff bb e2 7a 53 3e 96 22 4e 3d 34 17 25 3c
       -0.0077905715 0.20652345 0.050325952 0.010076333
000130 78 9e b8 3d 6e b1 bd bd 79 05 dc bc bf 6a 55 bd
       0.090146005 -0.09262358 -0.026858078 -0.052103754
000140 8a a2 8b 3d 21 93 c8 3c 5a d0 f6 bd 9b 25 07 3e
       0.06818111 0.024484219 -0.12051459 0.13197939
000150 d0 51 14 be 20 af 26 3e 80 05 e1 3c 4e 5c 8a bc
       -0.14484334 0.16277742 0.027468443 -0.016889717
000160 94 ea 89 bc 4c 89 67 3d 14 54 31 3c 46 b4 66 3e
       -0.016835488 0.05652742 0.010823268 0.22529706
000170 c1 fd 54 3e 4f a6 84 3e 7f be 22 3e 1c ba d4 3a
       0.20799924 0.25908133 0.15892981 0.0016229781
000180 20 e9 cc bd 10 d9 bd bd a2 05 21 3e 21 63 9c bc
       -0.100054026 -0.09269917 0.15724805 -0.019090237
000190 3a 92 6e be f1 0c 12 3c df e6 75 bd 9a 53 3f be
       -0.23297969 0.008914218 -0.06003463 -0.18684235
0001a0 db 86 48 be bc 2a c1 bc dc 3d bd 3d 57 c6 0e 3e
       -0.19582693 -0.023579948 0.09240314 0.13942848
0001b0 5e be 3e be d8 ba 61 be 6e 8a 45 be 3f 2b 5e bc
       -0.18627307 -0.22043931 -0.19291088 -0.013560115
0001c0 99 09 b5 bc 10 d9 f8 3d 13 fe 57 be f0 d6 6e 3e
       -0.022099303 0.121507764 -0.21093015 0.2332418
0001d0 28 54 a1 bd 85 6e 7a be b6 b7 26 be 7c 49 80 3d
       -0.0787738 -0.24456222 -0.16281018 0.06264016
0001e0 50 d3 4c bd 7a 6f 3f 3e 5f 6d 72 bb e5 84 1b 3e
       -0.05000621 0.18694869 -0.003699146 0.15187414
0001f0 0e c6 5e 3e 3d eb c9 bd 91 01 aa 3c 6b 3e c4 bc
       0.2175524 -0.09859321 0.0207527 -0.023955544
000200 c5 f6 ef bd b1 32 6e be 04 48 02 be 4d 6d 05 3e
       -0.117169894 -0.23261525 -0.12722784 0.13029976
000210 1f c3 52 bd 7d 02 69 be 96 23 93 3d 5d bc c3 3d
       -0.051455613 -0.22754855 0.07184522 0.09557412
000220 a7 19 45 3d 63 66 55 3e b0 ff 48 be 5a e0 d0 bd
       0.048120167 0.20839839 -0.19628787 -0.10199042
000230 ce 8a 44 bc 78 b1 2c be b2 dd af 3d bf ac 82 bd
       -0.011995984 -0.16864574 0.08587207 -0.06380605
000240 48 04 79 3e 42 7d ae bd 40 df 3a be 15 c0 4b 3e
       0.2431804 -0.08519985 -0.18249226 0.19897492
000250 0f 53 82 3e 65 27 44 3e 63 9e 4f be cb c1 02 be
       0.25453994 0.19155653 -0.20275263 -0.12769239
000260 99 42 01 3e 1e e9 72 3e 24 fb 2d 3e c5 0c 5f be
       0.12623061 0.2372174 0.16990334 -0.21782215
000270 ca 01 aa bd 8d 56 27 bc 5d e2 00 3e 66 20 38 be
       -0.083011225 -0.010213506 0.1258635 -0.17981109
000280 f9 0d da 3d a9 68 6f bd 64 e2 9f 3d d4 c3 28 bd
       0.10647196 -0.05844942 0.078068525 -0.04120238
000290 f3 d1 7c 3e ac 81 de bc 5c 07 cc bd 48 c3 2b bd
       0.24689464 -0.027161442 -0.09962341 -0.04193428
0002a0 c3 86 02 be c0 a5 5a be 40 ae 2b 3e 6e 5b 20 be
       -0.1274672 -0.21352291 0.1676569 -0.15659878
0002b0 f2 38 e6 bd 02 4e 08 be 4d ba e4 ba fe 73 15 3e
       -0.1124133 -0.13311008 -0.0017450541 0.14595029
0002c0 2a 99 8e bd f4 62 c5 3a ee b5 bb bd c6 f7 4e 3e
       -0.069628075 0.0015059398 -0.0916556 0.20211706
0002d0 9c ce 1b bd 06 db 3c 3e 25 80 8c bd 46 b9 94 bd
       -0.038038835 0.18442926 -0.06860379 -0.072619006
0002e0 fd bc 11 be 95 8d 2e be bd c9 12 3e ac 25 79 be
       -0.1423225 -0.17046197 0.1433477 -0.24330777
0002f0 be 44 4c 3d d6 16 61 3e e4 ae 42 be 51 fe da 3d
       0.049870245 0.21981367 -0.19012028 0.10693038
000300 00 82 88 3d b4 c6 c8 3c 7a 17 7b 3e da 56 35 be
       0.066654205 0.024508812 0.24520674 -0.17708912
000310 b7 89 1e 3e 5a fe fe bd 83 ba 18 3e 4c a2 ba 3c
       0.15482222 -0.124508575 0.14914899 0.022782467
000320 d9 88 b7 3c c2 ee 63 be 1e a6 04 3d 1c 52 43 be
       0.022404121 -0.22259048 0.032384984 -0.19074291
000330 e5 36 5b be c7 62 15 3e 1b 16 cf 3b 94 6e 87 bd
       -0.2140766 0.14588462 0.006319774 -0.06612888
000340 41 78 1b bd c2 3f 52 3e 74 05 98 bb 0e 3e 29 be
       -0.03795648 0.20532134 -0.004639322 -0.16527578
000350 40 0f 81 3e ea ed 12 be 9f 8c 3d 3e a3 38 5d 3e
       0.25206947 -0.1434857 0.18510674 0.21603636
000360 9d 28 3e 3d e6 73 6e be a2 98 9d bd dc 00 5b be
       0.04642545 -0.23286399 -0.07695128 -0.21387047
000370 32 af 68 be 8e ca 40 be d7 f1 0b be cc ff 73 be
       -0.22723082 -0.18827268 -0.13666473 -0.23828048
000380 0a 30 11 be 90 e1 50 be cd 21 4b be dd 77 31 be
       -0.14178482 -0.20398545 -0.19837113 -0.1733088
000390 ed d9 7f be 18 c7 03 3c 67 e6 9a 3c 35 79 41 bd
       -0.24985476 0.008043073 0.018908693 -0.047234733
0003a0 67 9d 82 3e dd 30 03 3e c8 57 23 3e d2 ff 0a 3e
       0.25510713 0.12811609 0.15951455 0.1357415
0003b0 65 88 0a be e1 70 82 3d 12 a6 ac 3d 35 95 42 be
       -0.13528593 0.06369186 0.08430113 -0.1900223
0003c0 4e 2f 67 3e 66 0c 1d be b4 23 fc bc 09 65 81 be
       0.22576639 -0.15336761 -0.030778743 -0.25272396
0003d0 af 7c 4d be eb 0b 53 3e 92 b2 40 be 50 7b 6b 3e
       -0.20067094 0.20610015 -0.18818119 0.22996259
0003e0 12 6e 0b 3e c5 36 74 3e 78 85 f7 bd 2e 10 50 be
       0.13616207 0.23849018 -0.12086004 -0.20318672
0003f0 0c d7 5b 3e b0 4e d8 bd fc ea f6 bc 18 a8 71 3e
       0.21468753 -0.105618834 -0.030141346 0.23599279

node_embeddings.concentrador.bias f4 [64]
000000 67 83 61 be 9f d5 f6 bc 23 bf b1 bd 4c 12 26 bd
       -0.22022782 -0.03013116 -0.086790346 -0.040544793
000010 4b 21 39 3e 42 d6 2e be af 13 09 be b0 5f da bd
       0.18079107 -0.1707392 -0.13386415 -0.10662782
000020 8c 29 7c 3c 5e a0 0f be d5 3e 63 3d dc 28 5f be
       0.015390765 -0.14026019 0.055479843 -0.2179293
000030 d4 65 02 be ec fc 20 3e 38 9b 36 3e 1e 87 a4 bd
       -0.12734157 0.15721482 0.17832649 -0.08033584
000040 a6 af 68 3c ab 20 51 bc 5d 45 39 be 0b b0 6e bd
       0.014202034 -0.012764136 -0.18092866 -0.058273356
000050 42 2a 1e 3e 11 2b 2a 3c ce 20 81 3e 01 55 58 be
       0.15445808 0.010386244 0.2522034 -0.21126176
000060 9d 6e 3c be 10 55 64 be 8f 28 29 be 15 c4 4f 3d
       -0.1840157 -0.22298074 -0.16519378 0.050724108
000070 3c b8 2f 3e 09 a1 56 be 5e 0e 49 be 89 21 c3 bd
       0.17160124 -0.20959868 -0.19634387 -0.09527881
000080 9e 13 1e 3e 78 3c 08 3e 32 f5 d0 bc e0 67 74 3e
       0.15437171 0.13304317 -0.025507543 0.2386775
000090 c0 66 b7 3d 90 f7 77 3e 68 6f 44 b9 69 e5 1f be
       0.08955145 0.24215531 -0.00018733519 -0.15614857
0000a0 b9 33 d9 3b c7 39 ac 3d 57 e9 d0 3d 12 d9 8d 3a
       0.0066284803 0.08409458 0.10200756 0.0010822138
0000b0 43 e5 10 3c 64 72 2d 3d 1f cb 6a bd db 54 7d 3d
       0.008843723 0.04234542 -0.057322618 0.061848503
0000c0 4e c1 26 be 94 65 55 bd df bd 0b 3e 22 34 9d 3d
       -0.16284677 -0.052098826 0.13646649 0.07675959
0000d0 98 a1 14 3e 18 8b 2c be 5b c5 a1 bd 32 78 05 be
       0.14514768 -0.16849935 -0.07898971 -0.13034132
0000e0 3a ea 51 be c3 63 d3 bd 8f 77 80 bc 05 0c 93 bc
       -0.20499507 -0.103217624 -0.01568201 -0.017950067
0000f0 a7 f5 5d bc 9b ed 29 be 51 05 93 bc ea 36 8c 3d
       -0.013547338 -0.16594546 -0.017946871 0.068464115
