models/best_fraud_model.pth (torch, 55825 bytes, 18 tensors)

convs.0.bias f4 [64]
00000000: 0dcc fd39 d13b 123a 5cd3 a639 62cc d7b9
00000010: de59 9739 18c0 a439 cca2 fb39 8af5 c3b9
00000020: 5cd0 a2b9 cec8 d839 082d 9739 28bf 9ab9
00000030: 94f5 c639 c6cf a2b9 94f6 f239 78cc 333a
00000040: 124c de39 c825 a5b9 9dbc 19ba acbd 9d39
00000050: 3091 dc39 a63a a739 52fa 323a 63ea f8b9
00000060: 2841 9d39 0cf6 1e3a 5cc0 c039 ecd6 aeb9
00000070: 6e53 32ba 76a2 9bb9 2c8a 9ab9 8834 afb9
00000080: da6c b2b9 371e 08ba cb81 f9b9 9869 9cb9
00000090: 7295 283a 7911 1aba be70 feb9 82b2 e5b9
000000a0: a8f7 abb9 8614 dcb9 08c6 33ba 7427 b3b9
000000b0: 5eb4 ac39 2ae7 ab39 7e83 f2b9 4636 a3b9
000000c0: f244 e639 0c6e dcb9 6c39 97b9 90d0 9739
000000d0: e3cf 153a 7825 a5b9 e2b0 ac39 f289 b739
000000e0: b47d ad39 0ee2 9739 48b0 bf39 1c39 f239
000000f0: 005f cdb9 7442 a739 4cde a2b9 8c7e eeb9
0.0004840795 0.00055783713 0.00031819462 -0.00041160273 0.0002886792 0.0003142364 0.00047995744 -0.0003737624
-0.00031054288 0.00041348342 0.00028834515 -0.0002951559 0.00037948473 -0.0003105385 0.00046341552 0.00068587763
0.00042399816 -0.00031499402 -0.00058645924 0.0003008669 0.00042069843 0.0003189642 0.0006827462 -0.00047476878
0.0002999392 0.00060638855 0.00036764413 -0.00033347995 -0.0006802593 -0.00029684947 -0.00029476115 -0.0003341774
-0.00034031906 -0.00051924906 -0.00047589684 -0.00029833312 0.00064309605 -0.00058772374 -0.00048530655 -0.00043811282
-0.0003280018 -0.0004197696 -0.0006857817 -0.00034170935 0.0003294078 0.00032787892 -0.00046255806 -0.0003113022
0.00043920387 -0.0004204366 -0.00028843747 0.00028956356 0.00057148765 -0.0003149917 0.00032938184 0.00035007257
0.00033090787 0.00028969388 0.000365617 0.00046200387 -0.00039171427 0.00031902234 -0.00031064672 -0.00045489182

convs.0.lin.weight f4 [64, 16]
00000000: 2a5e 563e 544f 093e 1099 5f3e 591f 5fbe
00000010: 6721 0b3e c2e6 35be 2b90 b1bd ae2c c1bc
00000020: 827d 6c3e 327e 6d3e 93d1 8f3e 5418 c4bc
00000030: f3d2 753e 29d8 163e 5beb 203e 10ac 74be
00000040: 9c46 033e d095 61bd cf27 5c3e f958 1cbe
00000050: 8000 62bd 99df 703e 8eb5 1bbe ea36 543e
00000060: ccfa e3bd e6af 3a3b cdaa 37be 9026 5d3e
00000070: 8006 ebbc 904b 303d 43e5 d83c 0ad5 90bc
00000080: ac82 653e a3f3 663e c396 16bc a432 eb3c
00000090: 4617 bf3d dc47 fabd 8f86 013c 5dba 87be
000000a0: bfc7 1dbe 282c 6a3e d32f fe3c 0611 cf3c
000000b0: 33b1 09be 352d d0bd 119d 5f3e 6935 e33d
000000c0: e75a f83a 39ed 39be cf37 323d 6758 12be
000000d0: c074 e7bd b31a 46be c19f 0e3e e05f bdbd
000000e0: 8b29 4e3e e2c1 8abc 17d1 303d 3854 2abe
000000f0: e07c b23c 3864 933d 8b24 1bbe 8781 9ebc
00000100: d91e 493e 37e7 673e 3c17 55bd 18eb 03be
00000110: 93e5 7abe e2ad 853c b47a 123d 80ab c13d
00000120: 2887 da3b 4458 183d 32fb aabd de5f aebd
00000130: 91eb 12bd 3be9 593e c0e6 083e 7012 773e
00000140: 1923 203d ca9a 903e c6b7 94bd ee8a 73bc
00000150: c715 bc3b 227d fbbc 4512 89be d2ba 353e
00000160: 323a 823d 7c33 433e a599 8c3c 5a5f 0abe
00000170: 38a3 49bd 1404 24be 4dc9 40bc 2a88 1b3e
00000180: b506 c7bd 0255 66be f259 153d 2247 0b3e
00000190: bcb2 62be 21dc 07be 6ad8 f73d 91c5 253e
000001a0: 2946 353e 0f02 223e ca5c 77be d0a0 363e
000001b0: dbee 8a3e ecce 4bbd abb5 17be 3874 34bc
000001c0: df4c 90bd d085 54be b0cf bcbd f64b abbd
000001d0: 8db7 e6bd b052 adb8 5515 43be 500f 88be
000001e0: 0d3a 35be 8821 603d d52f 24be af59 1f3e
000001f0: c79e 1cbd c10f 5abe e2f6 3d3e 1125 f7bd
00000200: e9a5 273e 4973 4a3e 193f 033e be83 d1bd
00000210: ce00 9d3d 5bae 55be 5e9e f8bd 04e0 3d3e
00000220: 798f 0e3d a7c1 c33c ddd4 523e 5ac4 e93d
00000230: 83ce 87be 910c 76be 7ff0 193e 43be 4a3e
00000240: 3338 7cbd 6c04 9f3d 95ff 45be 3e2e d8bd
00000250: eb40 fabd fa23 71be 15e1 4f3e e359 db3d
00000260: f1ff 803e aabb 2d3d 4f91 71be e517 23bd
00000270: 56cc 4f3e 295c ca3d bd21 6d3e f67d a03d
00000280: b8a3 37be 76ef 603e 7e31 0fbe a925 82be
00000290: 2c91 4f3e a96a 1bbe 5d44 12be facc 8c3d
000002a0: 3788 1dbe 9c30 3d3d 7654 933c 56d3 1f3d
000002b0: 8ec9 2a3e d4cd 3a3e 8b3b 8d3d 072a 3a3e
000002c0: eb6b e9bd a58f 62be 135f 763e 1958 7c3e
000002d0: 0474 08bd dd56 e93d 5601 1fbe de8d e9bc
000002e0: 7b61 573e a8fa 3cbe 2920 68bd cdb1 dfbd
000002f0: 9b8e 423e 9a2e 80bc 7eb6 f2bc e932 2fbe
00000300: 680a cc3d 61ba 88be 5ac8 733e 43c1 853e
00000310: 8976 33be 3e17 c4bd 85b8 1c3e 749f 12be
00000320: d03f a73d 58cd 3fbe a365 833c 900e f83c
00000330: 948b c5bb 6c76 143e c259 83bd eb1a 06bc
00000340: c17f 2abe d809 a4b9 9fca a63d c0fe 99bc
00000350: 0522 be3d 9cfa 03be 2e0c 403e d79d 443e
00000360: 2875 943d f19c 79be 5268 8abd a465 13be
00000370: 1c8c acbd d190 79be 53ae 6fbc aef7 0abe
00000380: 5732 473e d0ec c6bd 0cd3 40be 6f3e 953d
00000390: 12a9 97bc 17a5 ef3c 3727 703c 8f01 b93c
000003a0: 63b3 81be ae05 743b e625 4abd ac50 ca3d
000003b0: 5c61 06bd 9401 d2bd 6a2b 283e a62e 84be
000003c0: 4909 583e d406 383e e1b4 ef3d 77a5 763e
000003d0: 6073 d2bc cbb2 083e 0fdd b2bd 06b0 6d3d
000003e0: 2fa0 71bd 86ef 14be 2d8b 31be af0f 42be
000003f0: da58 e1bd 7647 7c3d 49c2 8b3e a41d e6bd
0.20934358 0.13409168 0.21835732 -0.21789302 0.1358696 -0.17763808 -0.08670076 -0.023580875
0.23094752 0.23192671 0.2808958 -0.023937382 0.24006252 0.14730896 0.15714781 -0.23893762
0.12819904 -0.055074513 0.21499561 -0.15268315 -0.055176258 0.23522796 -0.15205976 0.20724073
-0.1113182 0.0028486191 -0.17936249 0.21596742 -0.028689623 0.043040812 0.026476508 -0.01767971
0.22413129 0.22553878 -0.009191218 0.02871067 0.09330611 -0.12220737 0.007905616 -0.2650937
-0.15408228 0.22868407 0.031028664 0.025276672 -0.13446502 -0.101648726 0.2183726 0.110941716
0.001894799 -0.181569 0.043510254 -0.14291535 -0.11301565 -0.19346122 0.13928129 -0.09246802
0.20133035 -0.016938154 0.043168154 -0.1663369 0.02178806 0.071968496 -0.15150659 -0.019348873
0.19640674 0.22646795 -0.05202411 -0.1288265 -0.24501638 0.016318265 0.03576155 0.09456539
0.006668944 0.03719355 -0.08348693 -0.08514379 -0.035869185 0.21280377 0.13369274 0.24128127
0.03909597 0.28243095 -0.072616145 -0.014864666 0.0057399007 -0.030699316 -0.2677175 0.17747048
0.06358756 0.19062608 0.017163107 -0.13512936 -0.049227923 -0.1601718 -0.011766744 0.15188661
-0.09718076 -0.22493365 0.03646273 0.13601354 -0.22138494 -0.13267566 0.121018246 0.16188647
0.17702545 0.15821098 -0.2415649 0.17834783 0.27135357 -0.049757883 -0.14815395 -0.011014037
-0.07045912 -0.2075417 -0.09219301 -0.08364098 -0.11265478 -8.2646846e-05 -0.19051106 -0.26574183
-0.17697926 0.054719478 -0.16033871 0.15561555 -0.03823736 -0.21295072 0.1855121 -0.12067617
0.16371883 0.1977054 0.12817039 -0.10230206 0.07666169 -0.20867293 -0.12139581 0.18542486
0.034804795 0.023896052 0.20589013 0.11414404 -0.26524743 -0.24028231 0.15033148 0.19799142
-0.061577033 0.07764515 -0.19335778 -0.10555695 -0.12219413 -0.2354888 0.20300706 0.10710504
0.25195268 0.0424153 -0.23590587 -0.03981771 0.20292792 0.098808594 0.23157401 0.07836525
-0.17933547 0.21966347 -0.13983724 -0.25419357 0.20270222 -0.15177406 -0.14283891 0.06875034
-0.15383993 0.046188936 0.01798461 0.039019905 0.1667845 0.1824258 0.068961225 0.18180095
-0.11397537 -0.22125109 0.24059705 0.24642982 -0.033313766 0.11393521 -0.15527853 -0.02851003
0.2103328 -0.18454993 -0.056671295 -0.10922585 0.18999712 -0.015647221 -0.029628035 -0.17109264
0.09962922 -0.26704696 0.23806897 0.2612401 -0.17525686 -0.095747456 0.15304764 -0.14318639
0.08166468 -0.18730676 0.016039675 0.030280381 -0.006028602 0.144983 -0.06413604 -0.008185129
-0.16650297 -0.00031287852 0.08144116 -0.018798232 0.092838325 -0.12888569 0.18754646 0.19200836
0.07248908 -0.24376275 -0.06758179 -0.14394242 -0.08425161 -0.2437165 -0.0146289645 -0.13571045
0.19452797 -0.09713137 -0.18830508 0.07287299 -0.018513236 0.029253526 0.014657787 0.022583751
-0.25332174 0.003723483 -0.04935255 0.09878668 -0.032807693 -0.10254207 0.16422811 -0.2581684
0.21097292 0.17971355 0.11704422 0.24086557 -0.02568978 0.13349454 -0.0873357 0.058029197
-0.058990654 -0.14544496 -0.17338248 -0.18951295 -0.11003275 0.061591588 0.27296665 -0.11236122

convs.1.bias f4 [64]
00000000: 962b aab9 04da b239 20c7 ebb9 7aff 9d39
00000010: d674 b8b9 66fa 063a b294 f0b9 a640 a139
00000020: 9f26 0aba 336a 323a b4ab b3b9 cbbe 0fba
00000030: 702a 0b3a 21a7 333a e8e4 9e39 6e6e f139
00000040: 46ba e6b9 b4cc 9bb9 16cc 9a39 9090 21ba
00000050: ae93 ca39 febf b539 4e09 b6b9 febb b3b9
00000060: 4e40 f2b9 fe7d 16ba 1690 283a 149c 9a39
00000070: b05b 31ba f842 ac39 0079 a039 f67a c2b9
00000080: f2ec c8b9 8006 013a a2af b339 140d abb9
00000090: 0cb1 b939 7f37 33ba 2e72 083a 2922 273a
000000a0: 28da cbb9 c081 9cb9 4efb a4b9 04de aeb9
000000b0: 4649 abb9 6821 dc39 6e1e adb9 a4d6 303a
000000c0: a25d 2f3a 48dd 1bba c619 dd39 4259 153a
000000d0: fc44 a5b9 2862 33ba 380a ab39 a8ff c9b9
000000e0: f763 12ba 4e93 af39 e267 9cb9 68db f839
000000f0: e7a5 17ba 3601 a439 6e7a 9db9 04d1 b0b9
-0.000324574 0.0003411324 -0.00044971053 0.00030135718 -0.00035182264 0.00051490066 -0.00045887154 0.0003075648
-0.0005270037 0.0006805986 -0.0003426947 -0.00054834475 0.0005308753 0.0006853212 0.00030306657 0.0004604938
-0.00044007803 -0.0002971642 0.00029525225 -0.0006163204 0.00038638472 0.00034666056 -0.00034720678 -0.00034281606
-0.00046205748 -0.000574082 0.0006430162 0.00029489456 -0.00067656767 0.00032856292 0.0003060773 -0.00037094177
-0.0003832351 0.0004921928 0.00034272397 -0.00032625406 0.0003541786 -0.00068365777 0.00052050024 0.00063756347
-0.00038881716 -0.0002985131 -0.00031467754 -0.0003335328 -0.00032670255 0.0004198656 -0.00033019803 0.0006745851
0.00066896726 -0.0005945754 0.00042171607 0.00056971994 -0.0003152265 -0.00068429345 0.00032623275 -0.00038528186
-0.0005584354 0.00033488352 -0.00029832037 0.00047465716 -0.0005784914 0.0003128142 -0.0003003659 -0.00033725065

convs.1.lin.weight f4 [64, 64]
00000000: 4b9e a7bd 5216 35be 03eb aa3d 1f37 34be
00000010: 2941 f03d c9c8 6b3e eb92 f73c e98b c83c
00000020: 4060 35be d9a3 4bbe 610f 20be 91a3 233e
00000030: 4825 cc3d f255 d0bd 9e7e 8dbd 03ad 13bc
00000040: 09d1 9d3d 4861 a43d 5238 cebc f903 153e
00000050: d658 fabd 47c4 19be 83a4 483b abe4 2cbe
00000060: 87d6 08be e4ae 0d3e 6dee b63d fc95 45be
00000070: 9e61 283e 9354 473e cffd f23d 10f2 023e
00000080: 6081 0fbe e488 21be 72ef 163e ca1f 69bd
00000090: 91ce 6a3b 40da 763d 93e3 c73d c13d 5bbe
000000a0: 4a5b 1e3e 90e4 13be c604 2c3e 9ac4 cc3d
000000b0: 6280 a83d a61b 933d c257 29be ebd0 94bd
000000c0: 7bff 433e f3a4 453e c54f 3abe 1f85 40bb
000000d0: 746b f43a 26e9 f53d ecf4 473e de61 54be
000000e0: 5074 bc3d a0a7 2a3c ee84 9abd 9d24 0a3e
000000f0: cc25 43be cc09 10bd 3f4e ec3d df9a 7c3d
00000100: 5e1e 1b3c 0be4 56be 8966 b03c 6d0b f53d
00000110: ce18 acbd 2841 bcbb 1a60 c0bb 3932 edbd
00000120: 611d 853d 96ba 1a3e fa50 1d3e 82ed 2ebe
00000130: 9e88 d6bc a356 063d f544 003e c566 66bd
00000140: a331 6c3e bff7 f63c c223 263d 2ca2 1a3e
00000150: ae0f 28be 7e1d 71bd bf06 f93d 7993 b03d
00000160: 1014 09be dac7 903d 62e0 b2bd b81e da3b
00000170: 30c7 01be 3209 cb3d fd0b 433d fbb4 9c3d
00000180: dec3 cdbd cf06 95bd 76e3 77ba be73 64bb
00000190: 2186 29be c499 633d cdd7 54bd 2c85 1e3e
000001a0: 0857 37bc 559b 11be cc69 173d f6b1 0c3e
000001b0: 38b7 f9bb cfa3 2bbd 492c 33bd f33d 303e
000001c0: faa2 20bd f756 9d3d c963 063e 0e91 19be
000001d0: 6daf 5f3c 3a2f 543d f791 61bd dc75 02be
000001e0: 1202 c6bc 8fc5 ed3d 1376 55bc 3dfd 353e
000001f0: d7f4 e0bc ec8e 8bbd b623 863d feeb df3d
00000200: f7e9 673e 0f03 28bd c8bf 3e3e 795f 4fbd
00000210: da4b 5dbd 5fae 77bd 2961 e7bd 03e2 05bd
00000220: 0ecc 24be ac54 35be 051e 133e 8f2f 583e
00000230: e1b7 983d c192 ae3d c28c 20bd 6375 d4bd
00000240: c765 693e e483 34bd 33d0 4bbe d9da 3c3e
00000250: d11e 2b3e 44b6 153e aa41 2fbd b4ab 9bbc
00000260: 7886 4dbe f82a 4a3e a538 443e 350a 25bb
00000270: 3a31 d3bd bbdd 203e 28cf 6fbd c954 063e
00000280: ebc9 2d3e 8cac 1a3e 36e1 023e c141 41be
00000290: 795e c3bd 4ca9 abbd b828 83bd b756 3cbe
000002a0: 0740 2d3e a72f a03c b2d3 05bd 843e 413e
000002b0: 409e e5bd d6a1 023e a1c3 0f3e 8f91 a63d
000002c0: 8665 57bd 70f5 b8bd 7eff bf3d 2cff 453e
000002d0: e988 2e3e bb61 4b3d 2462 3abe 197b 3ebe
000002e0: 42be 513e e40c 913d 0b11 d63d f7e9 2a3e
000002f0: 6657 2abc 161d 0fbe b3b5 90bd c4ae 9a3d
00000300: bc24 d3bd a6e6 f83d 490c 833d 69f4 04be
00000310: eadf 7b3d 9958 793d 46cf 8ebd 0a26 e13d
00000320: f55a dd3d 18c7 3a3e 481e 45be d86f d5bd
00000330: 227d 9bbc f8f0 fb3d 927a 8dbd 2446 ebbc
00000340: 2849 113d 05f1 85bd edaa b0bc 4601 443d
00000350: f11d 9abd 9c02 9b3d 3dd1 093d ef3d 16bb
00000360: 92e0 ec3d 12ea 0e3e b6aa 89bd ad8f 393c
00000370: 7e59 513e b161 1f3e c85f 0c3e f0eb 2ebe
00000380: 27ec 623d e312 3fbd 3ebf e7bd b18a 3cbe
00000390: 73a6 1b3e c70f dd3c 398d 013e 0d58 163e
000003a0: d2c9 0cbe e069 84bd 92db f83d f864 0abd
000003b0: 5690 fa3d ca72 563e 01b0 f6bd 59c8 0abe
000003c0: 9373 023e 2dfc 8bbd 49a9 593e 5f8c 48be
000003d0: 4063 70be 10a5 a63d 00b7 603c 08b9 2a3e
000003e0: f17f 1bbe ceb5 4d3e d440 533d f8ba e23d
000003f0: fa90 c53b 3bf7 003e 202e 7e3d 95a9 cc3b
-0.08184489 -0.17684296 0.08345606 -0.17599152 0.11731178 0.23025812 0.030221423 0.024480777
-0.17712498 -0.19886722 -0.15630867 0.15980364 0.09968048 -0.10172643 -0.06908916 -0.009013417
0.07705886 0.080263674 -0.02517334 0.14552297 -0.12223975 -0.1501628 0.0030615635 -0.16884105
-0.13363086 0.13836247 0.08932195 -0.19295496 0.16443488 0.19465856 0.118648164 0.12787652
-0.14014196 -0.15774876 0.14739779 -0.056915082 0.003582869 0.060266733 0.09760203 -0.21410276
0.15464512 -0.14442658 0.16798696 0.09998436 0.08227612 0.07183008 -0.16537383 -0.072664104
0.19140427 0.19301204 -0.18194492 -0.0029376221 0.0018647746 0.1200736 0.19527024 -0.20740458
0.09201872 0.0104159415 -0.075448856 0.1349053 -0.19057387 -0.035165593 0.11538362 0.061671134
0.009467689 -0.20985429 0.021533268 0.1196507 -0.084031686 -0.005745072 -0.005870831 -0.11581845
0.06499744 0.1511024 0.15362921 -0.1708279 -0.026188191 0.032797467 0.12526305 -0.056250352
0.2306581 0.030147431 0.040561445 0.15100926 -0.16412231 -0.058866017 0.1215949 0.08621878
-0.1338656 0.07069369 -0.08734204 0.006656494 -0.1267364 0.09913863 0.047618855 0.07651707
-0.10047124 -0.07276689 -0.00094561966 -0.0034859027 -0.16555072 0.055566564 -0.051963616 0.15480489
-0.011190183 -0.1421941 0.03696613 0.13739762 -0.0076207183 -0.041904267 -0.043743405 0.17211132
-0.039217927 0.07682603 0.13124003 -0.1499674 0.013652665 0.05180285 -0.055070844 -0.12740272
-0.02417091 0.11609947 -0.013028639 0.17772384 -0.027460499 -0.068143696 0.0654978 0.10933684
0.22647844 -0.041018542 0.18627846 -0.05062816 -0.054027416 -0.060469028 -0.11297829 -0.032686245
-0.16093466 -0.17708081 0.1436692 0.21111892 0.07456947 0.08524085 -0.039196737 -0.10373952
0.22792731 -0.044071093 -0.1990364 0.18442859 0.16710974 0.1462031 -0.04278723 -0.019002773
-0.20070827 0.19742954 0.19162233 -0.0025183086 -0.103121236 0.15709583 -0.05854717 0.1311828
0.16971557 0.15104884 0.12781224 -0.1887274 -0.095395036 -0.083819 -0.06404251 -0.18392454
0.16918956 0.019553972 -0.03267259 0.18871504 -0.112118244 0.12757048 0.1403947 0.08133232
-0.052587055 -0.090311885 0.09374903 0.19335622 0.17044415 0.04965375 -0.182015 -0.18601646
0.20482734 0.07082537 0.104524694 0.16690813 -0.010396814 -0.13975939 -0.070659064 0.07552865
-0.10309741 0.12153368 0.063988276 -0.1298386 0.061492838 0.06087551 -0.06973128 0.109935835
0.10808364 0.1824001 -0.19249833 -0.10421723 -0.018980566 0.123018205 -0.06908144 -0.02871997
0.035470158 -0.065401115 -0.021565879 0.047852777 -0.07525242 0.07568857 0.03364681 -0.00229251
0.11566271 0.13956478 -0.06722014 0.011325759 0.20444295 0.1556461 0.13708413 -0.1708219
0.055400994 -0.04664887 -0.113157734 -0.18412282 0.15200214 0.026985062 0.12651528 0.14682026
-0.13748863 -0.064655066 0.12151255 -0.033787698 0.12234561 0.20942226 -0.12045289 -0.13552989
0.127394 -0.06835208 0.21255983 -0.19584797 -0.23475361 0.08136952 0.013715506 0.16672146
-0.15185525 0.20088884 0.051575497 0.11070818 0.0060292454 0.12594311 0.062055707 0.0062458017

convs.2.bias f4 [64]
00000000: 32b5 c03c 459a 82bc 3ada cf3c ea89 eb3c
00000010: e37d d63c 06a3 b5bc cefd f0bc a85c 253b
00000020: 5c3b d8bc 70e7 94bc ed92 b93c ab4c ba3c
00000030: 80ee babc 6840 57bb 8a22 a63c 7e45 d03c
00000040: fc13 003c b5b6 b13c 97b4 cdbc 06d5 393c
00000050: 8891 cfbc f9bc ce3c 1951 97bc 7fb5 c03c
00000060: c423 c1bc e46a d73c 111f 733c b177 d9bc
00000070: 198d cdbc 5c4d bf3c 5f9e fdbb a21d f2bb
00000080: 12f1 cf3c 03bf c23c 9b10 bd3c d4a8 f23c
00000090: f94c d53c d07e 8a3c b433 8ebc 8ea8 693c
000000a0: e3d8 8f3c 465d cf3c dc20 9abc 4e90 97bc
000000b0: 70dd db3c d8b4 cbbc c3f1 ca3c cd7c d53c
000000c0: daff d0bc 6726 803c be12 11bc ee16 ccbc
000000d0: 3003 cf3c c101 af3c e467 abbc 9a97 cd3c
000000e0: b87f a83c 28b0 d63c d42e babc a6a9 d3bc
000000f0: fe67 c63c 420a dbbc bb26 003c b9b6 b93c
0.0235239 -0.015942702 0.025372613 0.028752286 0.026183074 -0.022172462 -0.029417899 0.002523223
-0.026395492 -0.018176764 0.022653067 0.022741636 -0.022818804 -0.0032844786 0.020280141 0.025423761
0.007817265 0.021693567 -0.025110526 0.011342293 -0.02533795 0.025236594 -0.018471288 0.023524044
-0.023576625 0.026296087 0.01483895 -0.026546331 -0.025091695 0.023352318 -0.0077398266 -0.0073887864
0.025383506 0.023772722 0.023079207 0.02962152 0.02603768 0.016906172 -0.017358638 0.014261378
0.017559474 0.02531303 -0.018814497 -0.018501427 0.026838988 -0.024866506 0.024773484 0.026060486
-0.025512625 0.015643312 -0.008854566 -0.024913277 0.025270075 0.021363141 -0.020923562 0.025096703
0.020568714 0.026207045 -0.022727408 -0.02583773 0.02421951 -0.02673829 0.007821734 0.022670137

convs.2.lin.weight f4 [64, 64]
00000000: a274 273e 3260 e9bd 969b 29be eb09 5ebd
00000010: a76f 513e 9587 3f3d 58e4 dabd 3cca 1d3e
00000020: 84b8 043e 265e c13d e0c9 373e b6fb 2c3e
00000030: aac1 a1bc a63d 0b3e b146 353e 4f56 bf3d
00000040: 9b68 723d 015c 5abd c9b2 553e ba0d 023e
00000050: f548 393d 4d0c 44be 9563 373e ab3a 583e
00000060: def9 f5bd b937 00be be9f 973d 8c43 e03b
00000070: ef27 423e 7e40 773d 3c4a 7d3d a69e a83d
00000080: 41fc 2ebe c943 84bc cb5d dd3d 72c7 fabc
00000090: 8bc2 083e b71e cdbd dda0 1c3e 2d6f d5bd
000000a0: 8cb6 1b3e 371d 013e 4f5e 06be 5dfd 01be
000000b0: 0f8c 493d d006 2bbe c32b 633d 0234 1bbe
000000c0: f3cf 2fbd c8c2 1ebd 6384 f43d 030e 2e3e
000000d0: 2987 1ebe 3cbd 3b3e c15d 6e3e 51a0 c9bd
000000e0: a357 853d eb09 283d 42cc 323d bcbc 133e
000000f0: 2239 efbd e9b5 093d a9cd ab3d 4721 dbbd
00000100: 8be6 19be e4e9 c7bd 7e55 0fbe ede9 c0bc
00000110: 50e6 1bbd 2ecd bd3b cab9 263e 9236 e83d
00000120: b7b2 25bd 4b04 023c 848f f7bd 3c9b 253c
00000130: 3445 67be 9d2a 383c e8de 213e fc80 e0bd
00000140: dd9a 443e 83a3 2b3e 07fc 173e 32f2 2dbe
00000150: 0f3f 723d e14a 393d 8c80 1f3e afda da3d
00000160: 4bfd 2fbe f2ac 1b3e 1faf 9c3d 9848 18be
00000170: 2692 2f3e 1741 1e3d a275 ee3d 312d 08be
00000180: c1c6 87bc 523b b5bc bad1 423d 1d0e 06bd
00000190: 8f87 15bd dd40 13be 8ed1 5bbe a585 b6bc
000001a0: 5a2f 07bc 61a9 d9bd 8e9b a3bd e8e8 4e3e
000001b0: 6b05 63be d88d 63be 63bf 1d3d bdcb 9dbd
000001c0: 8193 b93b 2474 293e 0877 dc3d a6aa 1fbe
000001d0: 5f15 55bd 08d7 023e 6f26 c6bd af16 1e3e
000001e0: 57fd edbd dae7 2dbe cbb5 8b3d 0545 86bd
000001f0: 37d4 dabd f65a 3fbe 0ae1 333e 689a 29be
00000200: e2a0 ad3d cb32 9a3d 06a2 aabd 952d 96bd
00000210: f8a4 e83d 8466 61bd 2126 edbd dcc8 ea3d
00000220: 84c9 c8bd e194 20bd 23c4 3ebe 03cc 713e
00000230: 368d d13d 6eed e23d cc59 2f3e d1df 63bd
00000240: 2c23 1d3e 9e66 a0bd 112d 29be 0b07 7cbd
00000250: 6fca c03d 390f 173c 523a b8bc 30e0 cebc
00000260: 345e b2bd ea16 343e 3eef 623d 5a6e dfbd
00000270: 3e65 5b3e c63f e9bd 09c8 40be 8b88 323e
00000280: 0823 e1bc 46c6 3dbd aebb 193e ce52 4fbc
00000290: 8814 c7bd ed0e 033e b162 25be 0fd2 3c3e
000002a0: 8d19 263e bf2f 80bd 7058 70bd 72e3 bbbd
000002b0: e27a 6e3e a0dc 72bd c166 1a3e 846e df3d
000002c0: fafb 24bd 8e28 8f3d 2ff8 3f3e 7a9e 9a3c
000002d0: 8a83 523d 3660 503e 9fac 4b3e e46c 1dbc
000002e0: 99f3 073e 41bf 933c 8c8d 083e 1976 4a3e
000002f0: 5405 42bc c07f 183e dee9 133d 30ba d83d
00000300: 2f53 dcbd 61ac 1c3d 4048 3d3d 14bc aabd
00000310: 28de 403e 85e0 273e 6d7a 063d 7956 583e
00000320: 0c00 e73c 9e9e 1f3b 02e8 013e ed1e 84bd
00000330: 5f0b 433e 27aa b93d b50d 283e 5c5f 783c
00000340: 16d8 3b3d 7dbb cbbd 1ac5 9fbc 2d18 203e
00000350: 9b18 09be 6eec 873d 228e cebd 4cc5 453c
00000360: 1e82 71bd 4e75 ecbd 8f97 633d d394 08be
00000370: c35e 4bbd 875d 2e3e a13c aebd 982b f73b
00000380: 8954 2a3d 5353 103e 35f7 0abe 8429 cd3d
00000390: 9770 36be 1221 3f3d dbe8 4d3e 6735 443e
000003a0: dbf0 0ebd ce98 8f3d 01de 0fbe a651 6e3e
000003b0: a466 0e3e de2b a03c 46be 693e 0a51 4e3e
000003c0: 4a35 b7bd a146 3ebd 6a15 c43c 58e9 d43d
000003d0: 8982 963d 8b45 1a3e 3cd4 083e 4e20 01bd
000003e0: 8da0 513e 538e 2bbe cb7b 753e 8e54 3d3e
000003f0: 1708 e93d 10db af3b 6e52 00be f6b0 13be
0.16353086 -0.11395301 -0.16563258 -0.054208677 0.20452748 0.04676016 -0.10688084 0.15409178
0.12961012 0.094417855 0.17948103 0.16892895 -0.019745667 0.13597736 0.17702748 0.09342634
0.05918179 -0.053310398 0.20868982 0.12700549 0.045235593 -0.19145317 0.17909081 0.2111613
-0.12010549 -0.12521257 0.07403515 0.0068439897 0.18960546 0.06036424 0.061838374 0.08233385
-0.17088415 -0.016145604 0.10808905 -0.030612681 0.13355462 -0.10015624 0.1529574 -0.10421596
0.15206355 0.12608801 -0.13121913 -0.12694307 0.049205836 -0.16701818 0.055461656 -0.15156558
-0.042922925 -0.038759977 0.11939313 0.16997533 -0.15481247 0.18333906 0.23277952 -0.09845031
0.06510856 0.041025084 0.043651827 0.14427465 -0.11680819 0.03362075 0.08388836 -0.106997065
-0.15029351 -0.09761408 -0.13997456 -0.023549045 -0.03806144 0.0057922816 0.1628181 0.113385335
-0.04045364 0.007935594 -0.1208792 0.010107812 -0.22584993 0.011240629 0.15807688 -0.10962102
0.191997 0.16761594 0.14842235 -0.16986921 0.05914217 0.045237426 0.1557638 0.10686242
-0.17186467 0.15202692 0.07650589 -0.14871442 0.17145595 0.038636293 0.116435304 -0.13298489
-0.016574265 -0.022123013 0.047563292 -0.032728303 -0.036506232 -0.14380212 -0.21466658 -0.022280524
-0.008251036 -0.106280096 -0.07988654 0.20206034 -0.22170036 -0.22222078 0.0385126 -0.077048756
0.005663336 0.1654821 0.10764891 -0.15592441 -0.052022334 0.1277734 -0.096752994 0.1543834
-0.11620586 -0.16982976 0.06821784 -0.06556133 -0.10685008 -0.18687043 0.17566314 -0.16562808
0.084779516 0.07529219 -0.08331685 -0.07332913 0.1135959 -0.055029407 -0.11579538 0.11464092
-0.09804061 -0.039204482 -0.18629508 0.2361298 0.10232012 0.11080442 0.17124099 -0.05563337
0.15345448 -0.07832073 -0.16521098 -0.061530154 0.09413611 0.009219938 -0.022488747 -0.025253385
-0.08709374 0.17586866 0.05540394 -0.1090972 0.2142534 -0.11389117 -0.18826307 0.174349
-0.027482525 -0.046331666 0.15013 -0.0126540195 -0.09720713 0.12798662 -0.16150929 0.18439506
0.16220684 -0.06259107 -0.05867809 -0.09174241 0.23289064 -0.059292436 0.1507826 0.10909751
-0.040279366 0.06990157 0.18747018 0.018874396 0.051394977 0.20349202 0.19890068 -0.009608481
0.13276519 0.018035533 0.13335246 0.19771613 -0.011842091 0.14892483 0.036111705 0.105823874
-0.107580535 0.03825033 0.04621148 -0.08336654 0.18834746 0.16394241 0.032831598 0.21126737
0.028198265 0.0024356018 0.1268616 -0.06451211 0.19047306 0.09065657 0.16411479 0.015159454
0.045860372 -0.0994787 -0.019503165 0.15634222 -0.13388292 0.06636892 -0.100857034 0.012070965
-0.05896198 -0.115458116 0.05556446 -0.13338022 -0.04965092 0.17027865 -0.08507658 0.0075430386
0.041584525 0.14094286 -0.13570864 0.10017684 -0.17816387 0.046662398 0.20108359 0.19160996
-0.034897666 0.07011567 -0.14049532 0.23273334 0.13906342 0.019552168 0.2282649 0.20148101
-0.08945711 -0.046454076 0.023935992 0.10396069 0.07349116 0.15065591 0.13362211 -0.03152495
0.20471402 -0.16753511 0.23973005 0.18489286 0.11378496 0.0053666905 -0.12531444 -0.14422974

batch_norms.0.weight f4 [64]
00000000: fe7e 7b3f aa94 793f 8859 803f 8b0a 813f
00000010: db26 813f 887c 7a3f 8fd1 7d3f 2b17 823f
00000020: 394e 7a3f 6a6e 813f 806f 813f 09bb 7b3f
00000030: 5490 7a3f 2ed4 7d3f 04e6 793f 214d 7b3f
00000040: 9dca 7f3f 49de 793f 5ddf 7c3f 715b 7c3f
00000050: 4913 823f 6dac 773f 1e11 793f 74ef 7b3f
00000060: bb4d 7a3f 8420 7a3f fd4a 823f 8c34 773f
00000070: 9e4c 813f de3c 7f3f 8dbb 793f e4cd 803f
00000080: 8c10 813f dd7f 793f 7615 7b3f 0838 803f
00000090: 0e55 7b3f cd2e 7a3f 6496 793f 96a5 7d3f
000000a0: bfb0 783f c7a5 823f 4fac 7a3f 7a47 813f
000000b0: 5cf3 793f 07d7 773f 4034 803f ca75 7f3f
000000c0: 455b 7b3f a061 813f 1741 7f3f 15ba 7d3f
000000d0: 4533 7a3f b918 793f 5446 783f 9b46 7b3f
000000e0: b70c 7e3f b7e2 803f 5f96 793f 7b44 823f
000000f0: f1d5 7f3f 943b 773f d7b5 823f 32f7 773f
0.9824065 0.9749247 1.0027323 1.0081342 1.0089983 0.9784627 0.99147886 1.016332
0.9777561 1.0111821 1.0112152 0.9833227 0.9787648 0.99151886 0.976166 0.98164564
0.9991854 0.97604805 0.98778325 0.9857703 1.0162135 0.96747476 0.97291744 0.9841225
0.9777486 0.97705865 1.0179135 0.96564555 1.0101507 0.9970225 0.97551805 1.0062833
1.0083175 0.9746073 0.9807962 1.0017099 0.9817666 0.9772766 0.974951 0.9908079
0.97144693 1.0206841 0.9791917 1.0099938 0.9763696 0.9681248 1.0015945 0.99789107
0.9818614 1.0107918 0.99708694 0.99112064 0.9773448 0.9730335 0.9698231 0.9815461
0.9923815 1.0069188 0.97495073 1.0177149 0.99935824 0.96575284 1.0211743 0.96861565

batch_norms.0.bias f4 [64]
00000000: fab3 51bb f430 35bc 56bd 4d3c 709b 743b
00000010: 1f89 8d3c f9e2 f0bb 782f a63a ac3a c43c
00000020: 3d46 93bc ca61 c13c ccfa 9e3c 52b9 06bc
00000030: 132a 86bc e88c 4f3c 6c9a 90bc b857 9ebc
00000040: 0043 ee3b c6d7 83bc 4921 b83c feb2 783c
00000050: 87c8 b83c a2fe 09ba e008 9fbc 11a4 ddbb
00000060: 8e35 dbbc acd6 c0bb 9a6a b43c 7980 a23b
00000070: 1ab8 713c bc49 8bbc 447f d4bb 015c a43c
00000080: f593 8c3c 9678 aabc ddeb 7cbc 4efb 543b
00000090: fd8c 39bc bed8 943b 5c9c e6bb 115e 0e3c
000000a0: ab9b 96bc 6b62 c03c b302 7abc 3096 683c
000000b0: 68d6 acbc fc00 c8bc 9a58 013c 0e97 6d3c
000000c0: ca38 51bc 6ca2 993c 5b59 733c 744e 63ba
000000d0: 065e bb3c 6cc6 84bc 3b73 c0bc 1e9a 2d3c
000000e0: f8c1 013c cf44 563c 1c7d 2abc 5533 323c
000000f0: 40c5 913b ae4a 623c 6ed4 cb3c ba1b 6cbc
-0.0031998144 -0.011059035 0.012557348 0.0037324093 0.017277298 -0.007351276 0.0012678942 0.023953758
-0.017977828 0.0236062 0.019406699 -0.008222895 -0.016377484 0.012667872 -0.01765176 -0.019328937
0.0072711706 -0.0160941 0.02247681 0.015179394 0.022556556 -0.00052640785 -0.019413412 -0.006763943
-0.026758935 -0.005884966 0.022023488 0.004959163 0.014753366 -0.017002933 -0.006484898 0.020063402
0.017160395 -0.020809453 -0.015437094 0.0032498422 -0.011325118 0.0045424392 -0.0070376825 0.008689419
-0.018384775 0.02348443 -0.015259433 0.014195964 -0.02109833 -0.024414532 0.007894659 0.014501346
-0.012769887 0.018754207 0.014852847 -0.0008671053 0.022871982 -0.016207896 -0.023492446 0.010595826
0.007919781 0.013077929 -0.010405805 0.010876496 0.004448563 0.01381175 0.024881568 -0.014410907

batch_norms.0.running_mean f4 [64]
00000000: 6d51 753e 02e6 5c3d 1508 c4bc 851c fa3b
00000010: fcf3 c63e 1471 c33d 31ef 113e 2448 c7be
00000020: 0afc ef3d 5460 9f3e aea1 c43e e214 31be
00000030: 91c7 da3c e471 d1be 43f3 b2be 4e7b 4ebe
00000040: 41ad 79be 5e7f 403d d023 16bd 20e0 71bd
00000050: 37e7 533e f016 02bd e13b 883d f97c 94be
00000060: 5cab 0e3e 5db3 7f3e 4898 6e3e f9e5 c8be
00000070: d478 c9bc 7250 573d 3c62 c03e ce70 98be
00000080: 7fcc 483d 8ea4 203e 86c2 9ebc 0223 2ebe
00000090: 668f e33e 471e b8bd c83b d23e 3675 f03e
000000a0: 3464 1fbf 6dce c7bd 95e3 49be 73fa 8dbd
000000b0: b388 d83e 73ec 31be 6783 8fbd a549 b83d
000000c0: 24b3 bbbc 6651 643e 9939 dfbe bbda 183e
000000d0: e541 21be 9d38 1a3e df9c 84be 520b 1f3d
000000e0: 530a ba3e f192 2abc 4a58 adbe e3fa 59be
000000f0: e8d4 11bd f3cf 93be d70e e1bd 0b47 893e
0.23956843 0.05393029 -0.023929635 0.0076327943 0.3885802 0.09543052 0.142514 -0.38922226
0.117179945 0.3112818 0.38404602 -0.17293122 0.026706489 -0.40907204 -0.3495122 -0.20164225
-0.24382497 0.046996467 -0.036655247 -0.059051633 0.2069367 -0.031760156 0.06652046 -0.29001597
0.13932556 0.24970765 0.23300278 -0.39237955 -0.024593748 0.052566953 0.37574947 -0.29773563
0.049023148 0.15687773 -0.019379865 -0.17005542 0.44445342 -0.0899015 0.41061234 0.46964425
-0.6226227 -0.097561695 -0.19715722 -0.06932535 0.42291793 -0.17375354 -0.07007485 0.089984216
-0.02291257 0.22296676 -0.4359863 0.14927189 -0.15747793 0.15060659 -0.25900933 0.038829155
0.36336002 -0.01041101 -0.33856422 -0.21287112 -0.035603434 -0.2886959 -0.109891586 0.26812014

batch_norms.0.running_var f4 [64]
00000000: f998 793d 762c 8a3d 718d 993d c6d8 4e3d
00000010: 4e4d e53c 3d2d 083d 2da3 9e3d aae5 6d3d
00000020: e1b1 913d 4301 8a3d 2e33 2c3d 2ff6 883d
00000030: 9226 283d ff66 753d d651 3b3d 8af7 083d
00000040: d12d 943d 4da9 9c3d 69fd 913d f863 253d
00000050: 70ff 063d e9d2 783d 5376 923d 62c5 8d3d
00000060: ad57 3f3d cada 653d 4f2c 773d a9da 2c3d
00000070: bdb4 213d 3e70 363d c433 8e3d 8759 8b3d
00000080: 6eba 3a3d 8657 5e3d 2da8 c43d 0be2 923d
00000090: ec70 7a3d ad59 1e3d af93 c43d 86a3 803d
000000a0: 8ba0 373d ff4b 813d 6c7a 9b3d 4f85 1a3d
000000b0: 9c08 6f3d e1a7 513d 3052 093d b56f 8d3d
000000c0: fa27 893d bb10 b63d 591c 603d 9904 133d
000000d0: b941 813d 1ce2 6d3d 5170 463d 3cc3 9d3d
000000e0: a1b2 603d 7424 063d dc35 893d 0860 363d
000000f0: 8f92 7b3d d81d 643d 40ca 113d 372e 573d
0.0609369 0.067467615 0.07497681 0.0504997 0.027990963 0.033246268 0.07745967 0.058080353
0.07114006 0.06738522 0.042040996 0.06687581 0.04105241 0.059912678 0.04573234 0.033439197
0.07235301 0.07649479 0.07128412 0.04037854 0.032958448 0.060748015 0.07151475 0.069224134
0.046714474 0.056116857 0.06034499 0.042200718 0.039479006 0.044540636 0.06943467 0.06804185
0.04558795 0.054282688 0.096023895 0.071720205 0.061142847 0.03865974 0.09598481 0.062811896
0.04483084 0.06313323 0.075917095 0.03772479 0.05835782 0.051185492 0.033525646 0.06906072
0.06697078 0.0888991 0.054714534 0.035893057 0.06311364 0.058076963 0.048446957 0.077032536
0.054857854 0.03274961 0.06699726 0.044525176 0.061419066 0.055692524 0.03559327 0.05253431

batch_norms.1.weight f4 [64]
00000000: 7527 833f 865a 793f 95f8 823f 9eb9 823f
00000010: 7d0b 823f b353 823f fa11 833f f045 823f
00000020: e1a1 823f e89c 823f e2fa 823f 9f1a 833f
00000030: 9f86 823f 6ee7 823f 4c46 7c3f 4a32 823f
00000040: a522 833f 6fb1 783f d6f6 823f 9ddd 823f
00000050: 6d5f 833f 02a8 783f c25c 813f f705 833f
00000060: 9e2a 803f 3fe1 823f 5bfa 823f 615e 7e3f
00000070: 9117 833f 2fe2 823f e408 833f 033c 833f
00000080: 3e0c 7d3f 9c15 833f 1c21 813f a6bc 813f
00000090: 1c1d 833f b13a 7d3f 72d8 803f 5c55 813f
000000a0: 8951 7f3f 9fde 823f 6008 833f 7d26 833f
000000b0: 20bc 803f df86 7c3f 5085 7c3f 79f0 7e3f
000000c0: a9df 823f b2af 823f 7f63 823f 2cbb 823f
000000d0: 09a7 823f 6552 833f f041 833f 3320 823f
000000e0: f8fe 813f 0079 7d3f 9f52 833f 2274 813f
000000f0: ec13 833f 934c 783f d0c1 823f c589 7e3f
1.0246416 0.9740375 1.0232111 1.0212896 1.0159756 1.0181793 1.0239861 1.0177593
1.0205652 1.0204134 1.0232813 1.0242499 1.0197333 1.0226877 0.98544765 1.0171597
1.0244948 0.9714574 1.0231578 1.0223881 1.0263497 0.9713136 1.0106432 1.0236195
1.0013006 1.022499 1.0232652 0.9936276 1.0241567 1.0225276 1.0237088 1.0252689
0.98846805 1.024097 1.0088229 1.0135696 1.0243258 0.9891768 1.0066054 1.0104175
0.9973379 1.0224189 1.0236931 1.0246121 1.0057411 0.98643297 0.9864092 0.9958568
1.0224506 1.0209868 1.0186614 1.021337 1.0207225 1.025952 1.0254498 1.0166076
1.0155935 0.99012756 1.0259589 1.0113566 1.0240455 0.96991843 1.0215397 0.9942897

batch_norms.1.bias f4 [64]
00000000: bae9 de3c 8fcd acbc d57e cc3c c6b4 c33c
00000010: 8857 c33c 061c ee3c 915c dc3c 2786 b43c
00000020: 360f c13c c8c1 c63c 4f66 da3c 5c40 c93c
00000030: dc6e c33c 8e5f d23c a261 4cbc da9b a83c
00000040: a306 cc3c 6f06 b5bc 730f c43c ebf3 cb3c
00000050: 828b e33c 9da9 b8bc 70da 053c d102 d43c
00000060: 1c93 9d3c 8af8 cc3c 7bc7 db3c d696 02bb
00000070: a5c3 d13c 0ce0 e33c 6e98 ca3c f5a6 de3c
00000080: acc7 c2bc 4aba d83c 5a2a 963c c852 a43c
00000090: e9d0 cf3c 7a68 25bc e163 023c 3b4c b7bc
000000a0: 69a6 853b 3256 d93c d3e1 cb3c 18aa d83c
000000b0: 9e74 e13b bd0c 60bc e0cd 85bc ff58 383c
000000c0: fa4b ca3c 3957 d73c 90ab ed3c 7370 c93c
000000d0: 9231 be3c 6789 d23c be03 df3c 8ff0 7ebc
000000e0: 9f32 8d3c b27a bebb df22 e53c ef5b a63c
000000f0: 2b59 c13c 9de1 e1bc 51f6 cc3c 3052 15bc
0.027211059 -0.021094112 0.024962822 0.02388991 0.02384545 0.029066097 0.026899608 0.022036625
0.023566823 0.024262324 0.026660113 0.024566822 0.023856573 0.02568033 -0.012474449 0.020582128
0.024905508 -0.022097794 0.023933148 0.024896583 0.027776483 -0.022541815 0.008169755 0.02588025
0.019235186 0.025020856 0.026828518 -0.001992633 0.025605986 0.027816795 0.024730887 0.02717922
-0.023776852 0.026456017 0.018330742 0.020059004 0.02536817 -0.01009571 0.007958383 -0.022375217
0.0040786755 0.026530359 0.024887955 0.026448295 0.006880357 -0.013674912 -0.01633352 0.011251687
0.024694432 0.026286708 0.029012471 0.024589753 0.023216996 0.025700284 0.027223464 -0.015560283
0.017236052 -0.0058129663 0.02797073 0.02030751 0.023602089 -0.027573401 0.025019797 -0.009113833

batch_norms.1.running_mean f4 [64]
00000000: 8db7 e53d 537e 623e 69f0 383f 8ce8 0b3f
00000010: 89f9 ed3c 2905 82be 56ff 8fbe 3ae7 04be
00000020: e003 443e 01d7 4bbe 83fb acbe 664d a0be
00000030: dab8 053f c674 babb d249 01bf 0f9b 10bf
00000040: 3f45 42bd 8f29 19be f135 633e 25f1 73bd
00000050: 4376 343d 754e 6b3f f903 8f3e 13dc 5cbf
00000060: 7ed4 103e 5641 23bf fa98 fc3d 3405 fbbd
00000070: 6854 93be af3e e13e 388d ca3e 3d8f 6c3d
00000080: 1e17 5dbf e0d3 e93d 431d 143f 5c0b 343f
00000090: e6f5 cabe 9237 40bf 17e3 d1bd 1be2 06bf
000000a0: 9c43 4a3e 6d50 c1be 3693 e33e 4245 be3d
000000b0: ff75 d3be 885b f33e dc34 5ebe 42b8 253d
000000c0: 30d8 68be a317 2a3e c019 cfbe 1889 443f
000000d0: 39b1 9e3e 4b1c c9be d853 f4bd ac7b 2bbb
000000e0: 21a0 f8bd 9686 17be 9461 16be 5825 153c
000000f0: c843 00bf d7d6 09bf 2bb8 113f 74d1 903e
0.1121665 0.22118501 0.72241837 0.54651713 0.029049652 -0.25394562 -0.28124493 -0.12978831
0.19142103 -0.19906236 -0.33785638 -0.3130905 0.52235186 -0.00569019 -0.50503266 -0.564866
-0.04742932 -0.1495726 0.22188546 -0.059556145 0.044058096 0.9191659 0.27932718 -0.86273307
0.1414356 -0.6377157 0.123338655 -0.12256852 -0.28775334 0.43993136 0.39560866 0.05775379
-0.863634 0.11417365 0.5785715 0.70329833 -0.3964073 -0.75084794 -0.10248392 -0.5268876
0.19752353 -0.37756673 0.4444825 0.09290554 -0.4130096 0.4753077 -0.21699852 0.040458925
-0.22738719 0.16610579 -0.40449333 0.7677169 0.30994585 -0.39279398 -0.119300544 -0.0026166243
-0.12139917 -0.14797434 -0.1468566 0.009103142 -0.50103426 -0.53843445 0.56921643 0.282848

batch_norms.1.running_var f4 [64]
00000000: 588d 4a3f 4881 583e 7574 4b3e 3b7b 8f3e
00000010: 73c4 ea3e 2b44 af3e dfcc 483e 7f3a 853e
00000020: 9406 253f a39d 653e 6eed 573e e250 183f
00000030: daaa 263f 6df3 a93e 4ecb 7f3e 879e b43e
00000040: b5e2 3a3e 7270 4b3e 1735 973e 2547 493e
00000050: 1f91 e53e e4de 653f 8bff e33d 9ae4 2f3e
00000060: 5668 133f 06ad f53e 864b 003e 2483 4e3e
00000070: 737a a53e 0608 d63e 18b6 823e 968a 8d3e
00000080: 7c64 193e f805 093e 5647 0a3f 6f23 8e3e
00000090: 246d 923e 2b82 613e b61d c73e 80a3 9e3e
000000a0: 295d 793e 1135 3e3e c60f d63e 217a c63e
000000b0: d747 9e3e 247c be3e 18b6 063e 54e0 083f
000000c0: 05c9 553f 9764 203e 36fb f53e d9d5 943e
000000d0: 0d86 e83d 72f4 5d3e e552 0e3f 1e73 053f
000000e0: cfde 443e f4ff 643e 2e48 7e3e f5de c63e
000000f0: 30b8 913e 2bfe d03e b3d9 6c3e 8f2e af3e
0.79121923 0.21143067 0.19868644 0.28023705 0.45853004 0.34231696 0.19609402 0.2602119
0.6446316 0.22423415 0.21086666 0.5949842 0.6510445 0.33193532 0.24979898 0.35277197
0.18250544 0.19867113 0.29532692 0.19656046 0.4483728 0.8979323 0.11132725 0.17177048
0.5758108 0.4798357 0.1252881 0.20167214 0.32319984 0.41802996 0.25529552 0.27644795
0.14979738 0.13381183 0.540151 0.2776141 0.28598893 0.22022311 0.38889855 0.30984116
0.24351944 0.1857493 0.4180891 0.38765052 0.30914184 0.37204087 0.13155401 0.534673
0.83509856 0.15663372 0.4804322 0.29069403 0.11353693 0.2167528 0.55595237 0.5212878
0.1922562 0.22363263 0.24832222 0.38841978 0.28460836 0.40818915 0.2312992 0.3421521

classifier.0.weight f4 [32, 64]
00000000: 315f d93d 0884 02bc 4071 5fbd 68ab 40bc
00000010: 033b a33d 7521 e2bd 67fd 11be 4ecd ff3d
00000020: 5509 dfbd 2fe6 393d 9f8b 38bc 6f18 bebd
00000030: 9ed9 f83b aadb eabc f457 87bc 473f 8a3c
00000040: 9dd8 a9bd 2f2f 6d3d 71d3 f2bd f8d9 953c
00000050: 82bc bdbc 87d9 de3c 96d8 4fbd 38ea 943d
00000060: 0696 2e3d b233 c4bb 0219 a43d 881e 0fbb
00000070: 4ff5 3a3d 01a2 0c3c 878d 13be 55b2 d1bc
00000080: 94f7 70bd 88f5 febc 1694 a43d aecb 0e3d
00000090: 8018 7e37 d08c 69bd 9f7d edbd 2da5 473d
000000a0: e375 103c 2dee 9ebd 54fc 263b 1981 89bc
000000b0: 8e29 9bbd 337f 3bbc 40af 1a3c 7ea0 20bd
000000c0: dc0a a5bd ecd0 8abc 42f6 8dbd 2aaa 73bd
000000d0: 61d7 113e 6c50 9f3b aa5b 62bc fe0b 0d3e
000000e0: 2469 a6bd 21bb bb3d 644d e93c 7761 afbd
000000f0: d1ae 1e3d 9ab9 b5bd 6f4f c9bd cdb4 b33d
00000100: 20bb f6bd 0967 97bd 987b 5abd e740 993d
00000110: c7c5 9f3d 508a 2fbb a65f 8ebb bc44 fcbc
00000120: 7101 603d abc9 5cbd c008 e83d 3995 84bd
00000130: 723a ce3b 1e24 8abd 4c09 b63d 2c38 813d
00000140: 1d6e 893d 3701 8cbd a3db 10bd 9731 5b3c
00000150: f708 553b 2571 ee3a ea78 e33d 16bb 883d
00000160: 7241 ec3d 3270 7f3d 61a6 21bd b675 e73d
00000170: 6685 7ebd ede8 95ba 5c04 59bc 1af6 2a3c
00000180: 8797 8d3d bb5a 02bd 0138 d7bc 8c6e a5bd
00000190: 0d5b 40bd 0062 86bd f633 bcbc 921a 8a3d
000001a0: 2643 ccbd dc49 d93d c43c b9bd 3a56 19bd
000001b0: e0be ab3d 45d1 c83d cb9a 713d 41d2 89bc
000001c0: f3a1 3b3c a78d b23d 4a15 e5bc 18e1 093e
000001d0: 9ff7 a6bd 4941 493c 5d65 b43d 3165 5f3d
000001e0: 907d afbd 83c4 c63d a855 b73d 1c55 d3bd
000001f0: 1b2f 6fbd 35ca a4bd 1a16 48bc f436 48bd
00000200: e342 2abc 5351 5d3d fc76 2ebd 2dc6 cfbd
00000210: 7319 b73d c754 76bd 1fa5 15bd 24a0 a7bd
00000220: dd1a 663b 2703 afbd 8459 ca3c f371 f0bd
00000230: 7ea2 6bbd 844d 2dbd ecad afbd da7e 203d
00000240: a30e a73d 7099 77bd 1c37 e2bc 4434 cb3b
00000250: 9311 b13d 52fe df3d 9129 653d 40a7 39bd
00000260: 1503 c5bd 0045 2eba 181b 753d 430a b7bc
00000270: b532 d33d f899 48ba 22e4 ef3d b65d 72bc
00000280: 615a bb3b 8de3 8ebd fb25 b9bd 690d 8bbd
00000290: debc d0bc b3f4 bf3d 6ecd 4fbb f8de 8dbd
000002a0: 1f6d d7bd 50a8 55bc 77c3 93bd cef7 72bd
000002b0: 0532 d6bc 9d4b b33d 60e1 ef38 111d cdbd
000002c0: e0b6 8239 7603 9c3d 007c c33d ac02 fa3c
000002d0: d444 e8bd 9814 c1bd 92d6 df3c 6e11 e63c
000002e0: 3fb0 09be a93c c6bd 4acb fa3b c6ee 86bd
000002f0: ef3e 173d cbf3 e33c d795 65bd 339e 82bc
00000300: 43bc fabc 0850 bbbd 4cb3 883c 111a a7bd
00000310: 96f9 653b 2259 e3bd 49d6 8d3d 821f d23d
00000320: ed15 ac3b af2e d63c 7ab5 c5bd 60fc 15bd
00000330: 1f44 0dbe 9ec5 11be afcc 823d 2517 763d
00000340: f3ba 083e 99e0 a0bc bd1c 0cbd d3b3 1d3c
00000350: 0ce5 c13d 75ea 83bc 5426 debd ca71 a3bc
00000360: fd98 e4bd e61b 4ebd 3cae fe3d 206d 0e3d
00000370: 2be9 033d 5540 cebd bb9b 07bd 00bc 603d
00000380: ab2c f53d dafb 8c3d 835b 72bd 4231 c0bb
00000390: 6b80 bd3d 50e5 0c3d 6056 6dbd a69c 533d
000003a0: 3830 5c3d 4e03 8bbd b451 83bb 5777 c3bd
000003b0: 19d3 38bc 36e3 803d 2d6f 303d 3230 033c
000003c0: 09c5 e8bd 3662 30bd 0511 b13d 2188 15be
000003d0: 08bd 57bd 4a68 883d dca6 04be bba7 ff3d
000003e0: 4f9b c03c b38e 763d 74f7 30bc 5794 e9bc
000003f0: 02d8 803d 3470 133e 7a84 103e c145 c2bb
0.106138594 -0.007966049 -0.054551363 -0.011759616 0.0797024 -0.11041538 -0.14256822 0.12490331
-0.10890452 0.045385536 -0.011263757 -0.09282004 0.0075943014 -0.028669197 -0.016521432 0.016875876
-0.08293269 0.057906326 -0.118567355 0.018292412 -0.023161177 0.027203334 -0.05074366 0.07271236
0.042623542 -0.005987608 0.08012582 -0.0021838266 0.0456441 0.008583547 -0.14409457 -0.02559773
-0.05882986 -0.031122938 0.08036058 0.034862213 1.5145284e-05 -0.057019055 -0.11596226 0.04874151
0.008817169 -0.07760272 0.002547999 -0.016785191 -0.07576285 -0.011443901 0.009441197 -0.039215557
-0.08058712 -0.016945325 -0.069317356 -0.059488453 0.14242317 0.004861882 -0.0138158 0.13774106
-0.08125523 0.091665514 0.028479286 -0.08563512 0.038740937 -0.08873291 -0.09829604 0.087747194
-0.1204741 -0.07392699 -0.053340524 0.07483082 0.07801395 -0.0026785322 -0.0043448983 -0.030794494
0.054688875 -0.053903263 0.11329794 -0.064737745 0.0062935883 -0.0674517 0.08888492 0.06309542
0.067104556 -0.06836169 -0.035365712 0.013378522 0.0032506564 0.0018191679 0.11107047 0.06676309
0.1153592 0.062362857 -0.039465312 0.113017485 -0.062138937 -0.0011437215 -0.013245668 0.010434652
0.06913667 -0.03182481 -0.026271822 -0.08077726 -0.046961833 -0.06561661 -0.022973996 0.06743349
-0.09973745 0.10609791 -0.09044793 -0.037435748 0.08386016 0.0980554 0.058985513 -0.01682389
0.011452186 0.08718424 -0.027964253 0.13464773 -0.08152699 0.012283632 0.08808396 0.054539863
-0.08568871 0.097054504 0.089518845 -0.10318968 -0.058394533 -0.080463804 -0.012212301 -0.048880532
-0.010391924 0.054032635 -0.04259394 -0.10145221 0.08940401 -0.060139444 -0.036534425 -0.08184841
0.0035111227 -0.08545523 0.024700888 -0.11740484 -0.05752801 -0.042310253 -0.08578095 0.039183475
0.081570886 -0.060449064 -0.027614169 0.006201299 0.0864593 0.109371796 0.055947844 -0.045325518
-0.096197285 -0.0006647855 0.05984029 -0.02234376 0.10312406 -0.00076523377 0.11713435 -0.01479285
0.005717561 -0.069769956 -0.09040447 -0.06789667 -0.025480684 0.093728445 -0.003170814 -0.069272935
-0.1051886 -0.013040617 -0.07215016 -0.059318356 -0.026146898 0.087546565 0.000114383874 -0.100153096
0.00024931785 0.076178476 0.095451355 0.030518852 -0.11341253 -0.09427756 0.027323995 0.028084483
-0.13446139 -0.09679539 0.0076536285 -0.06588511 0.036925253 0.02782621 -0.0560511 -0.015944576
-0.030607348 -0.09146124 0.016687058 -0.08159269 0.0035091392 -0.11100985 0.06925637 0.10259916
0.005251637 0.026145307 -0.096537545 -0.036617637 -0.13795517 -0.14235541 0.063866965 0.060080666
0.13352565 -0.019638347 -0.034207094 0.009625393 0.09467515 -0.016103009 -0.10847154 -0.01995172
-0.11161993 -0.050319575 0.12435576 0.03477204 0.03220479 -0.10070864 -0.0331075 0.05486679
0.1197141 0.068839744 -0.059169304 -0.005865247 0.092530094 0.034398377 -0.0579437 0.051663063
0.053756922 -0.0678774 -0.0040075425 -0.09544247 -0.011280798 0.06293337 0.043074775 0.008007096
-0.113657065 -0.04306241 0.08645824 -0.1460271 -0.05267051 0.066605166 -0.12954277 0.12483164
0.023511557 0.060194682 -0.010801185 -0.028513117 0.062912 0.14398271 0.14113036 -0.0059287255

classifier.0.bias f4 [32]
00000000: 08b3 ea3d 993c 3fbc 6b89 1abd 5fc3 693d
00000010: d9d9 0abd 11a3 bbbd 719a 37bd d6f7 a2bd
00000020: 7864 d53d 36a9 ebbd 4d43 c2bd d0c6 8fbd
00000030: 55ea 98bc 5c11 153e 0361 7b3c a6bb 41bd
00000040: f726 e83b 881f efbc 7bc8 60bd 667a e3bd
00000050: 0287 243d 0307 84bc b5f8 c1bd 1088 bd3d
00000060: abed 2cbd 24cd 9f3d 2e58 c0bb 99c6 5ebd
00000070: 9481 943c 56dc 20ba ff51 87bd 894a 98bd
0.11459929 -0.011672162 -0.03772871 0.057071086 -0.033899162 -0.09161962 -0.04482502 -0.07957427
0.104195535 -0.11506884 -0.09485493 -0.07020342 -0.018666426 0.14557403 0.015342954 -0.047298096
0.007084723 -0.02918984 -0.054878693 -0.1110733 0.040167816 -0.016116625 -0.09471265 0.092544675
-0.042218845 0.07802799 -0.005869887 -0.054388616 0.018128194 -0.0006136348 -0.066074364 -0.074360915

classifier.3.weight f4 [3, 32]
00000000: 6204 3abc 5c2a d33c ffb2 d4bd bdf4 213e
00000010: 1013 e6b8 c222 323e 945d 1a3e 524f 173e
00000020: 37bd 053d 130d 02be 5604 69bd b62e 423e
00000030: 07d1 a93d 960a ba3d b0b3 e5bc ebef ba3d
00000040: 6091 10be 8171 3e3d 2aa4 28bd 8822 e13c
00000050: f1dc 063e b5d0 003e 1a72 453e 92b4 f23c
00000060: 2cd9 8c3d f9b0 143e 5623 353e e16a cabb
00000070: aafb 923d 6f14 57bd 5ab1 71bd 734e 70bc
00000080: 9f21 3abd a2b8 f33d 5679 8e3d d5e4 e2bd
00000090: d40e bcbd 5a24 b83d 36af 86bd 0324 5ebd
000000a0: 5378 2cbe cfb1 613d 536f 0bbe c220 c13d
000000b0: af60 b7bd fa64 b6bd 4545 61bd 68ca fd3d
000000c0: e446 1c3e 6583 0a3e 1a19 0cbe b4c0 1d3e
000000d0: 912e 9fbd ff02 28be fcb1 973d a26d 033c
000000e0: 0f51 173d 998a 663d 8a34 803d 483b 003e
000000f0: ef7a 903d 24a3 213d d0eb a7bc 65b4 4dbe
00000100: a4af 42be 62fb ca3d 1ea9 15bd 06bf c6bd
00000110: 0583 90bc 1c8e 71bc 8f97 23bd c143 51bd
00000120: 817e 8bbd 2b4d 033e 0055 68bb e843 cbbd
00000130: e64e efbd 252d 30bd bb25 143e 2dbe 21be
00000140: d659 80bd c353 39be bc45 35be 2921 153e
00000150: 0038 983d 18f1 9c3d 408e cbbd 924a d8bd
00000160: 4801 d53d 5b66 dd3c 6ccc 3cbd ab39 19bd
00000170: d994 03be f6f7 113e 3c52 ff3d 061e e9bd
-0.011353584 0.025777034 -0.10385703 0.15816016 -0.00010970805 0.17396072 0.1507476 0.14776352
0.032651152 -0.127003 -0.0568889 0.18963131 0.08291822 0.0908405 -0.028039783 0.09127792
-0.14117956 0.046494965 -0.041172184 0.027482286 0.1317022 0.12579615 0.19281808 0.029627118
0.0687736 0.14520635 0.17689261 -0.0061772917 0.07176907 -0.05250972 -0.059007026 -0.014667141
-0.04544222 0.1190045 0.06956737 -0.110788025 -0.09182516 0.089913085 -0.065763876 -0.054233562
-0.16842775 0.055101212 -0.13616686 0.09430076 -0.08953988 -0.089059785 -0.0549977 0.123921216
0.15261418 0.13526686 -0.1368145 0.15405542 -0.07772554 -0.16407393 0.07406995 0.008021744
0.036942538 0.05628452 0.06260021 0.12522614 0.07054698 0.039462224 -0.020498186 -0.20088346
-0.19012314 0.09911229 -0.036538236 -0.097044036 -0.0176406 -0.014743354 -0.03993946 -0.051090006
-0.06811238 0.12822406 -0.0035451055 -0.099250615 -0.116849706 -0.043011803 0.14467518 -0.15795203
-0.06267135 -0.18098359 -0.17702383 0.14563431 0.07432556 0.076631725 -0.099392414 -0.10561098
0.10400635 0.027026346 -0.04609339 -0.037408512 -0.1284975 0.14254746 0.12466857 -0.1138268

classifier.3.bias f4 [3]
00000000: 67d5 103c 3bc7 d53d 230f babc
0.008839942 0.10438391 -0.022712296
